policy_net_cat_monsters.pth (torch, 84693 bytes, 6 tensors)

fc1.weight f4 [128, 25]
000000 8b 3c d4 3d d9 ce a6 3d 9b 08 41 3b eb 26 41 3e
       0.1036311 0.08144922 0.0029454592 0.18862502
000010 bb da 5d 3e f7 5f c4 bd 2b 36 8e bc 74 15 10 be
       0.2166547 -0.09588616 -0.017359814 -0.14070684
000020 33 b4 8b bd 89 f2 52 3d 7b ea 48 3d e0 6d 66 3d
       -0.0682148 0.05150083 0.049051743 0.05625713
000030 1d 86 f2 3d 13 41 ab 3d a0 a8 16 3e 81 94 41 be
       0.11841986 0.08362021 0.14712763 -0.18904306
000040 68 d4 07 be 4d d1 1e 3e 7b aa 1f bd b2 a5 da 3d
       -0.1326462 0.1550953 -0.038980942 0.10676135
000050 cc 33 2c be 1a 1a 10 3d 21 78 0d be 5d 51 40 bd
       -0.16816634 0.035181142 -0.13815357 -0.046952594
000060 39 ed 50 3d 3a 11 a7 3b 63 af 28 be a8 30 c4 bd
       0.051007483 0.005098489 -0.16473155 -0.09579593
000070 d7 2f 81 3e 34 d4 21 3e 51 dd 67 be 36 e4 59 bc
       0.2523181 0.15803605 -0.2264302 -0.013299039
000080 54 0e 2b be 02 14 4e be 36 fd ef 3d f2 b2 85 3d
       -0.16704684 -0.2012482 0.11718218 0.06528272
000090 5f 77 10 be f3 da 41 3d 78 77 14 3e 76 db 47 3e
       -0.14108036 0.047327947 0.14498699 0.19517311
0000a0 4a fc 17 3e cc a3 bf 3c bb 82 2d be 74 58 1b 3e
       0.14842334 0.023393534 -0.16944401 0.15170461
0000b0 1c b3 76 3e 77 93 b7 3d ef 4f 56 be 88 32 df 3c
       0.24091762 0.089636736 -0.2092893 0.027245775
0000c0 eb 6a af 3d 7c 1c a4 3d 37 0f 11 3e 4b 62 c9 bd
       0.08565315 0.080132455 0.1416596 -0.09833201
0000d0 3a b9 04 bd 84 a4 81 3e 4e 4b 8f 3d 61 73 e1 3b
       -0.03240321 0.25320828 0.06996785 0.0068802093
0000e0 74 f6 2e 3d 1f 05 06 3e 70 d3 f0 3d 9a c9 84 3d
       0.042715505 0.13087891 0.117590785 0.06483765
0000f0 16 9b a0 bd 3a 54 29 be c2 fe 17 3e 27 1b b0 3d
       -0.0784208 -0.16536036 0.14843276 0.08598929
000100 ab f2 65 3e 81 56 e1 3c 39 41 b0 3d 3a 57 19 be
       0.22455852 0.027507069 0.0860619 -0.1497468
000110 76 f9 b8 3c b1 ed 04 3e aa 89 3c 3c bd f2 8b bd
       0.02257989 0.12981297 0.011507431 -0.06833408
000120 6f 18 08 3d 39 08 0a bd 75 08 a2 3c 2b 83 56 bd
       0.033226427 -0.033699248 0.019779423 -0.052371185
000130 8c 26 15 3d b8 a5 c5 3d a3 07 c4 3d ac 70 f4 bd
       0.036413714 0.09650749 0.09571769 -0.11935553
000140 7e 82 53 be ac aa 2c 3d a5 a0 e1 3d b4 1f 82 bd
       -0.20655248 0.042154953 0.11016969 -0.06353703
000150 a2 ad 5b 3e 8e 80 01 3d 9a 2f c5 3d 80 56 f0 bd
       0.21452954 0.03161674 0.0962822 -0.117352486
000160 58 a2 20 3e 2a 65 2b 3e 2c 33 4c bd 93 7e 14 be
       0.15686929 0.1673781 -0.04985349 -0.14501409
000170 dd 83 9a 3d 33 86 93 3d 72 dd 25 3e a2 cc d2 bd
       0.07544682 0.07203331 0.16197756 -0.10292937
000180 3e cb 3b be e9 f7 fd 3c 0e 5a 13 3e 97 3a 04 3e
       -0.1833925 0.031002002 0.14389822 0.12912975
000190 77 16 04 be 01 2d 63 bd ae 9d 50 be 23 0f 26 be
       -0.12899195 -0.05546284 -0.2037265 -0.16216712
0001a0 e0 5c 06 3e e2 37 42 bc 39 b2 02 3d 99 29 02 3d
       0.13121367 -0.011854144 0.031908248 0.031777952
0001b0 50 0f af 3c e3 a2 a7 3b 86 88 5b 3e 40 71 26 3e
       0.021369606 0.005115853 0.21438798 0.16254139
0001c0 00 03 41 be 8d 23 96 bc 2c 94 6c be ce 21 cf ba
       -0.188488 -0.018327499 -0.23103398 -0.0015802921
0001d0 3c 38 98 bc e0 65 23 bd ee 6b 54 3e f0 38 5c be
       -0.018581502 -0.039892077 0.20744297 -0.21506095
0001e0 8f 09 21 be 7b 71 60 3c e0 c7 74 bd 00 5b ec 3d
       -0.15726303 0.013698931 -0.05976093 0.115407944
0001f0 0e 98 81 bc ee 7a 96 3c 26 61 e6 ba 16 59 a2 bc
       -0.015819576 0.018369164 -0.001757656 -0.01981787
000200 b8 c1 97 bc 01 ce 68 bd 62 67 58 3e 06 58 2d be
       -0.01852499 -0.056837086 0.21133187 -0.1692811
000210 25 8b 41 bd a2 85 b4 bd d6 e9 6f bd 07 f0 4d be
       -0.04725184 -0.08814551 -0.058572613 -0.20111094
000220 87 d5 06 3e 0a 16 42 be 27 6f 11 3e 34 9b 2b 3c
       0.13167392 -0.1895372 0.14202558 0.010474015
000230 04 04 b5 3d 65 8b 1c be 53 73 95 bd 2e 90 bb 3d
       0.088386565 -0.1528755 -0.07297387 0.091583595
000240 f1 8b eb bd 07 94 41 3e 2b 96 24 be 99 42 00 3e
       -0.11501301 0.18904124 -0.1607291 0.12525405
000250 7f 73 44 3d a0 68 3e be 02 d5 31 be 47 5a e9 3d
       0.04796171 -0.18594599 -0.17366412 0.11394172
000260 c1 4e 84 be f9 8b d5 3d 82 c1 07 3e 44 f8 a4 bd
       -0.25841334 0.10427088 0.13257411 -0.080551654
000270 35 32 fc bb 12 33 f7 3d b6 d8 20 3e 01 b8 4e be
       -0.007696415 0.12070288 0.15707669 -0.2018738
000280 82 2c 08 3e 80 05 9d bd 27 e9 03 be c0 2e d1 3d
       0.13298228 -0.07667065 -0.1288191 0.10213995
000290 ec af b7 bd b0 df de 3d 57 5b 87 3d 63 06 3f be
       -0.08969101 0.10882509 0.066092186 -0.1865478
0002a0 94 63 5d 3d 6a b5 7a be 59 70 01 be 94 39 8d bd
       0.054050043 -0.24483266 -0.12640513 -0.06895748
0002b0 27 92 cb 3d 0f c5 b6 3b 99 04 6b 3d af f0 c7 bc
       0.09939986 0.0055776904 0.05737743 -0.024406759
0002c0 dc 4e 1a 3e ba 1e 64 be 29 8a 30 be b3 51 87 3d
       0.15069145 -0.22277346 -0.17240204 0.0660738
0002d0 cb d7 88 bd 2e b0 76 3e 70 1b 30 3d cb e2 79 3e
       -0.06681784 0.24090645 0.042994916 0.24402921
0002e0 1f 56 b2 bd 15 de 28 bc ca 61 8c 3d 22 c3 1e 3e
       -0.087078325 -0.010306855 0.06854589 0.15504125
0002f0 37 c4 d4 3d ec 09 bc bd d3 2e 0e bc a6 95 18 be
       0.103889875 -0.0918158 -0.008678156 -0.14900836
000300 67 b0 5a 3d 88 cd 22 3d 91 e3 7a be 31 02 0d 3d
       0.053390887 0.03974679 -0.24500872 0.034425918
000310 1b e5 7b 3e 58 91 2c 3e 22 af ae bd c5 ca ba bd
       0.24599116 0.16852319 -0.08529498 -0.091207065
000320 5e a5 b9 3c ef df 22 3e 02 ad 08 bd d6 75 e4 3d
       0.022661861 0.15905736 -0.033368118 0.11155288
000330 3a 45 70 3b 04 57 ac bd 64 84 04 3c 25 6a f6 3d
       0.0036662356 -0.084150344 0.008088205 0.12031964
000340 68 7e 58 3d 51 ab 39 be 89 fb 0d be dd cf af bd
       0.052854925 -0.18131758 -0.13865484 -0.08584569
000350 8d 7c 0c 3d 0d 4d be bd a7 25 7b be 5e 16 51 3c
       0.03429847 -0.0929204 -0.24526082 0.01276168
000360 c9 28 4e be 80 7d bd bc 0c f5 40 3e d3 5f 53 be
       -0.20132746 -0.023131132 0.18843478 -0.20642023
000370 a4 aa 16 bb 13 f1 c9 3b ee 98 22 3e b2 a0 c3 bd
       -0.0022989893 0.0061627715 0.1587865 -0.095521346
000380 c5 d3 82 3d f4 d1 56 3e 6a a0 0b be 82 8c 26 3d
       0.06388048 0.20978528 -0.13635412 0.040661342
000390 d5 8c ee bd 54 7e 6c be 1c 0b 72 bd c2 d4 dc 3d
       -0.11647955 -0.23095065 -0.059092626 0.10782768
0003a0 47 31 ce bc 27 9c 39 bd b2 73 87 be 7d df 3f 3d
       -0.025169982 -0.045314934 -0.26455456 0.046843994
0003b0 3a f0 9c bd 4a 13 90 bd 10 8b e2 bd 9b c1 4a bd
       -0.07663007 -0.07034929 -0.1106168 -0.049501043
0003c0 e6 df 50 be 52 e9 09 3e aa 1a f6 bd c0 54 28 3e
       -0.2039791 0.13467911 -0.120168045 0.1643858
0003d0 8c 5d 43 be 76 1c af bd ff 17 26 3e e4 ec ea bd
       -0.19078654 -0.0855035 0.16220091 -0.114709646
0003e0 2a 75 56 3e 69 64 68 3c 77 e3 52 bc 11 9d 2b be
       0.20943132 0.014184096 -0.012871615 -0.16759135
0003f0 bc 19 1e be 33 75 ca bd 79 89 3e be cc ad 65 3e
       -0.15439504 -0.09885635 -0.18607129 0.2242958

fc1.bias f4 [128]
000000 b2 24 a9 3d e3 07 3e bd a9 7c e6 3d 41 32 13 3e
       0.08258952 -0.04639424 0.11254246 0.14374639
000010 20 cf 51 bd 1c 6b 9c 3d c4 55 c0 3d f7 82 c2 bc
       -0.05122292 0.07637617 0.093913585 -0.02374409
000020 13 83 0c 3e 6e eb 05 3e b3 8c 92 bd 1c 29 1d 3d
       0.13721876 0.1307809 -0.071557425 0.038369283
000030 59 14 5c be 08 93 23 be 0d da 4f be a0 8b f7 3d
       -0.21492137 -0.15974057 -0.20298024 0.12087178
000040 dd be 12 3e 23 82 a2 3d 8b ec 4d be 42 28 52 3d
       0.14330621 0.07934978 -0.20109765 0.051307924
000050 4f 40 28 3d 37 89 54 be 0e bd d7 bd c4 98 07 be
       0.041076954 -0.20755468 -0.10534106 -0.13241869
000060 b4 e5 ba bd 68 af aa bd eb 9b 3f 3d 56 f5 69 be
       -0.09125844 -0.08334237 0.046779554 -0.22847494
000070 40 a8 6a bd 3f c7 4f 3e 81 75 56 3d 34 3a c6 3d
       -0.057289362 0.2029085 0.052358154 0.0967907
000080 70 f4 1e be 4c 12 4b 3c f1 2a 48 be e1 27 24 be
       -0.15522933 0.012394499 -0.19547631 -0.16030838
000090 e5 3f 35 3e 64 19 83 bd bc 44 70 be 5e 29 7c bd
       0.17700155 -0.06401327 -0.2346372 -0.06156289
0000a0 73 fc 01 3e e2 bd 25 be d5 8a b4 bd ef 6e f8 3c
       0.12693958 -0.16185716 -0.088155426 0.030326335
0000b0 9d 1c b3 bd 35 c0 3e 3c b8 bb be 3d c8 ff be 3d
       -0.08745692 0.011642505 0.09313148 0.0932613
0000c0 d3 3c 52 3d aa a8 f0 bd 53 68 01 be 5c 36 34 be
       0.051327538 -0.1175092 -0.12637453 -0.17598861
0000d0 cf a9 46 3e 63 d0 26 3d ce e0 1c be 4c 1f 73 3d
       0.19400714 0.040726077 -0.15320131 0.05935602
0000e0 48 6a 1d bd c7 7a 0b be b7 46 02 3e f8 00 d9 bd
       -0.038431436 -0.13621055 0.12722288 -0.10595888
0000f0 1d ff 35 3e 6d 17 95 3d 3e 2d 89 bd 59 00 33 be
       0.17773099 0.07279859 -0.066980824 -0.17480601
000100 3b 62 e4 bd c5 c7 d1 bd 27 fa 2a be de 03 51 3e
       -0.111515485 -0.10243181 -0.16696988 0.20411631
000110 7a bf 3d be e0 ee 9b bd bb e9 52 3e 93 19 91 bd
       -0.18530074 -0.07613921 0.20596974 -0.07084956
000120 b4 5b 3e 3d b6 65 b5 ba 35 0a 15 3d d7 67 e6 bd
       0.046474174 -0.0013839516 0.036386687 -0.11250275
000130 38 d8 56 be 03 ab b7 bd bd f8 3d bd 1a d3 1c be
       -0.20980918 -0.08968165 -0.046379793 -0.15314904
000140 c8 24 2e be 17 08 68 bd 47 ba 1e be 54 24 2c bd
       -0.17006218 -0.05664834 -0.15500747 -0.042026833
000150 b9 17 34 be 90 7d f5 bd 69 15 9c 3d 75 e1 a9 3d
       -0.17587174 -0.1198684 0.07621271 0.08294956
000160 16 d2 f6 bd ad ae a6 3d ac 8c 6c 3d 55 32 2b 3e
       -0.120517895 0.081387855 0.057751343 0.16718419
000170 cc 43 37 be b9 9a c3 3d bd 5d 1f 3e 6f 9c 1c 3e
       -0.17896956 0.095509954 0.15563102 0.1529405
000180 c4 e3 d9 bd d7 fb 9e bd 74 a7 e2 bd 6a 9b 38 3d
       -0.10639146 -0.077628784 -0.110670954 0.04507009
000190 09 ab 35 bd 23 83 3d be 7a 89 05 be 9f 58 c8 3d
       -0.044352565 -0.18507056 -0.13040724 0.09782528
0001a0 c7 0d 5b be fc 4b ef bd 10 fe 23 be f7 8c 16 3e
       -0.21391974 -0.11684415 -0.16014886 0.14702211
0001b0 42 bb ae 3d f0 c2 0e 3d e9 6c 14 3d 13 08 92 bd
       0.0853181 0.034853876 0.036236677 -0.07130446
0001c0 ff 35 29 3e 66 8d 56 3e 36 23 29 3d 04 97 dd 3d
       0.16524504 0.20952377 0.041293345 0.108198196
0001d0 6a 1d 72 bd a7 b6 53 3e 3d 14 21 be da 26 7c bc
       -0.059110083 0.20675145 -0.15730377 -0.015390122
0001e0 ca 0d 1b be e5 1a 55 be 13 57 6a be e2 b7 89 3d
       -0.15141979 -0.2081104 -0.22884779 0.06724526
0001f0 46 9f c5 3c df 3e d8 3b 00 c1 20 be 09 82 c7 3c
       0.024123799 0.0065992917 -0.15698624 0.024353998

fc2.weight f4 [128, 128]
000000 0e 28 0c 3e 71 6f 52 3c ff 70 8a 3d f9 f0 c8 bc
       0.13687155 0.0128439525 0.067598335 -0.024528967
000010 f5 34 81 bd bd 76 82 3d 6c 09 83 bb db bb f7 bc
       -0.06308929 0.06370304 -0.003998926 -0.030240944
000020 cf ad 85 bd 96 26 be bd 2f 18 92 bd b9 62 b2 3d
       -0.06527292 -0.092847034 -0.07133519 0.08710236
000030 91 31 59 bd ac 53 58 bd 83 1d ab bd 23 b0 48 bd
       -0.053025786 -0.05281417 -0.08355238 -0.048996102
000040 93 e8 05 bd 24 62 b8 bd 32 31 c1 bd 3e 3e 0a 3d
       -0.032692503 -0.09003094 -0.094332114 0.033750765
000050 4f ce 7a 3d 88 46 88 bb b4 cd f4 bd 4f d0 9f bc
       0.061231907 -0.0041587986 -0.11953297 -0.019508509
000060 36 88 b6 bd d8 0c 0d bd f2 83 08 bd 24 eb f1 3c
       -0.08912699 -0.034436077 -0.033328958 0.02953107
000070 06 2e 19 3d 62 e1 93 3d 90 c7 80 3d fb 4a 2b bc
       0.037397407 0.07220723 0.062880635 -0.010454888
000080 33 14 a4 bd 45 36 88 bb 81 e5 95 3b b2 18 19 3d
       -0.08011665 -0.00415686 0.004574478 0.037377067
000090 ed af 89 3b 05 d4 fa bb 2b 2b dd bb bb e0 be bd
       0.00420188 -0.007654669 -0.006749531 -0.09320208
0000a0 81 d5 29 3c 81 8a 52 3d e8 13 b9 bc 00 9a f5 3d
       0.010365845 0.05140162 -0.0225925 0.11992264
0000b0 47 84 cf 3c 29 b4 b5 3b 5d fb 8a bb dd c9 37 3d
       0.02533163 0.0055451584 -0.0042413906 0.044870246
0000c0 65 8f 11 bd 64 bf d7 3c cc 1f fd 3c 9c a4 16 3d
       -0.035537142 0.02633638 0.030898951 0.036778077
0000d0 c5 f6 cd 3d ba 56 ae bc 66 18 09 bd 3f 70 98 bc
       0.10056833 -0.021281589 -0.033470534 -0.01860821
0000e0 63 bb 1e bc a7 e8 e1 bd c2 48 f5 3d 17 e2 b4 3d
       -0.009688231 -0.11030703 0.11976768 0.08832186
0000f0 b6 c3 8d 3d 84 3f af bd c8 ad 6a 3b b4 4d 01 bd
       0.069220945 -0.085570365 0.0035809148 -0.031568244
000100 b4 d1 3c bd b9 e7 40 3d b3 ec a8 3c 23 55 fc bb
       -0.046098426 0.047095988 0.02062068 -0.007700579
000110 ad 2a f8 bd 39 c0 07 bd 3d 0a cf 3d 6e 38 0a 3c
       -0.12117515 -0.033142302 0.10109375 0.008436305
000120 9d e5 e5 bc 30 37 8a 3d 85 df 97 3d 7a 63 7e bc
       -0.02806359 0.067488074 0.0741568 -0.015526647
000130 f7 22 0b bc 69 25 36 3c 56 a2 7e bd 0a 64 72 bb
       -0.008492223 0.011117318 -0.062166534 -0.0036985897
000140 92 80 86 3c 6b b0 22 bd e5 e8 5b 3d 37 fc 3d 3d
       0.016418729 -0.039719027 0.053688902 0.04638311
000150 7d a5 fa bc b8 1f 88 bd 69 f9 be 3d 91 6f 6b 3c
       -0.03059649 -0.06646675 0.09324915 0.014369861
000160 74 6f 6d 3d 6b 81 1a bd 74 bc 78 3c c3 2a 34 bd
       0.057967618 -0.03772108 0.0151816495 -0.043986093
000170 50 20 9a 3c 66 c6 22 3b 4c 49 37 bd dd ef fc 3d
       0.018814236 0.0024837493 -0.044747636 0.12350438
000180 92 da 98 bd 1e 2e 54 bd aa 3c 6e bc ac 40 99 3d
       -0.07463564 -0.051801793 -0.014540831 0.07483038
000190 cf b0 0c 3e c9 50 ce 3c 05 6f 43 3b 52 fa 23 bd
       0.13739322 0.025185006 0.0029820811 -0.040033646
0001a0 d1 e5 4b 3d 75 bf 00 bb 4b 24 9b bc d5 5b 0e 3d
       0.049779717 -0.0019645367 -0.018938204 0.034755547
0001b0 03 92 72 3d a4 8d 65 3c 04 5d 29 bb bf af 52 bd
       0.05922128 0.014010821 -0.0025842795 -0.051437136
0001c0 c5 40 b9 3c f3 f6 df 3c 53 03 31 3c 57 14 06 3e
       0.022613892 0.027339434 0.010804015 0.13093697
0001d0 c5 3c af 3b 80 b0 74 3d 77 39 ba bc aa 66 63 bd
       0.0053478205 0.059738636 -0.02273248 -0.05551783
0001e0 7d 29 0d be 25 ef 50 3d eb a7 56 bd 5b f0 7c 3d
       -0.13785358 0.051009316 -0.052406233 0.06175266
0001f0 79 eb fa 3d 66 af fd 3c 6a 59 ca 3a 71 35 47 bd
       0.12251944 0.030967426 0.0015438024 -0.04863495
000200 9b 97 68 3c 6b 5e 34 bd 2c 5a a6 bd c0 65 31 bd
       0.014196302 -0.044035356 -0.08122668 -0.043309927
000210 23 0a 00 3e 18 ec c4 bc 8d ab 96 3d 4f 4d 8c 3c
       0.12503867 -0.02403836 0.073569395 0.017126707
000220 c1 c3 23 bd 4b 2d b9 3d 21 29 02 3e 23 00 ed bd
       -0.039981607 0.09041842 0.12711002 -0.11572292
000230 93 e6 8e bd 78 25 ee 3b 3e 96 46 bc 9b c8 b7 3d
       -0.06977572 0.00726765 -0.0121207815 0.08973809
000240 82 7b 23 bd 44 2d 1c 3d 1a 0d 13 3d 9c c5 83 bb
       -0.039912708 0.038129106 0.035901166 -0.0040213596
000250 fa 68 26 bc ae ab 06 3c 2f 55 97 3b a8 15 b9 3d
       -0.010156864 0.008219643 0.004618309 0.09037334
000260 77 58 b6 3d f7 8d 32 3d ed 31 3a bc 7a 22 9c bc
       0.08903592 0.04359242 -0.011364442 -0.019059408
000270 59 c4 db 3d f5 08 1a 3d 78 c6 a2 bd 62 b4 3f 3c
       0.1073081 0.0376062 -0.07948011 0.011700721
000280 87 ea f6 3d 23 d7 66 bd e8 8d 86 3d 33 b2 b2 bc
       0.12056451 -0.056357514 0.06570035 -0.021813488
000290 57 59 a4 bd 42 c8 1f bc c8 69 5a bd 0c 6f 2d 3d
       -0.08024853 -0.009752335 -0.053323537 0.04234223
0002a0 86 7e dd 3d 29 c5 47 bd 06 a4 ec 3b e6 2b bc bd
       0.10815148 -0.04877201 0.0072217016 -0.091880605
0002b0 72 4b 0f 3c f9 aa bb bd 96 09 86 3c 88 51 df bd
       0.008746015 -0.0916347 0.016361993 -0.10904223
0002c0 b3 35 ed 3d 45 8d a9 3d a3 21 be bb 01 78 ac 3c
       0.11582508 0.08278898 -0.0058023497 0.021053316
0002d0 07 fb 68 bb 56 7c 91 3c cb 26 d2 3c 01 aa 3b bd
       -0.0035550015 0.017759483 0.025653264 -0.045816425
0002e0 70 bd 13 3e 44 d8 52 3d 3c a2 2e 3d d1 ff 83 bd
       0.14427733 0.05147578 0.042635188 -0.064452775
0002f0 3a 86 e4 bc f3 5e e2 3c a8 ea f3 bb 67 ad 49 3d
       -0.027896035 0.027633166 -0.0074437447 0.049237635
000300 b6 08 7b 3d 8f e2 18 bd 54 dd 85 bd 9c bc 88 3d
       0.061287604 -0.037325438 -0.065363556 0.066765994
000310 47 19 ea 3d c4 e4 1e bc 05 31 01 bc e7 a5 b4 3b
       0.114306025 -0.009698097 -0.007885222 0.005512941
000320 8b b1 18 3c 49 4c 89 3d cd bd c6 bc ee 18 6d 3c
       0.009319673 0.06704003 -0.024260426 0.014471276
000330 a2 8d aa 3d f8 52 4d bd 58 a9 37 bc 4c ad 82 bd
       0.083277956 -0.050127953 -0.011209808 -0.0638071
000340 fc 10 ed 3d f4 6d 88 bc 1b ff 9d bc 39 56 45 3d
       0.11575505 -0.016653992 -0.019286683 0.04817793
000350 d0 af 3e 3b 24 ce a4 3d 63 99 96 bd 12 70 9e 3d
       0.0029096492 0.08047131 -0.07353475 0.077362195
000360 79 43 ae b9 4b 00 81 3c 5d 1a 62 bd c2 54 cf bd
       -0.00033238137 0.01574721 -0.055200923 -0.10123588
000370 b1 f5 9b 3d 37 30 58 3c a5 44 9e bd e0 28 d3 bd
       0.07615221 0.013195089 -0.07727937 -0.10310531
000380 78 e7 29 bd 79 9e a9 3d 0c 18 3f 3a 57 a5 0f bd
       -0.04148051 0.082821794 0.0007289655 -0.03506979
000390 80 b8 82 bd 4e 66 86 3d 73 a5 09 3d d0 4f 7b 3d
       -0.06382847 0.06562482 0.03360505 0.061355412
0003a0 94 01 ec 3c 15 33 b9 bc 89 3d bd 3c 72 7f 04 be
       0.028809346 -0.022607366 0.023100631 -0.12939242
0003b0 50 09 77 bd 4f 44 80 bd 33 34 6b bd 33 24 cd 3c
       -0.060311615 -0.06263029 -0.057422828 0.025041675
0003c0 1f 6c f5 3c 8e 27 22 bd e7 2d 41 3d 46 c3 8a bd
       0.029958783 -0.039588504 0.047162917 -0.06775527
0003d0 3e 9a 8d 3c 73 e3 07 bc 54 96 2e bd ab bb eb 3c
       0.017285462 -0.008293974 -0.042623833 0.02877601
0003e0 06 2c 96 3d fb 1b 64 bd a1 44 9c 3d e4 c8 df bc
       0.073326156 -0.055690747 0.076302774 -0.027317472
0003f0 19 18 67 3b eb c2 96 3d 6b 13 1c bc fb c8 e3 3d
       0.0035262166 0.073613964 -0.009526114 0.11122318

fc2.bias f4 [128]
000000 37 56 42 bd 2a 35 ce bd af 1d 73 3d e5 ad bf 3d
       -0.047445502 -0.10068734 0.05935448 0.093593396
000010 42 f4 fb 3c b1 e9 c1 bd 90 39 97 bd 28 ea 2b 3d
       0.03075612 -0.09468401 -0.07384026 0.041971356
000020 8b 49 f2 bc 27 54 f1 3c f9 60 f3 bd 06 9e 2d bd
       -0.029576084 0.029459072 -0.118837304 -0.04238703
000030 e6 47 aa 3d 36 3e b4 bd c9 2b 07 3e 76 06 fd 3d
       0.08314495 -0.08800928 0.13200296 0.12354748
000040 cd 01 99 3b 41 ad 03 bc 50 1e 97 bd 4f 86 2a 3d
       0.004669404 -0.008036912 -0.073788285 0.041631993
000050 b8 36 d3 bd f1 a4 0a bd be cb 6e bd b7 5f 53 3c
       -0.10313171 -0.033848707 -0.058299772 0.012901238
000060 cb 3c 8b bd 11 b2 ac bd ef 25 2d 3b c8 5b dc bb
       -0.06798705 -0.08432401 0.0026420315 -0.0067248084
000070 43 24 6a 3d ff 90 88 bc e6 47 8c 3d a1 a2 47 3d
       0.057163488 -0.016670702 0.06849651 0.04873908
000080 5e d0 43 3d f8 85 bf 3d c8 0f d7 3c ac 9c f6 3c
       0.047806136 0.093517244 0.026252642 0.030104004
000090 09 c9 96 bd 61 b6 9f 3c 0b 07 9a bd 5d 2e ed bd
       -0.07362563 0.019496145 -0.075208746 -0.11581109
0000a0 76 eb f1 3d 77 83 8f 3c d9 67 94 3c 0f 7a 26 bd
       0.11812489 0.017518742 0.018115925 -0.040643748
0000b0 be 48 50 bd a6 95 f3 3c dd 10 ae bc 7b e1 e8 3d
       -0.050850622 0.029734444 -0.021248275 0.11371132
0000c0 2b c0 cd 3d f8 23 a3 bd 09 76 78 3c 1d 61 5b 3d
       0.10046419 -0.07965845 0.0151648605 0.05355941
0000d0 0f 40 7c 3c 25 f5 37 bb 05 6a 44 bd 44 8b f8 3d
       0.015396132 -0.0028069702 -0.04795267 0.12135938
0000e0 af a0 cb bd dc 3f d8 3c e5 9b 37 bd 78 82 50 bc
       -0.09942757 0.026397638 -0.044826407 -0.012726419
0000f0 c4 c4 5c bd 1f 01 89 bd 1f 84 f2 bb ff ae 3e 3d
       -0.053898588 -0.06689667 -0.007401004 0.046553608
000100 d1 f9 19 3d 2f c1 f1 bd c4 62 e7 3b ca 9b 0a be
       0.03759176 -0.11804425 0.0070613343 -0.13535991
000110 70 53 fd 3c a3 d1 6d 3d 11 f6 b9 3b 30 2c 29 3d
       0.030923575 0.058061253 0.0056750854 0.041301906
000120 8e 7a e3 bc 7a 2d ab bc 12 f9 82 bc ff 1c d2 3d
       -0.0277684 -0.020895708 -0.015987907 0.10259437
000130 d0 b1 30 3d ba 70 83 3d 7e 39 ac 3d d1 21 cf 3d
       0.043138325 0.06417985 0.08409403 0.10113872
000140 04 43 ea 3b 87 28 93 bd 99 91 1d bd cb 8c 44 3d
       0.007149102 -0.07185464 -0.03846893 0.047985833
000150 56 8c 70 3d ca 83 41 3d 52 58 0b be 7e e0 9e 3d
       0.058727585 0.047244824 -0.1360791 0.07757662
000160 6c c3 3a 3d c5 03 23 3d 6f d3 88 3d c5 ae 82 bc
       0.045596525 0.039798517 0.06680953 -0.015952477
000170 05 66 ba 3d 2a 8f 2b 3d ce 23 eb 3b d0 c7 5c 3d
       0.0910149 0.04188458 0.007175899 0.053901494
000180 36 46 92 bd 95 be 61 bc 89 8e e9 3c 8c 8c c5 3d
       -0.07142298 -0.013778348 0.028510349 0.09645948
000190 27 9d 2f 3d d1 60 07 3d 8a 9a cb 3d e6 e8 2d 3d
       0.04287448 0.033051316 0.09941585 0.042458437
0001a0 7d 78 dd 3c a7 6d 73 bd 97 0b 20 bd cb a7 f7 bc
       0.027034992 -0.059430744 -0.039073553 -0.030231377
0001b0 8c 2e a5 3d 12 f7 c1 3d bb 73 01 bd 12 63 82 3c
       0.08065519 0.09470953 -0.03160451 0.015916381
0001c0 80 77 62 3d 01 0e 50 3d 72 d6 12 3d be 64 c9 3d
       0.055289745 0.050794605 0.035849042 0.09833668
0001d0 d8 50 13 bd da 34 01 bd 56 d1 f5 bc de ca fa bb
       -0.03596577 -0.031544544 -0.030007046 -0.007653578
0001e0 89 72 e2 bd 09 17 4a 3d db 7e a1 bd 9b ad 64 bd
       -0.11057002 0.049338374 -0.07885524 -0.055829626
0001f0 86 00 88 3d 37 5f c4 3c 1d d8 db 3c e9 70 f2 3d
       0.06640725 0.023971183 0.02683645 0.11837942

fc3.weight f4 [4, 128]
000000 75 80 a3 bd 2e fe 04 3e d5 14 23 bd 49 d4 d5 bd
       -0.079834856 0.12987587 -0.03981479 -0.10440881
000010 10 99 ae 3d 5a b2 4d 3c f4 f0 9e 3d 3d dc 42 3d
       0.08525288 0.012554729 0.07760802 0.047573317
000020 a0 ff 9c 3d fa 92 a6 bb 33 f1 79 3d 37 bb d5 bc
       0.07665944 -0.005083439 0.06102104 -0.026090248
000030 89 d9 b1 bd 85 c6 24 3d 57 a7 f4 3a ec 75 03 be
       -0.0868407 0.040228385 0.0018665594 -0.12837952
000040 c4 a0 61 3d 91 a6 68 3d 2e ee 0b bd 44 df 0e 3d
       0.05508496 0.056799475 -0.034162693 0.03488089
000050 e7 97 f4 3d 5b 67 06 3b fb cd e4 bd 75 c8 b6 3d
       0.119430356 0.0020508382 -0.111721 0.08924953
000060 09 d9 9f 3d 74 61 7b bc c6 ff 65 3d eb 05 0c bd
       0.07805068 -0.015343059 0.056152128 -0.03418533
000070 14 76 86 bc dc 09 eb 3d e4 fb 09 3d 08 14 65 bd
       -0.016413726 0.1147649 0.033687487 -0.055927306
000080 9f 9d e5 3c 5f 78 7d 3c 30 71 2b 3c 0c de b8 bd
       0.028029261 0.015470593 0.010463998 -0.09026727
000090 e8 1b df 3d 31 1d 02 3b 39 5b fd 3d e7 bc b7 3d
       0.108939946 0.0019853825 0.12370915 0.08971577
0000a0 0d 38 bc bd 65 bd e1 bd 7c a9 45 bd aa 19 88 bd
       -0.09190378 -0.11022452 -0.048257336 -0.0664552
0000b0 79 a3 e5 3d 13 20 31 bd 34 46 cf 3d cc 56 02 be
       0.112128206 -0.04324348 0.10120812 -0.12728423
0000c0 59 cb cd bd 70 37 32 3d ac e2 b0 3c da 41 f8 bd
       -0.10048551 0.0435099 0.02159246 -0.12121935
0000d0 a0 58 30 3d 4c b8 7f bb b9 ac 1e 3d c2 95 be 3b
       0.04305327 -0.0039019762 0.03873894 0.0058161924
0000e0 26 30 5b bd e1 b9 0c 3d bc 89 74 bd 6b e6 b4 3d
       -0.053512715 0.034356955 -0.059701666 0.08833011
0000f0 54 e6 d4 3c 7c 03 61 3c 46 9e 99 bd f9 c5 ce 3d
       0.025988735 0.013733741 -0.075008914 0.10096354
000100 a0 7e 5d 3d e2 c9 d6 3d 86 69 c3 bd a3 a5 84 3d
       0.054075837 0.10487725 -0.095416114 0.06476905
000110 eb a0 cc 3d c4 81 8b 3d 39 8e ed bc 40 f5 bb 3d
       0.0999163 0.0681186 -0.028998481 0.09177637
000120 fc 23 90 bd c8 22 54 3d e3 5a b0 bd f6 15 74 bd
       -0.070381135 0.051790982 -0.08611085 -0.059591256
000130 83 13 5f bd 76 a0 b6 bd cd ca ed 3d 0e 42 6b bd
       -0.054461967 -0.08917324 0.11610947 -0.05743604
000140 e4 6f 97 3c 7f b6 af 3c 95 5f 4f 3d 42 a6 42 bd
       0.01848597 0.021449326 0.050628264 -0.047521837
000150 58 40 06 be d5 8e b8 bc e1 08 d7 3c b6 1a e1 3d
       -0.13110483 -0.022529045 0.026249351 0.10991423
000160 32 ff dd bb 48 aa c3 bd 0c 42 64 bd b0 35 b8 3d
       -0.0067748064 -0.09553963 -0.05572705 0.08994615
000170 d0 cc c4 bd 91 fd 7c bd 1f c6 e3 3d 13 ab 3b 3d
       -0.096093774 -0.061765257 0.11121773 0.045817446
000180 a8 aa 54 bc ba 4b e3 bc 12 ba c7 3d 5f 85 00 be
       -0.012980141 -0.02774607 0.09752287 -0.12550877
000190 08 a8 24 bc f0 ea 27 bd 40 33 e4 3c db 4e 02 3e
       -0.010049827 -0.04099554 0.02785647 0.12725393
0001a0 0c 54 b1 3d 68 7f ee bc a7 bf 9c 3d 24 9b d6 3d
       0.08658609 -0.029113486 0.07653742 0.104788095
0001b0 26 a0 c9 bd b5 16 c5 bd 10 57 cd bd ed ec e8 bb
       -0.09844999 -0.09623472 -0.100263715 -0.007108322
0001c0 37 ef e8 bc 51 1f ac bc b6 eb a6 bd 00 f1 ce bd
       -0.028434379 -0.021011027 -0.08150427 -0.10104561
0001d0 af bf 9c 3d 85 d0 b3 3d 23 c6 3e bd 0a 91 ba 3c
       0.07653748 0.08780006 -0.046575677 0.022774238
0001e0 7b db 8f 3c b4 c6 7a bc 7c 9a e1 3d cd d6 ab bc
       0.017560711 -0.015306164 0.11015794 -0.020976448
0001f0 69 28 e2 3d be e1 d9 3c 8b 1e 68 3d 72 00 ef bd
       0.11042864 0.0265969 0.056669753 -0.11670007
000200 0c 3d e7 3d 28 d3 b1 bd 8d 00 f0 bd ab a8 9d 3b
       0.11290941 -0.08682853 -0.11718855 0.0048113666
000210 94 1d ac bc 49 ce b5 bd 58 e3 ff bd 88 18 43 3e
       -0.021010198 -0.088772364 -0.12494534 0.19052327
000220 cd 0a 42 be 25 8c d6 bd 86 65 88 bb 4c 44 50 3d
       -0.18949433 -0.10475949 -0.004162493 0.050846383
000230 0d a1 e9 3d e9 76 1f be 8b 8c b9 3d bf 1b f3 3d
       0.11407671 -0.15572704 0.090600096 0.118705265
000240 be 1b 3a 3e b3 90 ac 3d d4 a9 c0 bd df f5 09 be
       0.18174645 0.08426037 -0.09407392 -0.13472699
000250 b9 01 87 3d ff a8 ea 3c 80 79 08 3e 94 23 52 3d
       0.065921254 0.028645037 0.13327599 0.05130346
000260 d7 a4 a0 bd 66 03 2d be 57 3d 3a 3d a9 8f 46 bd
       -0.07843941 -0.16895828 0.045468654 -0.04847685
000270 d0 b1 0d 3e 18 0e 57 bd 02 94 0e 3d 63 64 d9 bd
       0.13837361 -0.052503675 0.03480912 -0.1061485
000280 4a 34 32 3e 82 17 e7 bd c2 2c 43 bc f3 f2 c8 3d
       0.17402759 -0.11283781 -0.011912527 0.09811964
000290 d6 37 85 bd 42 8e c0 3d dc 86 9e bd ea 70 6b bc
       -0.065047905 0.094021335 -0.07740566 -0.0143701825
0002a0 47 34 02 bc 86 57 9b bd a8 e2 63 be 2f 38 ba 3d
       -0.007947034 -0.07585053 -0.22254431 0.090927474
0002b0 c0 f3 9a 3d aa fe 1c 3e 0a 93 f6 bd 53 f6 1e bc
       0.07566023 0.15331522 -0.12039764 -0.009702283
0002c0 44 f6 21 bd e6 4b 12 3d c7 39 3c 3e ec 90 09 3e
       -0.039541498 0.035716914 0.18381415 0.1343419
0002d0 01 df 26 3e 8e ef 37 bd c8 f2 84 bd 37 10 1a 3d
       0.16296007 -0.04490619 -0.06491619 0.03761312
0002e0 0c d3 3a 3b 41 71 94 bc 7e 2f 1b 3e 7d 18 c8 bc
       0.0028507141 -0.01812041 0.15154836 -0.02442574
0002f0 09 df 1e 3e b0 30 82 3d ed ab 50 bc 00 fa d3 3d
       0.15514769 0.06356943 -0.012736303 0.10350418
000300 a3 59 69 3c 2f 81 6d bd 83 8b 0a 3e 1b 5c 9b bd
       0.014242562 -0.057984527 0.13529782 -0.07585927
000310 ee c1 29 be cf b7 86 3d 18 99 27 be db b4 c1 bc
       -0.16577885 0.065780275 -0.16366994 -0.023645809
000320 05 76 28 3e 17 50 2c 3e c7 74 de 3d a1 42 b6 3d
       0.16451271 0.16827427 0.10862117 0.08899427
000330 73 36 ea 3d c9 de 10 be a7 ba 56 be 61 2f bf 3c
       0.114361666 -0.14147486 -0.2096964 0.023338022
000340 01 b0 34 be 27 e6 19 be b4 d4 b5 bc 82 83 7f bc
       -0.17645265 -0.15029202 -0.022196151 -0.015595319
000350 1c 03 4c 3d 18 50 50 bc c7 be 82 bd 8e 3c df bd
       0.049807653 -0.012714408 -0.06384044 -0.10900222
000360 9e 83 11 be 3e 0d 04 3e bc 50 c5 3d 0d e9 74 3d
       -0.14210364 0.12895676 0.096345395 0.059792567
000370 8b 54 2c bd ec 9f d2 3c d5 04 c9 bd 4d 16 0b be
       -0.042072814 0.025711022 -0.09815375 -0.13582726
000380 14 f9 46 3e 57 e8 03 3e 3c 80 d2 bd e4 fc 4e 3d
       0.19430953 0.128816 -0.10278365 0.050534144
000390 ee 37 da 3d 01 1e 02 be 55 21 76 3d c6 e1 fa bd
       0.10655199 -0.12706758 0.06009038 -0.12250094
0003a0 4e 96 0d 3e 52 f0 4c bd 6d 8f ca bd 84 75 a9 bd
       0.13826868 -0.050033875 -0.098906375 -0.082743675
0003b0 37 86 42 bc 1f 69 12 be b8 0a a8 3d ce cb 21 3e
       -0.01187282 -0.14297913 0.082051694 0.15800402
0003c0 a4 57 8a 3d bb 77 21 be 07 0e fb bd 2f 2c 30 3d
       0.067549974 -0.1576833 -0.12258535 0.043010887
0003d0 ea 81 1a be 67 70 9d bd 75 92 81 3d 89 82 3e 3e
       -0.15088621 -0.07687455 0.063267626 0.18604483
0003e0 34 56 5e bd aa 37 c6 3d 05 73 1f 3d 23 33 1f be
       -0.05428143 0.09678586 0.03892805 -0.15546851
0003f0 72 e0 75 bd a8 17 25 be af 5b 09 3d 94 43 a0 3d
       -0.0600285 -0.16122305 0.033534702 0.078253895

fc3.bias f4 [4]
000000 20 c3 2f 3d 41 bf bc 3d eb ca 25 3c e0 00 0d 3d
       0.042910695 0.09216166 0.01011918 0.034424663
