policy_net_cat_monsters.pth (torch, 84693 bytes, 6 tensors)

fc1.weight f4 [128, 25]
000000 7e 9a 4e 3e a4 1c 1f 3e da 5b 0e 3e 06 6a eb 3d
       0.20176122 0.1553827 0.13902226 0.11494832
000010 34 90 2a be 56 42 be bb 0d 77 c3 3d 32 00 b7 bd
       -0.16656572 -0.0058062477 0.095441915 -0.08935584
000020 95 7a b1 3d f7 9d af bd 23 fe 39 3e f3 e9 80 bc
       0.08665959 -0.08575051 0.18163352 -0.015736556
000030 88 5d 16 be b3 26 87 3c f6 9d 95 bb 40 11 ef 3c
       -0.14684117 0.016497945 -0.0045659496 0.02918303
000040 5c e3 70 bd da f5 7b bd 10 d7 fe bd 73 53 d7 3d
       -0.058810577 -0.06151376 -0.12443364 0.105139636
000050 6c df b6 39 af 30 8e 3c f9 16 1e 3e 0e 55 4c bd
       0.00034880207 0.017357199 0.15438451 -0.049885802
000060 31 d6 00 3e b5 d8 30 be 4a 31 f8 3d 60 2e 13 be
       0.12581708 -0.17270167 0.12118776 -0.1437316
000070 f9 b4 00 bd 67 59 02 3e fb 79 12 bd d2 ea 70 3b
       -0.03142259 0.12729417 -0.03576086 0.0036761058
000080 9c c1 3e be bf 36 96 bd 59 48 15 bd e6 97 28 be
       -0.18628544 -0.07334661 -0.03644595 -0.16464195
000090 eb e0 36 3e 5a d1 29 be cd d7 f6 3b 83 7d 23 bd
       0.17859237 -0.16583768 0.0075330497 -0.03991462
0000a0 61 17 ab bd 25 80 46 3e 37 be 1d 3e 55 cb d9 bd
       -0.083540685 0.19384821 0.15404592 -0.10634486
0000b0 20 37 cd 3d 94 e7 40 be a9 b8 4b 3e 24 be 33 3e
       0.1002028 -0.1883834 0.19894661 0.17553002
0000c0 6b 40 1c be 96 21 1b 3e 1e ea 96 ba 30 bf f4 bd
       -0.15258949 0.15149531 -0.0011513864 -0.119505286
0000d0 f5 70 89 be b2 e1 a2 3d a3 9d 47 be 3b 41 4b 3e
       -0.26843992 0.07953204 -0.19493727 0.19849102
0000e0 7d 08 b6 3d 1c e9 46 3d 64 20 cc bc 18 ca 53 be
       0.08888338 0.048562154 -0.024917789 -0.20682561
0000f0 38 bd 10 bd 50 9b 41 3e 5b 79 3e 3e 4d 0e 9e bd
       -0.035336703 0.18906903 0.18600981 -0.077175714
000100 d0 e7 8f bd 86 34 97 3d f5 ee 1e 3d 00 84 a1 bd
       -0.070266366 0.07383065 0.038802106 -0.07886505
000110 58 c5 57 3e 74 b4 d2 bd 98 34 32 be 49 49 15 3d
       0.21071374 -0.10288325 -0.17402875 0.036446843
000120 ae 95 04 3e a8 75 17 be 79 ab 3c bd 71 25 0f 3d
       0.12947723 -0.14790976 -0.046061967 0.034947816
000130 c7 87 12 3e 8c 3d 53 be 3a 1c a2 3d 0f fd 01 be
       0.14309607 -0.20628947 0.0791554 -0.1269419
000140 be 7a e9 3d a3 18 38 3e 41 ae 07 be 57 e5 5a 3d
       0.11400364 0.17978148 -0.13250066 0.05344137
000150 5a e4 37 be 8a 0f 2a be 7f 58 1e 3e 7a 24 32 be
       -0.17958203 -0.1660749 0.15463446 -0.17396727
000160 4d f4 43 3d 11 4d aa 3d 8b ff f8 bd 6f 4a 0d 3d
       0.047840405 0.083154805 -0.12158116 0.034494814
000170 ab 60 19 be 7d a2 0b 3e 0d cb 59 be 33 69 d1 3d
       -0.14978282 0.13636203 -0.21268864 0.10225143
000180 7e 9d c9 bb 26 cc 66 3d f9 46 df 3d 6e 98 a6 3d
       -0.0061528077 0.056347035 0.10902209 0.081345424
000190 b8 6d b3 bc f0 32 04 3d 54 3b 41 3e 57 01 82 3c
       -0.021902904 0.03227514 0.18870288 0.01586978
0001a0 b9 72 26 3a 1a 55 f0 bd cd fc 35 3e 7a 82 cb 3d
       0.00063494925 -0.11734982 0.17772217 0.09936996
0001b0 4e 07 19 3e 2d 58 82 3e 76 eb 2e be c3 4b 48 3e
       0.14944193 0.25457898 -0.17082009 0.19560151
0001c0 77 81 d5 3d 2f c6 37 be f4 95 e2 3d 1f 1e cd bd
       0.10425084 -0.17946695 0.110637575 -0.10015511
0001d0 2b 2d 41 3e b0 f8 c4 3d ed a6 ae bd 6e e5 10 3e
       0.18864886 0.09617746 -0.08527932 0.1415002
0001e0 9a 08 45 3b 90 b8 0a 3e a5 38 03 3e a1 b5 73 3d
       0.0030064941 0.13546968 0.12814577 0.059499387
0001f0 e0 8e fa 3d 8d 21 78 3d c9 3c 71 bd 94 13 8e 3e
       0.122342825 0.06057887 -0.05889586 0.27749312
000200 6b 30 10 3e 25 10 1b 3e 6d e9 68 be 09 0c 84 3d
       0.1408097 0.15142877 -0.22745295 0.06447608
000210 32 b6 10 be 14 b3 33 be 75 3b 71 bd c4 af 3e be
       -0.14132002 -0.17548782 -0.058894593 -0.18621737
000220 9a 41 46 ba ed e4 26 be 2a f6 96 3d 26 6d 45 bd
       -0.0007562876 -0.16298266 0.07371171 -0.048199795
000230 b4 9d c5 3d c5 02 31 3e df b5 20 3e 79 26 b0 bd
       0.0964922 0.17286213 0.15694378 -0.08601088
000240 87 39 1e 3e 04 2a 35 be 22 ce 6e bd bf 3b 77 be
       0.15451632 -0.17691809 -0.058302052 -0.24143885
000250 11 dc bb bd 26 30 06 be f8 49 19 3e a6 08 20 3e
       -0.09172834 -0.13104305 0.14969623 0.15628299
000260 a5 58 0a bc 1f 36 a1 3d b7 c7 08 3c 7b a1 7b be
       -0.008443986 0.07871651 0.008348397 -0.24573319
000270 fc 24 3f be 14 00 57 be de 41 bf 3d bf bf da 3b
       -0.18666452 -0.20996124 0.09338735 0.00667569
000280 87 7c a0 3d 88 5a 2b be 23 61 95 bd 07 0d b9 3d
       0.07836252 -0.16733754 -0.07293918 0.09035688
000290 fb 62 9d bd d5 61 13 be ed 85 da bd 57 da fa bd
       -0.07684895 -0.14392789 -0.106700756 -0.12248676
0002a0 dc fc d3 3d e0 d1 67 3e 58 ef ee bd 1c 9d 2a 3d
       0.103509635 0.22638655 -0.11666745 0.041653737
0002b0 c8 4a 70 bd 51 4b f8 bd 93 c1 a1 3d 4e b9 26 be
       -0.058665067 -0.121237405 0.078982495 -0.16281626
0002c0 8f 99 14 3e ac f2 2b be 2d e1 2b 3e f9 98 5e be
       0.14511703 -0.1679179 0.16785116 -0.21738042
0002d0 5c f1 79 3e c7 82 89 bd 5d 32 15 3e f1 5b 21 bd
       0.24408478 -0.06714397 0.14569993 -0.039394323
0002e0 1e 61 51 3d 80 9c 29 be 27 b6 b4 bc 47 7f 14 3d
       0.05111801 -0.16563606 -0.022059513 0.036254194
0002f0 50 17 fe 3d 30 72 d2 3d 9d fa ef 3c 67 83 94 3d
       0.1240679 0.10275686 0.029294306 0.072516255
000300 cd ba 96 bd d2 d3 cd bd 3c 25 ee bd bd 0f 35 3e
       -0.07359848 -0.10050167 -0.11628196 0.17681785
000310 2f 77 10 3e b3 24 d9 bd 91 16 51 3e 7b bc ee 3b
       0.14107965 -0.10602703 0.20418765 0.007285652
000320 5f d1 16 be 50 1f 80 ba f3 4c 6d 3e 54 23 35 3d
       -0.14728306 -0.0009774957 0.23173885 0.044223145
000330 a0 4d 8c 3c a9 36 73 be b5 35 c0 3d 8e 3f 6f be
       0.017126858 -0.2375132 0.09385244 -0.23364088
000340 29 f3 37 be 7f 3d 7f 3e ae 6c 5e be ad fe 5f 3d
       -0.17963852 0.24925803 -0.21721146 0.054686237
000350 8f 6f 3a be a2 18 44 be 5c b7 d1 3d 98 01 20 be
       -0.18206619 -0.19150022 0.10240051 -0.15625608
000360 99 80 29 3e d3 6f 5b 3d 32 e1 b6 3c 80 92 50 3e
       0.16552962 0.05357344 0.022324178 0.20368385
000370 0c 98 3e 3d c4 54 80 3d 66 f8 2e 3d d4 37 02 3e
       0.046531722 0.06266168 0.04271736 0.12716609
000380 7d 8a 2e 3e 63 47 a3 bc ae 74 b4 bb ff 7d 19 be
       0.17045017 -0.0199315 -0.0055070734 -0.1498947
000390 b2 f0 2c 3e 52 c4 ef 3b 20 30 9d 3d a2 ac a2 bd
       0.16888693 0.0073171044 0.07675195 -0.07943083
0003a0 aa ba 57 3e 1c 23 17 3e c6 24 99 3b 3f 28 8e 3d
       0.210673 0.14759487 0.004673573 0.0694127
0003b0 e3 49 e0 3d c7 d8 40 bd 23 f3 4a be 5e 35 2d 3e
       0.10951593 -0.047081735 -0.19819312 0.16914889
0003c0 8c 82 0b be 0f 52 15 3d a3 99 93 3d 3f cc 05 3e
       -0.13624018 0.03645521 0.07207038 0.13066195
0003d0 ed 35 17 be c5 c0 13 3e da c5 02 3e fa 24 21 be
       -0.14766665 0.14429004 0.12770787 -0.15736762
0003e0 fd 4d 60 3e 57 f2 4f be 86 f4 66 be bc 52 c6 3d
       0.2190475 -0.20307289 -0.22554216 0.09683749
0003f0 35 8a d9 bd c5 6e 88 3d 26 02 35 3e 0e ab f2 bd
       -0.10622064 0.066617526 0.17676601 -0.11849032

fc1.bias f4 [128]
000000 f9 1a 4f 3e 57 b9 3e 3e 85 8d e6 3d 96 a1 ed 3d
       0.20225133 0.18625389 0.112574615 0.11603086
000010 e8 af a9 3d 75 32 e7 3d 02 ce 37 3e 37 fd e0 3c
       0.082855046 0.11288921 0.1794968 0.027464492
000020 34 03 51 3c 65 11 c0 3d 17 58 10 be 81 29 24 3e
       0.012757111 0.09378318 -0.14096104 0.16031457
000030 a1 ad 2a 3d f7 0d 07 3e 9e 03 07 be d1 99 1f be
       0.04166949 0.13188921 -0.13184974 -0.1558602
000040 b4 e4 8c 3d 2b 6c 0e 3e 90 64 6f 3d ec 98 59 3b
       0.06879559 0.1390845 0.058445513 0.003320272
000050 99 3a 2a be 85 ef 8e 3d fd 4f 8b 3d 8a 15 54 3e
       -0.16623916 0.069792785 0.06802366 0.20711342
000060 f3 c0 0f bc 59 f9 c1 3c 0c 75 70 be 38 43 8f bd
       -0.00877403 0.023678469 -0.2348215 -0.06995243
000070 21 bb 13 be dd 2f 6b be 5a cc 0c 3e a8 e2 39 be
       -0.14426853 -0.22967477 0.13749829 -0.18152869
000080 71 15 2b 3d 64 a1 5d 3d 5b a0 04 3e f0 fa 44 be
       0.041768495 0.054108992 0.12951796 -0.1923635
000090 eb 44 b6 3d 98 95 e8 bd ce 14 70 3e e6 31 1c 3e
       0.08899864 -0.11356658 0.23445436 0.1525341
0000a0 01 17 3b 3e 53 43 56 3c 45 4b 3c be eb 3a 0b be
       0.18270494 0.013077575 -0.18388088 -0.13596694
0000b0 49 7f 49 bd 18 10 5e bd 37 03 0a bd e3 22 3d 3b
       -0.049193654 -0.054214567 -0.033694472 0.0028859905
0000c0 01 43 1a be 75 95 8f 3a 2e 31 54 3d 8e 56 a0 bd
       -0.15064622 0.0010954576 0.051804714 -0.07829009
0000d0 76 60 21 3e 71 25 30 3e d1 a5 8b 3d 27 ab bd bd
       0.15759453 0.17201783 0.06818736 -0.0926116
0000e0 78 aa 13 3e 88 25 91 bd e9 1b 2c 3d c5 db 30 3e
       0.14420497 -0.07087237 0.042018805 0.17271335
0000f0 73 32 28 be 5f fd cb bd 93 05 3f be cb 8f 49 bd
       -0.16425495 -0.09960436 -0.1865447 -0.049209397
000100 a0 76 54 bd 04 2f 51 be 18 4d 9e bd eb 3c 91 3d
       -0.051870942 -0.20428091 -0.07729548 0.07091697
000110 47 9d 04 be c7 c3 ba 3d b5 80 bf bd 14 3f 01 3e
       -0.12950622 0.09119373 -0.09350721 0.12621719
000120 ab 36 01 3e 2f f0 db bd 90 bf ba bc 86 89 c9 3d
       0.1261851 -0.10739171 -0.022796422 0.09840684
000130 0f aa 50 be 36 78 1e be 98 a0 f6 3d 7e e7 ed 3c
       -0.20377372 -0.15475544 0.120423496 0.029041048
000140 74 5b aa bd 67 89 17 be 74 7b 17 be 9e 09 02 be
       -0.083182245 -0.14798509 -0.14793187 -0.12698981
000150 d4 38 da 3d 40 2a 4c be f0 c5 a8 3d 77 fc f0 bd
       0.1065537 -0.19937992 0.082408786 -0.11766904
000160 9c c0 4b be 83 fd ff bd a8 c1 6d 3d c1 7d 3e bd
       -0.19897693 -0.124995254 0.058046013 -0.046506647
000170 eb 57 f3 3d b9 da 92 bd c5 a9 1a 3e 5a b7 83 3d
       0.118820034 -0.07170624 0.15103824 0.06431456
000180 ba 0b 40 3e 01 a8 95 bd 60 73 54 3d 1d dd 57 be
       0.18754473 -0.07307435 0.051867843 -0.21080442
000190 e3 6b 03 3e c5 d6 39 3e f6 d7 43 be b3 57 76 bd
       0.12834124 0.18148334 -0.19125351 -0.06014223
0001a0 87 7e 0e bc 03 38 7c bd 2d 40 15 bd c5 75 29 3e
       -0.008697159 -0.061576854 -0.036438156 0.16548832
0001b0 1c ef 0b be 3f 79 7e bd 8d 9f ad bc 61 ca a4 bb
       -0.13665432 -0.062127348 -0.021194244 -0.0050290083
0001c0 42 d3 2e bd 55 35 cf bd c6 e4 e7 3d 5a 01 b7 3d
       -0.04268194 -0.10117594 0.11322932 0.08935805
0001d0 5c d1 42 be c7 72 4c bd 4d 58 a1 3d 36 3d eb bd
       -0.19025177 -0.049914148 0.0787817 -0.114862844
0001e0 69 a5 b6 bd f9 cc 2a be d4 0f 1f be 87 6b 68 3e
       -0.08918268 -0.16679753 -0.15533382 0.22697268
0001f0 a5 59 f0 3b 99 be 3a be 6d a1 2c 3e d3 7d 64 be
       0.007334905 -0.1823677 0.16858454 -0.22313623

fc2.weight f4 [128, 128]
000000 4c 3e 1d bc 37 44 a8 3c 13 38 76 3d 06 61 cd 3d
       -0.009597372 0.02054034 0.06011207 0.100282714
000010 fd d1 b7 bd dd 67 e0 bd 28 74 fa 3c 1c 74 16 3c
       -0.08975599 -0.1095731 0.030572966 0.009182956
000020 f5 8f be bc 7c 0c 28 bd 1a e5 28 bd 73 c1 27 3c
       -0.023262003 -0.04102753 -0.041234113 0.010238993
000030 4d cc 1d be a8 d5 13 3d 80 91 38 bd e2 7e b7 bd
       -0.15409966 0.03609243 -0.045060635 -0.08959748
000040 2e 42 cb 3b c2 e4 c7 bd cb 7c e6 bd 22 c0 c8 3d
       0.0062029576 -0.09760429 -0.11254271 0.098022714
000050 58 a0 a7 bd f0 a0 00 be be d3 15 3d 32 a5 5e 3d
       -0.0818488 -0.12561393 0.036578886 0.05435676
000060 aa 23 8c 3d db 22 13 3c 1a 42 57 bd eb a2 f4 bd
       0.0684274 0.008980478 -0.052553274 -0.11945137
000070 71 0f f3 3c 1e 09 96 bc 88 94 fb 3c 1b ab b0 bd
       0.029670449 -0.018314894 0.030710474 -0.08626386
000080 43 13 6d 3a 2b 4a 8e 3d a1 5a af bc b1 1e e8 bd
       0.0009043703 0.0694774 -0.02140552 -0.11333979
000090 43 f4 13 bd 78 b0 de bd 4a 21 1c bd 0b 3c fb bb
       -0.036121618 -0.108735025 -0.038117684 -0.00766707
0000a0 ea 0b 1d 3d 5d 20 be 3d b7 96 ae bd 19 3d 08 3d
       0.03834144 0.092835166 -0.0852484 0.033261392
0000b0 dc 06 02 be 03 0b 76 bd ce cc 10 be db a5 a4 bc
       -0.12697929 -0.060069095 -0.14140627 -0.020098617
0000c0 43 39 16 3d 73 7d 12 3d b7 8d 32 3d e2 68 94 ba
       0.036675703 0.03576417 0.04359218 -0.0011322761
0000d0 23 b5 d3 3d 85 d7 18 3d 27 5a 93 3c 6d ae bc bd
       0.103372835 0.03731491 0.017987324 -0.092129566
0000e0 24 41 9e 3b ee 22 2d bd 3c 84 96 3d 30 42 68 3d
       0.0048295427 -0.04226964 0.073494405 0.056703746
0000f0 01 1b 08 3d 8a 8c 0d be c9 8c 41 3d c6 9a ee bd
       0.033228878 -0.13823143 0.047253404 -0.116506144
000100 8a 15 01 3d 07 5e 8b bd 8e 67 5c bc 86 3a b6 3d
       0.031514682 -0.06805044 -0.013452424 0.08897881
000110 9e 89 17 3c bc 43 6d 3d 97 70 d1 3d cb 00 33 bd
       0.009249119 0.057925925 0.10226553 -0.043701928
000120 b9 7f b8 bb 5a 32 af bd de ac 87 3b d9 ff 12 3e
       -0.00563046 -0.08554526 0.0041404804 0.1435541
000130 ac 95 21 bd 47 59 6a bd 3b a7 93 3b 2a 2b f8 3d
       -0.03944938 -0.057214048 0.0045060194 0.12117608
000140 fa 2f a1 bd 30 09 4a 3d 83 43 ee bb c6 90 13 3d
       -0.07870479 0.049325168 -0.0072712316 0.03602674
000150 48 22 e6 bc 99 18 9f bc 97 a4 63 3c 3d 5a 78 3c
       -0.028092518 -0.019420909 0.013894222 0.015158233
000160 c8 59 04 bc 8c 22 33 bd 78 63 4c bd 79 43 36 3d
       -0.008078046 -0.04373412 -0.04989955 0.04449794
000170 cd 48 80 bb 42 3a 1d be 8a 1f be 3c 21 cb b3 3c
       -0.0039149285 -0.15354255 0.023208398 0.021947445
000180 a1 6b 30 bd 9d 64 dc 3d c9 f9 fc bb 49 21 ee 3c
       -0.043071393 0.10761378 -0.0077202064 0.029068606
000190 09 c8 e1 3c ab 47 a6 3b ad 07 46 3c 57 31 01 bd
       0.027561205 0.0050744615 0.012086791 -0.031541195
0001a0 8b c9 a8 3d a7 18 1d be 24 43 88 3c 61 2e 2b bd
       0.08241566 -0.15341435 0.016633578 -0.041792277
0001b0 93 28 b2 3d 6c 1b c6 3c de b1 40 3b a6 78 28 3d
       0.08699145 0.024182998 0.0029402892 0.041130684
0001c0 37 87 b6 3d f4 ee 68 3d 02 bd 0f 3d c0 c7 43 bd
       0.08912509 0.05686851 0.03509236 -0.04779792
0001d0 e0 f0 01 3d 71 90 d2 3c 4e ef 35 3e a4 86 38 3c
       0.031723857 0.02570364 0.17767069 0.01126257
0001e0 b5 54 41 bd 33 41 89 bb 83 6a c0 bd f2 af 9b bc
       -0.047199924 -0.0041886806 -0.093953155 -0.019004796
0001f0 ed 06 7f 3d 85 8a 7e bd 2a 0f cc bd bb 31 b3 bd
       0.062262464 -0.06214382 -0.0996383 -0.0874972
000200 20 dd 71 3b 64 cd b4 3b a4 d1 7c bd 74 a2 4d 3b
       0.0036905482 0.0055176485 -0.061723366 0.0031377347
000210 57 2f 20 3d 74 ba b5 3d 27 91 5f 3d c3 d6 5c 3d
       0.039107647 0.08873454 0.054581787 0.05391575
000220 5e d0 a5 3d a9 5c 3f bb 4e 4c 4e 3d d5 2d 31 3d
       0.080963835 -0.0029199517 0.05036574 0.0432566
000230 09 e7 86 3d 81 81 10 bd c0 95 46 bb 7c fc c7 3c
       0.06587035 -0.035279755 -0.003030166 0.024412386
000240 a1 40 95 bd 7c 51 d2 3c bd 2e aa bd 5d 8c 03 be
       -0.072877176 0.02567362 -0.08309696 -0.12846513
000250 11 64 dd bc 27 75 67 bd 19 1c 84 3d b8 97 75 3d
       -0.027025254 -0.05650821 0.06450672 0.059959143
000260 57 d9 14 bd 96 67 7e bc 79 bd e7 bb b5 a0 ca bd
       -0.036340084 -0.0155276265 -0.0070721474 -0.09893934
000270 fc b6 ab 3a ca fe 30 bc 42 20 19 bd 88 cf 9e 3c
       0.0013100798 -0.010802934 -0.03738428 0.019386068
000280 59 5b 3c 3d a0 fd 48 bd 01 69 04 3e a4 21 a1 bd
       0.045985553 -0.04907 0.12930681 -0.078677446
000290 c4 5a 9a 3d df 79 4f bd ef 16 c6 bc e1 0f a8 3d
       0.075368434 -0.050653335 -0.024180857 0.08206154
0002a0 b0 70 6e bd 2f 2d d4 bc 6a 68 80 bd 5c 67 56 bd
       -0.058212936 -0.025900451 -0.062699154 -0.052344665
0002b0 4b 9f 29 bd 4c 4f 56 3d 6c 63 9a bc 65 d4 ea 3d
       -0.04141168 0.052321717 -0.018846236 0.11466292
0002c0 6f 60 b1 bb da 31 05 3c a8 8c 4e 3d b8 63 8c 37
       -0.005413107 0.008129561 0.05042711 1.6735736e-05
0002d0 c3 32 98 3d 55 d2 c7 3d 3c cf 8e bc a7 bf 88 bd
       0.07431557 0.097569145 -0.017432801 -0.0667718
0002e0 2e 56 0b 3e cd d7 70 bc b6 03 aa 3d f8 eb 97 bd
       0.13607094 -0.014699888 0.08301489 -0.07418054
0002f0 a5 b4 ba bd 8e 26 ac bd e1 e9 f3 bd 4f 77 56 bc
       -0.091164865 -0.08405791 -0.11909843 -0.013089969
000300 51 9e dd bd 6b 08 e2 bd 9f 6e 99 3c 57 82 f5 3b
       -0.10821212 -0.11036762 0.018729506 0.0074923444
000310 2d bd b3 bd bc 00 ba bd 23 c5 f2 bd dd 27 1d 3c
       -0.08776317 -0.09082171 -0.11854007 0.009592024
000320 a1 4b 86 bd 29 45 e3 bc db 5c fc 3c 0f b5 ed 3d
       -0.06557394 -0.02774294 0.030805996 0.116068
000330 b9 be 40 3d 7b 79 62 bd c7 17 d9 bc 03 24 d1 bc
       0.047056887 -0.055291634 -0.026500596 -0.025529867
000340 7d c7 16 3d 9c 00 b7 bd c2 0a 73 bd 0b a1 ff bb
       0.03681134 -0.08935663 -0.05933643 -0.0078011802
000350 5b 54 28 3d 06 87 07 be e8 e1 1a 3d 80 60 b9 3c
       0.041096073 -0.13235101 0.037813097 0.022629023
000360 2b 8b a2 bc 7e 96 9f bd 68 28 af bd 32 2f 6b bd
       -0.019841751 -0.07792376 -0.08552629 -0.057418056
000370 26 00 a4 bc 11 70 c6 3d 25 89 63 3d 95 3a 47 3b
       -0.020019602 0.09689344 0.055550713 0.0030399908
000380 d2 ed b4 3d 0f 74 fd 3b 88 c7 86 3c 6a a0 ce bd
       0.08834423 0.0077347825 0.016452566 -0.1008919
000390 fd 45 c7 3d 38 e9 10 3d e6 da 4d bd e5 56 a4 bd
       0.09730146 0.035378665 -0.050257586 -0.08024386
0003a0 a1 48 95 bd 48 a1 a1 bc 50 6e 40 bd b8 52 c4 3d
       -0.072892435 -0.019730225 -0.046980202 0.0958609
0003b0 79 25 f5 3c ca f6 0c bd 09 78 89 3d c8 a5 b0 bc
       0.029925095 -0.034415044 0.06712348 -0.021563426
0003c0 8c 8f 98 bd 5d ca bf bd 0e ce 20 3d f4 eb cc 3d
       -0.074492544 -0.093647696 0.03925901 0.10005942
0003d0 94 f4 e6 bd 80 21 09 bd 40 9e 36 3d 9a bb 9e bd
       -0.11277118 -0.033479214 0.044584513 -0.07750626
0003e0 7d d5 a2 bc a0 ae da 3c b8 53 55 bd b4 9c 33 3d
       -0.01987719 0.026694596 -0.052081794 0.043850616
0003f0 c5 88 52 bc b3 21 37 3c cd 95 5e 3c 65 69 93 bd
       -0.012849991 0.011177468 0.01358552 -0.07197837

fc2.bias f4 [128]
000000 46 78 35 3d b2 e7 a3 3d 53 cf 84 bd 4d 83 2d bd
       0.044304155 0.08003177 -0.064848565 -0.042361546
000010 bd b8 38 bd 92 ce 04 bd fc 3e dc bd d8 44 4c bd
       -0.045098055 -0.032423563 -0.10754201 -0.049870342
000020 7e 52 6e 3d 06 38 6a 3d c5 85 82 3c 47 e2 57 bd
       0.05818414 0.057182334 0.015932927 -0.05270603
000030 b9 76 8c bd 41 ac 1d bd 9b 1b ad bd 04 b6 0e 3d
       -0.06858582 -0.038494352 -0.08452531 0.034841552
000040 2c cf 22 bd b3 3c 38 3d e8 17 03 bd 13 41 3b 3d
       -0.039748356 0.044979762 -0.03200522 0.045716356
000050 a6 18 ad 3d 2d 87 bd bc 70 ff 00 3c bd e7 41 bd
       0.08451967 -0.023135746 0.007873401 -0.047340143
000060 4e 11 ea bb 47 e3 70 bd 5b 1e 0f bd ed 7f ca bc
       -0.007143176 -0.0588105 -0.03494106 -0.024719203
000070 23 e4 10 bd 6c 6c cc 3d 10 49 1e bd 2f 6b 25 3d
       -0.035373818 0.09981617 -0.038643897 0.04038542
000080 a0 01 25 bd 18 f1 55 bd 29 48 72 bc 09 61 be bd
       -0.040284753 -0.052231878 -0.014787712 -0.09295852
000090 b2 9d 07 bc 16 a2 d0 bd 30 0d e1 bd cb 8a 96 bd
       -0.008277344 -0.101871654 -0.109888434 -0.073506914
0000a0 33 f8 d7 ba 43 7b 85 bd 6a 57 3a 3c f1 35 69 ba
       -0.0016477167 -0.06517651 0.01137338 -0.00088962825
0000b0 e5 99 13 3d a1 28 56 3b fe 20 df 3d d9 8c 1f 3d
       0.036035437 0.0032678025 0.10894965 0.038952682
0000c0 ec 5b 98 3c be b6 d0 3d 07 36 79 3d 33 70 bc bd
       0.01859852 0.10191105 0.06084254 -0.09201088
0000d0 0c 15 b0 3d 8c 9f 99 bd 25 c4 e3 3c 10 be ec 3b
       0.085977644 -0.07501134 0.02780349 0.0072248057
0000e0 4f 75 8c bd 19 fd e5 bd 23 55 8e bd fd 85 3f bd
       -0.06858312 -0.11229915 -0.06949832 -0.04675864
0000f0 c2 0a 54 bd d9 35 38 3d 1a 43 8f 3d 34 c6 b3 3c
       -0.051768072 0.044973228 0.069952205 0.021945097
000100 3c b8 8d bc 89 8a ee bc 32 53 6c bd 6f 6e d1 3c
       -0.017299764 -0.029118793 -0.05769653 0.025565354
000110 74 c2 99 bd 96 90 be bc ec 66 23 bd 5f e2 d5 bd
       -0.07507792 -0.023262303 -0.039893076 -0.104435675
000120 76 ad 22 3d c7 1a 79 ba 59 45 ae 3d 32 a8 98 bd
       0.039716206 -0.00095025863 0.08509321 -0.07453956
000130 ff 88 98 bd 39 16 78 3d 6a b5 1f 3d 26 b9 95 bd
       -0.07448005 0.06056807 0.03899137 -0.07310705
000140 63 6e 8c bd 1e c4 14 bd 33 ae ea bc ce 78 8b bd
       -0.06856992 -0.036319844 -0.028647518 -0.06810151
000150 fb 8b db 3d d5 69 6b bd 9e e9 03 3c de 10 60 bd
       0.107200585 -0.057473976 0.008051304 -0.054703586
000160 6e 91 5a bd 81 55 87 3d 48 7a a3 3c 0c bf a3 bd
       -0.05336135 0.066081055 0.01995577 -0.07995424
000170 6b d8 f1 3a 44 68 32 bd 84 9e 49 bc 80 85 ed 3d
       0.0018451338 -0.043556467 -0.0123058595 0.11597729
000180 26 5d a8 3d 08 45 a1 3d c4 23 d3 bd 61 0a af 3c
       0.08220892 0.07874495 -0.10309556 0.021367254
000190 a4 9a c7 3d b6 9f a9 3c 15 43 cc bc 6f 7b 27 bd
       0.09746292 0.020706039 -0.024934331 -0.0408892
0001a0 71 65 24 3d e1 8b 9c bd 8b ca c9 3c 57 9f 46 3b
       0.040135805 -0.07643867 0.024632713 0.0030307376
0001b0 34 15 82 bd f5 b7 d8 3c 7f 84 b6 3c a1 8e 84 3c
       -0.063517004 0.026454905 0.022279976 0.016181292
0001c0 9b 18 7d 3d cf ab 23 bd 95 44 d6 3d 84 59 9c 3d
       0.061791044 -0.03995877 0.104623 0.07634261
0001d0 33 ad 64 3d cc 33 63 3d db 4e 20 bd bd 7b 02 bc
       0.05582924 0.05546932 -0.039137702 -0.007964072
0001e0 d7 e3 c6 bc 20 b2 87 3c db 59 8a 3d 0b 35 29 3d
       -0.024278564 0.016564429 0.0675542 0.04131035
0001f0 ef 88 98 bd ea ad 9a 3d fe 6d 95 3d e6 dc 70 bc
       -0.07447993 0.07552703 0.0729637 -0.014701104

fc3.weight f4 [4, 128]
000000 b7 3b 8d bd 5b 2d 7d bd 62 09 d0 bd a4 f9 d0 3d
       -0.06896155 -0.061810832 -0.1015804 0.10203865
000010 32 da de 3d 86 22 a2 3d 92 81 02 bd c6 66 03 3d
       0.10881461 0.07916741 -0.03186185 0.032080434
000020 ab 65 f2 3a b6 92 46 bd da af af bd 67 59 31 3d
       0.0018493434 -0.04847976 -0.08578463 0.04329815
000030 cd b9 06 3e 55 96 f9 bd b3 91 39 3d e3 d8 8d 3c
       0.13156815 -0.12186877 0.045304965 0.017315334
000040 d7 d9 f3 bd 6e 56 8d bd 1f 2a 15 bc 2c 34 26 bc
       -0.11906784 -0.06901251 -0.009104281 -0.010144275
000050 6d 81 a7 bd b5 e7 88 3d 3b b0 01 be 59 08 f6 3d
       -0.08178983 0.066848196 -0.12664883 0.12013311
000060 78 48 f1 bc 22 49 f8 bc 43 31 31 3d 0f c1 aa bd
       -0.029453501 -0.03030831 0.04325987 -0.08337604
000070 ee c8 9f 3d 28 85 14 ba 58 39 01 3e 64 a8 b4 3d
       0.07801996 -0.0005665594 0.12619531 0.088211805
000080 43 32 bb 3d 23 b8 fb 3a 97 e9 fb 3d d0 02 4d 3d
       0.09140446 0.0019204657 0.12300413 0.05005151
000090 d1 b6 c1 ba 9b 4d dd 3d cf 4a f5 3d 1a 16 ca ba
       -0.0014779215 0.10805818 0.11977159 -0.0015417964
0000a0 9b e0 a2 3d 4f d2 75 3d e1 0d d7 ba 8d b1 9d 3d
       0.07952996 0.06001502 -0.0016407334 0.07699881
0000b0 8b cd b5 bd 30 bf ce bd 15 71 69 bd c1 74 fb 39
       -0.08877095 -0.1009506 -0.05699261 0.0004796144
0000c0 a9 d3 c1 3c 50 4b 43 bd 9c a1 9d bd 04 1d 40 3c
       0.023660498 -0.047679245 -0.0769684 0.011725668
0000d0 82 41 92 bd c3 4a 05 3e b9 70 de bd c1 c0 9a bd
       -0.07141401 0.130168 -0.10861344 -0.07556296
0000e0 ee 4d 30 bd d5 d9 8f 3c a2 69 03 3e 25 dc b3 3d
       -0.04304307 0.017559925 0.12833264 0.087822236
0000f0 59 a4 aa 3d 5d ec 94 3c 8a 67 f2 bd 30 c5 b8 3d
       0.08332128 0.018179113 -0.11836155 0.090219855
000100 57 cd 09 3c 31 9d 96 bd ad 96 b0 3d f3 aa c3 3d
       0.008410773 -0.07354201 0.08622489 0.0955409
000110 b8 c8 c4 3d 60 ca 01 be a3 3b 9c bd a3 5e 04 3e
       0.096085966 -0.12674856 -0.07628562 0.12926726
000120 01 a5 73 3d c3 75 cd bd e5 4a 67 bd cf 00 09 3e
       0.05948353 -0.10032227 -0.05646791 0.13379215
000130 e9 36 c3 3d ac 7a 8d bd 96 1c 52 3c 12 97 80 3d
       0.09531958 -0.069081634 0.012824198 0.062788144
000140 76 f1 a7 3d 57 49 8d 3d 59 c6 64 3d 6e 93 1e bc
       0.08200352 0.06898754 0.05585322 -0.009678705
000150 f1 a4 01 be a7 d7 e8 bc a5 45 17 3d 50 ed 16 3c
       -0.12660576 -0.028423144 0.036931653 0.009211853
000160 8c 31 1b bd c6 bd a5 bd 40 2a eb bd 75 a5 d5 3d
       -0.03788905 -0.08092837 -0.11482668 0.10431949
000170 01 a8 79 bd d9 1e f3 3d 31 90 20 bc 8b b5 09 be
       -0.060951237 0.11871118 -0.009800003 -0.1344816
000180 f8 96 7f bd 8e 4b df bb 46 14 66 3d 4e 6e 30 3d
       -0.062399834 -0.0068144267 0.056171678 0.043073945
000190 54 0c b4 bd d8 8a 47 bd b3 92 9a 3d b2 60 c7 bc
       -0.08791414 -0.048716396 0.07547512 -0.0243381
0001a0 95 06 a2 bd 2f ed 4f 3d 3a ed d0 bd c1 52 b3 3d
       -0.07911412 0.050763305 -0.102014974 0.087560184
0001b0 9f 47 86 bc 50 5f 12 bd c0 fe 1f 3d b4 42 93 bd
       -0.016391573 -0.03573543 0.039061308 -0.07190457
0001c0 fa 57 bb bd 82 11 52 3d 79 30 b5 bd 0c 4a 3b bd
       -0.091476396 0.051286228 -0.08847136 -0.045724913
0001d0 a0 4f cb 3c 45 86 2b 3c a6 c5 cd bd 7d 68 65 bd
       0.024818242 0.010469024 -0.10047464 -0.05600785
0001e0 bc 0e 03 3d 72 cf c4 3c 7c 5b c9 bd 04 b7 ff 3c
       0.031996474 0.024024699 -0.098319024 0.031215198
0001f0 f2 05 b2 3d 1c b6 d5 bd 17 b2 3d bd ab 93 a9 3c
       0.0869254 -0.10435125 -0.046312418 0.020700296
000200 6a 56 0e be 43 9b e9 3d a3 4b 43 bc 17 40 69 3d
       -0.13900152 0.11406567 -0.011919889 0.056945886
000210 60 3d d3 bc 8d 32 61 bd 09 46 ad bd dc 93 04 3d
       -0.025786102 -0.05497985 -0.08460624 0.032367572
000220 8b 0c 2a 3e e4 b7 8e bd b4 d3 df bc e8 65 1e be
       0.16606347 -0.06968668 -0.027322628 -0.15468562
000230 f7 d6 e9 3a 8d dd 86 bd 92 78 97 bc 45 f2 9c bd
       0.0017840554 -0.06585226 -0.01849011 -0.07663397
000240 74 32 24 3d 5d 3c 40 3e e6 d0 c4 3d c7 81 8b 3d
       0.04008718 0.18773027 0.09610157 0.068118624
000250 32 b4 d7 3d 22 9f 25 3b 4f 12 a8 bc 60 cc ce 3c
       0.105324164 0.0025271853 -0.020516543 0.025243938
000260 c2 bc ae 3c 0a ac 04 bd c7 b3 e5 3d c3 3b e7 bb
       0.021330241 -0.03239063 0.112159304 -0.0070566847
000270 78 04 15 be dc 15 a3 3d 1f 57 0e be 56 24 4c 3d
       -0.14552486 0.07963154 -0.13900422 0.04983934
000280 ca a4 0b 3e 58 47 62 bd 8c 6c 87 3d 40 a4 03 be
       0.13637081 -0.05524382 0.066125005 -0.12855625
000290 f4 73 d0 3d 99 5f 9c bc ac 1d 6a 3d d8 04 cd bc
       0.10178366 -0.019088553 0.057157204 -0.025026724
0002a0 81 0f 64 bd eb 1e 0f 3e 16 aa 8f 3d b6 bd ad bd
       -0.05567885 0.13976638 0.07014863 -0.0848345
0002b0 a1 46 04 3e 3b 08 76 3d 6f 91 b4 3d 5e 03 e4 bd
       0.12917568 0.060066443 0.08816802 -0.11133455
0002c0 c2 ca 4b bd be 8b 92 bb 65 21 de 3d 2d bc d3 bd
       -0.04975391 -0.004472225 0.10846213 -0.10338626
0002d0 2f 28 b0 3d 41 f3 ff bb 49 c2 17 bd e6 df 8f 3d
       0.086014144 -0.0078109805 -0.03705052 0.07025127
0002e0 57 eb d7 bd 56 c6 e5 bd 12 7f 47 3c 23 a8 7e 3d
       -0.105429344 -0.1121947 0.012176292 0.062172066
0002f0 61 48 da 3d 1f 08 15 3e c9 c1 d9 3d 62 41 80 3c
       0.106583364 0.14553879 0.10632665 0.015656177
000300 e5 90 28 3e f4 8e 20 3e c7 86 41 ba f0 de b8 bd
       0.16461523 0.15679532 -0.0007382449 -0.09026897
000310 d2 20 14 be 10 d6 9e 3d f7 79 eb 3d 15 fc b6 bd
       -0.14465645 0.07755673 0.11497872 -0.089347996
000320 1a 9c c5 bc cd 7e a0 bd 94 04 1e 3e 94 e7 63 bd
       -0.024122287 -0.07836685 0.15431434 -0.055640772
000330 7a 15 4f 3d ca ad ac 3d ce 78 1f be 6d 0f dc bd
       0.05055759 0.08431585 -0.15573427 -0.1074513
000340 9b 97 17 bd e4 e0 11 be f1 93 22 3d db 70 3f 3e
       -0.037009817 -0.14245945 0.03969187 0.18695395
000350 02 04 fb 3d 6d 8e 64 bd 5a fc 0b 3e 8d b3 74 bd
       0.12256624 -0.05579989 0.13670483 -0.059741545
000360 72 b6 2a be 18 00 30 be d3 a3 0a 3e f7 df 44 bd
       -0.1667116 -0.17187536 0.13539056 -0.048065152
000370 22 16 cd 3d 11 7f f9 3d 7c dc b4 3d 5c 73 af 3c
       0.10013987 0.12182439 0.088311166 0.021417312
000380 34 03 d8 bd b8 d9 a3 bd 20 ee 98 bd d5 2f 2e 3e
       -0.10547486 -0.08000511 -0.07467294 0.17010434
000390 a1 25 fa 3d 6f 5e 63 bb 72 8c fc 3d a0 b5 ed 3d
       0.122142084 -0.0034693738 0.12331475 0.11606908
0003a0 18 b5 21 3e f0 ac d5 3c b9 12 0b 3e 04 22 07 be
       0.15791738 0.02608344 0.13581361 -0.1319657
0003b0 fc 25 9b 3d 6a 9f 14 3e bc 40 0a 3e 87 2f b6 3c
       0.07575604 0.14513937 0.13501257 0.02223946
0003c0 d5 aa 1a bd 2a a4 a3 bd f9 ca 97 bd 9a 1f c9 bd
       -0.037760574 -0.07990296 -0.07411761 -0.09820481
0003d0 4f af 04 3e 6f 91 25 3d 5d ff b3 3d cf bc 40 be
       0.129575 0.0404219 0.08788941 -0.18822025
0003e0 7b d1 21 be bd a8 a4 bd 61 f4 27 bd 1e 7a cf 3d
       -0.15802567 -0.08039997 -0.041004542 0.10130714
0003f0 bd 03 02 be e7 65 6a 3d cd 55 65 3d ef 17 80 3d
       -0.12696739 0.057226088 0.05599003 0.06254565

fc3.bias f4 [4]
000000 f5 36 0c 3d f4 cb ae 3d f9 10 e7 bd 23 e4 92 3d
       0.0342321 0.08534995 -0.11282534 0.0717242
