value_net_cat_monsters.pth (torch, 83145 bytes, 5 tensors)

fc1.weight f4 [128, 25]
000000 17 d6 e7 3d 42 a7 83 bd 34 a3 36 be c1 af 78 3c
       0.11320131 -0.06428386 -0.17835695 0.015178622
000010 2f a1 2a 3e 5d 9d 16 be 90 05 0e be d9 b4 be bd
       0.16663049 -0.14708467 -0.1386931 -0.09311838
000020 c2 92 85 bd d1 55 e1 3c 0d 8b a6 3c 70 0d 91 3d
       -0.065221325 0.02750674 0.020329976 0.07082641
000030 b3 cc 2d 3d bd 78 c6 bd 92 15 08 3e 2e 13 80 3c
       0.042431545 -0.09690998 0.13289478 0.015634146
000040 2f 59 c5 bd ea ee 2a be 8d bd dd 3d 47 1c 1a 3d
       -0.09636151 -0.16692701 0.108271696 0.037624624
000050 9c 4a 1b 3e b6 3f ae bd 63 97 eb 3d e4 0f 65 3e
       0.1516518 -0.08508246 0.11503484 0.22369343
000060 6c 03 f6 bd 80 16 ae 3c e8 60 c7 bd 6d 40 3a 3e
       -0.120123714 0.021250963 -0.0973528 0.18188639
000070 84 a5 e6 bd 01 3e b7 bd ce aa 4f 3e 49 e0 07 be
       -0.11262038 -0.08947373 0.2028 -0.13269152
000080 f2 c7 26 3e 22 6c 48 3d ec 2b 88 3d d3 fd 51 3e
       0.1628721 0.04893125 0.066490024 0.20506983
000090 e3 0c 26 3e ad 91 a3 bd 9a 6d ff bd 4e 60 00 3c
       0.16215853 -0.0798677 -0.12472077 0.007835461
0000a0 f1 85 2a 3c 54 87 15 be 77 f3 26 be 34 e5 af 3c
       0.010407911 -0.14602405 -0.16303812 0.021471597
0000b0 4c 93 88 be 8f 28 20 bd f1 16 f2 bc f2 f2 98 bb
       -0.2667488 -0.03910118 -0.029551955 -0.004667633
0000c0 5b ba 7e be fd ad 0c be e2 59 04 3e 6e 78 8a bb
       -0.24875776 -0.13738246 0.12924913 -0.004225782
0000d0 24 5d 54 be ab f1 65 bd 86 9a c3 3d c5 51 0a 3e
       -0.20738655 -0.056138676 0.095509574 0.13507755
0000e0 fc 67 ce ba 8f 25 41 be 7e 2e 01 bd cd 56 0a be
       -0.0015747542 -0.18861984 -0.03153848 -0.13509674
0000f0 00 4c 79 bd ff e1 31 3e 73 ee e6 3d c0 7b 32 3d
       -0.060863495 0.17371367 0.11275949 0.04357505
000100 62 2d 08 3e 39 b4 12 be e2 2b 0f be 6d b2 b5 3d
       0.13298562 -0.14326562 -0.13981584 0.08871923
000110 3a bc 93 3d 02 4f 84 3d 79 60 74 bc d6 50 64 bc
       0.07213636 0.06460382 -0.014915579 -0.013935288
000120 4b d4 80 3c da f2 78 3e 83 44 c3 3d 6e dc 61 3e
       0.01572623 0.2431139 0.09534552 0.22056744
000130 1b b7 1c 3d 36 a3 e2 3c 1c fc 22 3d 80 5d cf 3d
       0.03826056 0.027665716 0.03979121 0.101252556
000140 4a 56 24 bd 18 97 9e 3d 88 80 41 be 13 09 5f be
       -0.040121354 0.077436626 -0.18896687 -0.21780805
000150 67 58 fc bd 0e 54 21 3e f7 d6 13 be a5 02 1c be
       -0.12321549 0.1575472 -0.14437471 -0.15235384
000160 97 e5 8f 3d 6c 96 f6 bd 28 6b 30 3e b1 6e 65 bd
       0.07026213 -0.120404094 0.17228377 -0.056013767
000170 c0 70 24 3d c5 c4 94 3b f4 c7 8f be 0c f5 12 bc
       0.04014659 0.0045400583 -0.2808224 -0.008969557
000180 42 61 9b 3d 6e 68 aa bd 7a 82 1e be b4 4e 57 3e
       0.0758691 -0.083207 -0.1547946 0.21026117
000190 e7 b0 14 be 03 96 1c bd ac 8e 2d be ca d7 23 be
       -0.14520608 -0.038229 -0.16948956 -0.16000286
0001a0 7f c1 3b be 89 6b dd bc 73 8f c4 bd 96 3f dd 3d
       -0.18335532 -0.027028816 -0.09597673 0.10803144
0001b0 7e 1f d4 3d ae c5 53 be e7 08 58 3c ab cd 03 3e
       0.10357569 -0.20680878 0.013185716 0.12871425
0001c0 e7 9f 69 3d 15 e1 0f be d2 81 00 bd cb 76 9f bd
       0.05703726 -0.14050706 -0.031373806 -0.0778633
0001d0 6a ec 0d bd 40 54 ea 3d 76 cb c9 bc 02 25 71 be
       -0.03464929 0.11441851 -0.02463315 -0.23549274
0001e0 06 e4 a5 bd 34 22 d4 3d f9 ba 78 bc f0 db 43 be
       -0.08100133 0.10358086 -0.0151812965 -0.19126868
0001f0 f2 95 03 be 70 a0 0d 3d 2e df 11 be 64 6e 4f 3c
       -0.12850168 0.034576833 -0.14245293 0.0126605965
000200 76 d9 26 bd 3f 12 34 3e 6d 5d 17 be 49 02 1e be
       -0.04073473 0.17585085 -0.14781733 -0.15430559
000210 32 b3 0d 3e d5 6b 43 3e e9 86 2a 3e 1e b6 62 bd
       0.13837889 0.19084103 0.16653027 -0.05534946
000220 1a cf 59 3d d3 04 35 be 67 56 d9 3c c4 5d 7f bd
       0.053176023 -0.17677622 0.026530458 -0.06234528
000230 b2 4e ba bc ee 72 24 be 4d f9 32 bc 8d ae a5 bd
       -0.022742603 -0.16059467 -0.010923696 -0.080899335
000240 ab 7a 8b 3d b4 72 23 be f3 8d 85 3d fc b9 1d 3e
       0.068105064 -0.15961725 0.06521215 0.15402979
000250 2f 2f 8c 3e 6c 76 c9 bb 48 c9 68 be 8c f3 5b be
       0.27379748 -0.00614815 -0.22733033 -0.21479625
000260 1a 0b 4b 3d 5d 7a 82 3d d4 47 e2 3d 8e bb 19 3e
       0.049571134 0.06370995 0.110488564 0.15012953
000270 b2 e6 02 3e 9c e4 28 be e4 53 f5 bd 71 ca 62 bd
       0.12783316 -0.16493458 -0.119788915 -0.055368844
000280 83 81 96 3c 40 48 a5 bd 73 29 98 3d da 56 aa 3c
       0.018372303 -0.08070421 0.07429781 0.020793367
000290 fc e6 19 3e 64 ed 3a be fa 93 11 be 1a 05 e3 3d
       0.1502952 -0.1825462 -0.14216605 0.110849574
0002a0 19 24 7a 3e f4 dc 27 3e 98 6c 27 bd 9e 04 07 be
       0.24427833 0.1639288 -0.040875047 -0.13185355
0002b0 05 ab 84 3c 1b ff 75 3e 44 8b 31 3d 92 9f b5 3d
       0.01619483 0.24023096 0.043345705 0.08868326
0002c0 2a 26 72 3b 35 c2 34 3e 88 4a f0 3d 2a 10 06 3b
       0.0036949017 0.17652209 0.11732966 0.0020456412
0002d0 48 61 49 3e 07 0f 8a bd 3a 85 a5 bc d9 6d c0 3d
       0.19666016 -0.067411475 -0.020205129 0.09395952
0002e0 42 00 72 3d 98 cf c3 3d 40 a6 1d bd 08 43 0b 3e
       0.059082277 0.0956108 -0.038488626 0.13599789
0002f0 c0 a5 8d bc ef bd 13 3e ef 43 b0 bd 1a c9 42 3e
       -0.01729095 0.14427923 -0.08606707 0.19022027
000300 3d d3 f8 3d f9 fa 04 3e 03 a0 27 be b8 99 24 bc
       0.121496655 0.12986363 -0.16369633 -0.010046415
000310 2d 2b 11 be 99 68 ec bd 22 23 81 be 29 a6 1f bd
       -0.14176627 -0.11543388 -0.25222117 -0.038976822
000320 3e 83 4f be 04 e5 b5 3c 64 99 7c 3d 06 c1 47 3e
       -0.20264909 0.02220393 0.061669722 0.19507226
000330 d5 0d a3 bd ed db dd 3d 65 66 fc bd 41 cc 00 3e
       -0.079616226 0.10832963 -0.12324218 0.12577917
000340 e3 91 bd bc 06 d3 24 3e be c1 1c 3e 50 07 87 3d
       -0.023140853 0.16096124 0.15308282 0.065931916
000350 67 ec 2e 3e 0b 18 26 3e 6c a7 6f 3e 7d 75 ff bc
       0.17082368 0.16220109 0.2340371 -0.031183952
000360 41 86 ea bd 33 e5 b5 3b 68 cf 88 3e 30 be 89 3e
       -0.11451388 0.0055510043 0.26720738 0.26902914
000370 ae 75 88 3d 3a d3 7c 3e 4d 29 da 3d de 9a 24 3c
       0.066630706 0.24689952 0.10652409 0.010046689
000380 75 c5 38 3e d1 b8 45 3e e8 f8 ee 3d de f0 28 3e
       0.18044074 0.19308783 0.11668569 0.16498134
000390 90 02 05 3e 46 8b 04 bb c4 a4 02 be 4e 95 49 3e
       0.12989259 -0.0020224615 -0.12758166 0.19685861
0003a0 6b d0 8f 3d b0 27 5f bd 09 a5 1e 3d 83 5f cd 3d
       0.070221744 -0.05448121 0.03873161 0.10027983
0003b0 9d 55 2b 3e 8d 8a a7 bd 4d 3c b6 3c f9 4a 6a be
       0.16731878 -0.08180723 0.02224555 -0.22880162
0003c0 95 04 18 3e 3d 7a 1d bd 7d ca 45 be 9e f7 60 be
       0.14845498 -0.038446654 -0.19315524 -0.21969458
0003d0 cd de 23 be 8b 7e bb bd a0 07 87 3c 62 a0 38 bc
       -0.1600296 -0.091549955 0.016483128 -0.011268707
0003e0 49 c2 88 3c b7 d3 b1 3b 4b b3 2c 3e bd 0e 33 3e
       0.016694205 0.0054268497 0.1686527 0.17486091
0003f0 1e a5 a5 bd 0d 46 db 3d d9 5e 15 bd a0 e6 8c bd
       -0.08088134 0.107067205 -0.036467407 -0.06879926

fc1.bias f4 [128]
000000 45 24 1a be b8 b6 aa bd 32 28 03 3c 74 b5 14 be
       -0.15052898 -0.08335632 0.008005189 -0.14522344
000010 f2 d0 1d 3d 7d 09 8e 3c 7d 63 11 3e 3c 9b db 3d
       0.038529344 0.017338509 0.14198108 0.10722968
000020 70 06 5e 3e f1 56 80 3c c2 67 48 bb 52 51 4a bc
       0.21682143 0.015666457 -0.0030579423 -0.01234849
000030 f7 61 81 be 0b b2 65 bc 4d c2 97 bd 87 cc 35 3d
       -0.25270054 -0.0140194995 -0.07410107 0.044384506
000040 91 6d 3e 3e 60 c0 11 3e ec ac aa bd 9c 92 8d bd
       0.18596484 0.14233541 -0.083337635 -0.06912729
000050 8c 0f 37 be 11 29 46 be 07 8a 8a 3d 2e a5 b0 bb
       -0.17877024 -0.19351603 0.06764608 -0.0053907847
000060 69 a4 69 bd 1d aa ab bd fc ed c6 3d 39 86 89 3d
       -0.05704156 -0.08382056 0.09713361 0.06715054
000070 9d e1 25 be 81 28 8c bc 1d ed 2a 3e b5 52 27 be
       -0.16199346 -0.017109158 0.16692014 -0.16340144
000080 01 0a 8e 3e 85 b7 0b be 3b 58 0a 3e 32 93 d7 3c
       0.27742007 -0.13644226 0.1351022 0.026315305
000090 4e d4 45 3e f7 c1 3a 3e 77 80 10 be 44 5c 0f 3e
       0.19319269 0.18238054 -0.14111505 0.1400004
0000a0 a7 03 09 3d cd 4f 45 bc 8b b2 53 3e 5b 5b 66 be
       0.03345075 -0.012042952 0.20673577 -0.22495787
0000b0 2d 34 2f 3d 25 59 87 bd 79 b6 09 bd f1 43 76 bc
       0.042774368 -0.066088 -0.033621285 -0.015030847
0000c0 1b d5 83 bc 68 6c 7c 3d 54 ba 2e be a4 e7 67 bd
       -0.016092828 0.06162682 -0.17063266 -0.056617394
0000d0 2c d4 e5 bd d6 0f 7d be 96 96 a0 bd bf d0 0c be
       -0.11222109 -0.24713072 -0.07841222 -0.13751505
0000e0 a6 49 ba 3c d4 c6 24 3e f3 88 f3 bd 96 f8 48 3e
       0.022740196 0.16091472 -0.11891355 0.19626078
0000f0 33 19 e2 bd 20 72 1b be 82 87 0e 3e c5 56 12 3d
       -0.110399626 -0.15180254 0.1391888 0.03572728
000100 80 b9 6c 3e f1 27 8c 3e 10 30 29 be d4 38 12 be
       0.23117638 0.27374223 -0.1652224 -0.1427949
000110 6f 08 04 be 7a 01 4d 3d 84 e8 1c 3e 6c 71 34 3e
       -0.12893842 0.050050236 0.15323073 0.17621392
000120 3b d3 fa 3d 3b ec 10 bd f1 f9 13 3e ff ae ad 3d
       0.1224732 -0.035381537 0.14450814 0.084806435
000130 0d 24 dd bd 75 be 11 bd fa 87 39 be f5 d3 19 3b
       -0.10797892 -0.035582025 -0.18118277 0.0023472284
000140 86 eb fe 3d 61 62 a0 3d 46 ba c4 bc b8 73 e9 3d
       0.12447266 0.07831264 -0.024014603 0.11399025
000150 3f 0d 03 3c 5c 12 1b be a8 c3 8c 3d 4d 6a 39 be
       0.007998764 -0.15143722 0.06873256 -0.18106957
000160 c2 cc 3e be 8c e8 83 3e 96 68 40 3a 0c 11 65 3e
       -0.18632796 0.25763357 0.0007339803 0.22369784
000170 36 3a 45 be 49 73 df bd a5 6e a2 3d ca 9d 0b bb
       -0.19260487 -0.10910661 0.0793126 -0.0021303766
000180 43 17 06 be 6d e3 3b be fc ce 80 be 01 36 1b 3e
       -0.13094811 -0.18348475 -0.25157917 0.1515732
000190 af f2 93 3c d3 ae 05 be da ad 30 3d 15 43 66 bd
       0.018060056 -0.13054971 0.043134548 -0.05621632
0001a0 b7 c0 66 3e f8 2b c9 3c 5a 04 37 bd 1f 9c 6b 3c
       0.22534452 0.024557099 -0.044681884 0.014380484
0001b0 e1 64 20 be 41 37 d2 bd 7f a1 25 bd 44 69 a1 bd
       -0.15663482 -0.10264445 -0.040437218 -0.07881406
0001c0 7a 7e 36 3d 69 54 3b be cf 3d 71 3e 58 ef 44 bd
       0.04455421 -0.18293919 0.23558734 -0.04807982
0001d0 4e ce db bd 6e c7 73 3d 96 68 95 3c 74 cb c7 bd
       -0.10732709 0.059516363 0.018238347 -0.097556025
0001e0 22 60 33 bd 8d ed f0 3d bc 92 29 3e 01 24 bc 3c
       -0.04379285 0.11764059 0.16559881 0.022966387
0001f0 1e fc 02 3e ab 08 6c 3e 0a 4c 34 3e 99 56 c0 bd
       0.12791488 0.23050182 0.17607132 -0.09391517

fc2.weight f4 [128, 128]
000000 2e 62 1c 3a fa 81 f7 bd d7 b2 69 3d 34 57 95 bd
       0.00059655576 -0.12085338 0.05705532 -0.07292023
000010 f1 2e d3 bc b1 cb 9c 3c 1c c8 2f 3d be 0e f2 bc
       -0.02577922 0.019140096 0.04291545 -0.029548045
000020 9b 4d d9 3d 6a 0f fd bc ca 24 2f be 45 74 a4 3d
       0.10610505 -0.030891139 -0.17103878 0.08029989
000030 fb 3c ba bd a4 71 ec bd 0c 7e 29 bd c3 65 07 3d
       -0.09093662 -0.11545113 -0.041379973 0.033056032
000040 2f 14 c2 3d 7a 0e 8b 3d 82 28 20 bc 1b 2b 13 3d
       0.09476506 0.067898706 -0.009775283 0.03592978
000050 04 2a 83 bb a1 66 ef bd a7 22 9c 3d 5b eb 4f 38
       -0.0040028114 -0.11689497 0.07623797 4.9571838e-05
000060 e5 3a c2 bd a6 3e af bc 85 80 a1 bd 16 30 3b 3e
       -0.094838895 -0.021392178 -0.07885841 0.18280062
000070 0d fb 80 bd 0a 68 f9 bc c1 a1 0a 3e 20 6f 9a bd
       -0.06297884 -0.030445118 0.13538267 -0.07540727
000080 ef fc e3 3d 3e 83 a1 bd c2 90 6a 3d a6 40 a5 3d
       0.11132228 -0.078863606 0.057266958 0.08068971
000090 72 e0 85 3d e9 a8 94 ba 19 6f 01 be f6 94 6c bc
       0.0653695 -0.0011341843 -0.12640037 -0.014439812
0000a0 69 f9 9a 3c f1 ec 85 3c 73 a2 04 3e 65 2a fb bb
       0.018917756 0.016348334 0.12952594 -0.007664966
0000b0 d3 31 37 bd 46 27 09 be 13 77 b7 bd 77 f6 b2 3c
       -0.04472525 -0.13393888 -0.089582585 0.02184604
0000c0 09 b5 a9 3d bb 4a e4 3d a5 92 bd bd 46 88 50 3c
       0.08286483 0.11147066 -0.09256486 0.012727803
0000d0 e0 95 7c bc 5a bc e0 bd 80 42 9d 3d 31 c9 14 be
       -0.015416592 -0.10973425 0.076786995 -0.14529873
0000e0 21 0d b5 bd 8b dc 10 3d 76 7a b5 bd cd 52 c0 3d
       -0.08840395 0.035366576 -0.08861248 0.09390793
0000f0 cc 52 12 bd fe 04 76 bd a7 8a df 3d ea f0 b7 3c
       -0.035723493 -0.060063355 0.10915118 0.022453744
000100 7b bd ac ba 1e a1 0d 3e c3 2a 89 bb af 04 26 3c
       -0.0013179028 0.13830993 -0.004186006 0.010132953
000110 e1 14 37 bd 0f 7d bc 3c d5 ec 86 3d 42 f9 98 3c
       -0.044697646 0.023008851 0.06588141 0.018673543
000120 ff 2e 42 3d 64 20 d8 bc 3e 77 35 3e 34 97 ac bc
       0.0474081 -0.026382633 0.17721269 -0.021068193
000130 37 69 17 be 0c f7 78 b9 e5 85 fa bd 3f 13 e4 3c
       -0.1478623 -0.00023743155 -0.122325696 0.027841209
000140 c0 05 e5 3d a9 aa 47 bd 1c 5d 43 bd 93 d2 20 3e
       0.11182737 -0.04874674 -0.047696218 0.15705328
000150 6a c5 69 bb 61 07 80 bb 76 c0 0d 3e 45 90 a7 bd
       -0.0035670646 -0.0039071296 0.1384295 -0.08181814
000160 08 1e a7 bd f8 14 89 3d b5 79 8b bd d2 e5 11 3e
       -0.08160025 0.066934526 -0.06810323 0.14247826
000170 92 cc ee bd 91 92 60 bd 66 7f c3 3d 5c 55 2b 3d
       -0.116601124 -0.054827277 0.09545784 0.041829452
000180 4a 19 01 be 5b 67 cd bd bd 50 9a 3c 39 1e 8a bd
       -0.12607303 -0.10029479 0.018837327 -0.06744046
000190 4a 05 ce bd 19 54 01 bd f9 b7 e3 3c 0a 08 16 bc
       -0.100596026 -0.031574342 0.027797686 -0.00915719
0001a0 cb 17 14 3d 60 86 8c 3c 8b 59 3e 3d 8d 8d 12 be
       0.036155503 0.017153919 0.046472114 -0.1431181
0001b0 d4 8e 43 be 95 78 ff bc 25 ad 67 3c ae 17 18 bc
       -0.19097453 -0.031185428 0.014140402 -0.009282989
0001c0 cf 17 1e 3d e6 31 36 3d 55 0c 04 3e 92 45 ce bc
       0.038596924 0.04448118 0.1289533 -0.025179658
0001d0 59 a2 09 3d 07 c2 10 bd 5f 02 11 be fb 0e 81 bd
       0.033602092 -0.03534129 -0.14161061 -0.063016854
0001e0 f3 60 d9 3c 88 0f d1 3d 2d c9 d5 3d c4 ea 1c bd
       0.026535487 0.102080405 0.10438762 -0.038309827
0001f0 96 d3 77 bd 5a 07 e1 3d cd 11 11 bd dd bd 5b 3d
       -0.06050452 0.1098773 -0.035417367 0.053647865
000200 38 c9 84 3c 64 0c 0f bd f5 98 69 bc d8 1e 20 be
       0.01620923 -0.034923926 -0.014257659 -0.15636766
000210 31 b4 5f 3d 12 af a2 bb 54 da ef 3d 94 89 82 3d
       0.054615203 -0.0049647177 0.11711565 0.06373897
000220 0c 71 71 3c 34 f3 64 3d bd fe 8d bd bf a4 27 3d
       0.014736425 0.055896 -0.06933353 0.0409286
000230 b2 bc c2 ba a4 34 11 be 00 80 2b 3d e7 f7 a6 3d
       -0.0014857261 -0.14180237 0.041870117 0.08152752
000240 d1 41 9c bc ae 7f ef 3d d5 69 5f bd 11 a3 49 bd
       -0.019074352 0.11694275 -0.05454429 -0.049227778
000250 af c8 d3 bd 09 79 84 bd 88 18 07 3d 38 0b 75 bc
       -0.10341012 -0.06468398 0.03298238 -0.014956288
000260 3d 15 7f bd 10 92 3f bd 58 0e 4b 3d 4e 4c a6 3d
       -0.062276114 -0.046770155 0.049574226 0.08120023
000270 42 5e 82 bc af 90 6e bc 02 40 15 3d cf d1 b7 bd
       -0.015914086 -0.014560862 0.036437996 -0.08975565
000280 21 7d f5 3a 70 69 88 bc fa 88 9b 3c a3 95 7e 3d
       0.0018729308 -0.016651839 0.018986214 0.062154423
000290 b6 17 0a 3d fb bc 4c 3c 47 f3 4b bd 35 63 07 3e
       0.03371402 0.012496228 -0.049792554 0.13221438
0002a0 87 88 9a bc ae 66 10 bd 4b ef 1b 3e cf 62 af bd
       -0.01886393 -0.035254173 0.15228002 -0.08563768
0002b0 cc 72 9f 3d 6a 9a 26 be be 79 ff 3c 80 fe 8d bd
       0.07785568 -0.16269842 0.03118598 -0.06933308
0002c0 e1 a3 ac 3d 23 7a d8 3d 81 b4 7b bd 65 63 0b be
       0.08429695 0.10570171 -0.06145144 -0.13612135
0002d0 47 7b b2 bc e7 44 34 bd ae 8f c2 3d 16 66 19 be
       -0.021787299 -0.044011023 0.09500061 -0.14980349
0002e0 08 8e 5d bd 53 68 0a 3e a7 1b ed bc d8 a7 bd 3c
       -0.05409053 0.13516359 -0.02894385 0.023151323
0002f0 a2 13 90 bd d6 7a 16 bd 43 66 0e bc 3b df 08 3d
       -0.07034995 -0.03673824 -0.008691373 0.033416014
000300 f2 14 63 3d 3f c5 eb 3d e7 6b 0b be 1a ba c8 bd
       0.055439897 0.11512231 -0.1361538 -0.09801121
000310 7d c5 8e bd 4b 7e 19 3d e4 88 c9 3c a4 50 a2 3d
       -0.06971262 0.037473958 0.024601407 0.07925537
000320 74 35 04 bd 52 05 be ba 73 0d 3b 3e fb aa a5 3c
       -0.03227754 -0.0014497435 0.18266849 0.020223131
000330 a4 f5 22 bd 62 b4 af 3d f8 21 b1 bd 15 be a8 bd
       -0.039785042 0.08579327 -0.08649057 -0.0823938
000340 1a ee 94 3c 01 18 a7 bd 4f a5 85 3d 58 eb ef 3c
       0.018179942 -0.08158875 0.06525671 0.029287025
000350 56 df ad 3d 7f a4 a1 bd d7 d4 b8 3d 36 50 d5 bd
       0.084898636 -0.07892703 0.09024971 -0.1041569
000360 6c de 31 3b 54 16 c0 3d f3 7e 03 bd 7c 87 36 3d
       0.002714063 0.09379259 -0.03210349 0.0445628
000370 20 02 15 be d8 06 dc bc 6e 16 51 3d 69 b9 ca bc
       -0.14551592 -0.026858732 0.05104678 -0.024746614
000380 54 78 0d be b1 98 18 3d 46 88 9d bd 1a ce 19 bd
       -0.13815433 0.037254993 -0.07692008 -0.03755007
000390 2c 96 60 ba 81 71 c9 bd 35 01 e0 3d 39 ec f3 bc
       -0.0008567299 -0.09836102 0.1093773 -0.029775726
0003a0 86 7e 8d bc 61 5b 20 3d e0 a1 8b 3d e6 52 99 3c
       -0.017272245 0.039149646 0.068179846 0.018716287
0003b0 da 49 cf bc 29 4b f2 bd 48 95 43 bd 74 15 0f be
       -0.02530377 -0.11830742 -0.047749788 -0.13973027
0003c0 1c 7c fd 3d e5 dc b5 3c 69 c6 ab 3d a2 49 97 3d
       0.123771876 0.022200057 0.08387453 0.07387091
0003d0 11 f4 15 3c e1 fb c4 bd 02 bb e5 bd 79 9c 9b bd
       0.009152428 -0.096183546 -0.112173095 -0.07598204
0003e0 e2 68 6f 3d d6 9a c2 3d c7 ee 84 bc 5b d6 a8 3b
       0.058449633 0.09502189 -0.01622714 0.0051525063
0003f0 39 74 0c 3d 03 c3 29 3d 46 a8 53 3c 21 37 1c bd
       0.034290526 0.041445743 0.0129185375 -0.038138513

fc2.bias f4 [128]
000000 13 d0 a6 3d 20 6c 59 38 5f 94 45 bd 8d d9 97 bd
       0.08145156 5.183753e-05 -0.0482372 -0.074145414
000010 7e de 79 3d 45 c1 75 bd bb 0d f6 3c 08 bf 01 bd
       0.0610032 -0.05999877 0.030035844 -0.031676322
000020 f0 aa 50 3d c4 5b c9 3d e3 cf ef 3d 99 f4 ff 3d
       0.05094427 0.09831956 0.11709573 0.12497825
000030 2a 87 e1 3d 5b a4 72 3c 09 80 aa bd c6 0e 20 3d
       0.110121086 0.014809693 -0.08325202 0.03907659
000040 fe 5e 9b bd 3b c9 cb bd e8 3f 48 bd 7b 8e fa bc
       -0.07586478 -0.09950491 -0.04888907 -0.030585518
000050 10 91 32 3c 2f d5 d8 bc c5 c2 5f bc de 18 c5 bd
       0.010898843 -0.026468841 -0.0136572765 -0.09623884
000060 f6 d4 a2 bd de c5 ef bd 81 e5 3d bd d4 4c 34 3c
       -0.07950775 -0.11707662 -0.04636145 0.011004645
000070 c2 df 7c bb ad 27 e5 bb c7 0e fd 3c 39 c5 c1 bc
       -0.0038585518 -0.006993255 0.030890835 -0.023653613
000080 ca d8 a1 3d 3c 1b 1d bd 7f 55 98 3d 04 1f db 3c
       0.07902677 -0.03835605 0.07438182 0.026748188
000090 3d 15 65 3c dc d0 67 bd d6 b1 c0 3c 69 62 ac bb
       0.013982114 -0.05659567 0.023522299 -0.005260755
0000a0 c1 1f b4 3d c1 da bd bc ef 99 d6 bb 54 e3 36 bd
       0.08795119 -0.023175599 -0.006549112 -0.04465039
0000b0 0d d0 91 3d 06 f8 f7 3c 96 1d ea 3d ef 4c 75 bb
       0.07119761 0.030269634 0.11431424 -0.003742989
0000c0 df f6 fa bc 22 1c b8 bc 20 8b 80 bc dd 7f d1 3c
       -0.030635295 -0.022474352 -0.01569134 0.025573665
0000d0 f7 df 1b 3d 28 50 5c bd 87 00 05 3d e0 dc f4 bd
       0.038055386 -0.05378738 0.032471206 -0.11956191
0000e0 99 a4 36 3c 57 a9 c5 ba 01 95 a3 bd 78 82 8d bc
       0.011147642 -0.0015080374 -0.079874046 -0.017274126
0000f0 4c 7a 4f 3c 72 b0 0e 3b ce ff ec bc 90 e4 eb 3c
       0.012663435 0.002177265 -0.02893057 0.02879551
000100 ea 4b a6 3d 33 d2 bf bd b6 da ce bd b8 c8 8e 3c
       0.08119948 -0.09366264 -0.101003096 0.017429695
000110 31 fa bc bb bf 2e ce 3d 7c b9 f9 3d 01 29 84 3d
       -0.00576713 0.1006751 0.121935815 0.064531334
000120 ba ad 95 3c b5 9f 24 3d ae 0d ad bd 53 17 99 3a
       0.018271316 0.04019137 -0.08449875 0.0011679925
000130 c2 ab b7 bd ec 62 ca bd 7a 1c 08 bd d3 f1 a1 ba
       -0.08968307 -0.09882149 -0.033230282 -0.0012355394
000140 51 81 54 3d bb ed f3 3d d8 9d 9b 3c d3 e7 b2 3c
       0.05188114 0.11910578 0.018996164 0.021839058
000150 57 4d 28 3d 75 01 e5 3d 0e 1c f6 3b 79 54 a3 bd
       0.041089382 0.111819185 0.0075106686 -0.07975096
000160 6c 6c b2 3c 94 14 55 3c 58 2c 5f 3c 07 97 83 3c
       0.021780215 0.0130053945 0.013621412 0.016063226
000170 4b f1 01 bd f5 58 1d 3d 21 c2 3b 3d 92 ab 2e 3d
       -0.031724256 0.038414914 0.045839433 0.04264409
000180 28 b3 13 bd 6f bc d9 3d c2 3e d1 bd 2e 80 f2 bc
       -0.03605953 0.10631644 -0.10217048 -0.029602136
000190 77 79 06 bd 9e d8 b8 bd 41 78 e7 3d 40 17 e9 bd
       -0.03283068 -0.090256914 0.113022335 -0.11381388
0001a0 49 53 44 bd 5f 07 28 3d b5 26 35 3b 6c 6b a8 bd
       -0.04793099 0.041022655 0.002764148 -0.08223614
0001b0 fb 14 8a bc 84 23 82 bd 89 84 47 bd d6 7a 10 be
       -0.016855707 -0.0635443 -0.04871038 -0.14109358
0001c0 f7 92 23 3d b8 62 48 3d 1a d8 cb 3d 6a 8c b1 3d
       0.03993508 0.04892227 0.099533275 0.0866936
0001d0 a7 7e a4 bd 10 79 1a 3c 31 ab 6d bd b1 2d b8 bd
       -0.080319695 0.009428278 -0.05802459 -0.0899309
0001e0 b9 c3 06 3d 3e 2b 59 bb 36 22 e4 3c f7 9e fd 3c
       0.0329015 -0.0033137347 0.027848344 0.03095959
0001f0 30 d8 99 3c 05 f4 18 bd e1 5e 5b 3d 5e 91 82 3d
       0.018779844 -0.03734209 0.05355728 0.06375383

fc3.weight f4 [1, 128]
000000 52 7f fe 3d e1 13 3e 3e bb 03 41 be 8a 6b f2 bd
       0.12426628 0.1856227 -0.1884908 -0.11836918
000010 b5 50 06 3e 8d 68 19 be 9c 70 08 be a5 e5 0f be
       0.13116725 -0.14981289 -0.13324207 -0.14052446
000020 25 23 f0 bd 26 89 52 3e e2 2d 4a 3e ca 49 27 3e
       -0.11725453 0.2056013 0.19744065 0.16336742
000030 1f 0c 2a 3e ba 2a 3c be 04 a6 3c be 43 32 f8 bd
       0.16606186 -0.18375674 -0.18422705 -0.12118962
000040 64 6b 1c be 2f 07 0f be 1f b9 fc 3d 63 2f 58 3e
       -0.15275341 -0.13967584 0.123399965 0.21111827
000050 bf 78 19 be 0b 25 46 3e f9 bf 0d be e0 c0 0b be
       -0.14987467 0.19350068 -0.13842763 -0.13647795
000060 41 62 1c be da ff 28 be 14 45 55 3e 26 04 51 be
       -0.15271856 -0.1650385 0.20827132 -0.20411739
000070 37 ba 08 3e c6 d1 0a be ca d3 0e 3e bd 81 4b be
       0.13352285 -0.13556585 0.13947979 -0.1987371
000080 50 bb 68 3e 57 dd 29 be 81 03 0b 3e f1 ed 43 be
       0.22727704 -0.1658834 0.13575555 -0.19133736
000090 49 07 4f 3e 3d 2b 36 be bd 8d 4a 3e 23 60 1c 3e
       0.20217623 -0.17789932 0.19780631 0.15271048
0000a0 60 b5 19 3e ac b2 56 be 6a b6 4e be 73 0b b4 3d
       0.15010595 -0.20966595 -0.20186773 0.08791246
0000b0 8e 16 34 3e 43 27 39 3e c7 b3 17 3e d2 3f 38 3e
       0.17586729 0.18081383 0.14814673 0.17993096
0000c0 54 81 03 3e da 8c cd bd 2e 15 2b 3e 8a 23 42 be
       0.12842304 -0.10036631 0.16707298 -0.1895887
0000d0 5f 8d 07 3e 77 c8 18 3e eb 90 f6 3d 1d 52 1c be
       0.13237523 0.14920221 0.1203936 -0.15265699
0000e0 2c 0a 02 3e 5b 8a 14 be e8 8a 0d be 1b 0e fc 3d
       0.12699193 -0.14505903 -0.1382252 0.12307378
0000f0 7d 76 1c 3e b3 9c 5b be af c0 d1 3d 3e da 19 be
       0.15279575 -0.21446495 0.102418296 -0.15024659
000100 b3 e5 69 3e b0 32 36 be a0 fd 48 be 6e ca 58 3e
       0.2284153 -0.17792773 -0.19628 0.21170971
000110 22 24 12 3e 7a 43 46 3e 2c f2 23 3e 9f 73 52 3e
       0.14271596 0.19361678 0.1601035 0.20551918
000120 a7 72 39 be 8b 5a 23 be c8 12 57 be 45 18 45 3e
       -0.18110143 -0.15952508 -0.21003258 0.1924754
000130 a4 bd 63 be 6c 73 45 be 2a e3 24 3e 97 d2 33 3e
       -0.22240311 -0.19282311 0.16102281 0.17560802
000140 ed 3c 5c 3e 6f 00 37 3e 1d 25 41 3e ad de 3b 3e
       0.21507616 0.17871259 0.18861814 0.18346663
000150 28 61 38 3e c8 df 0f 3e e0 24 34 3e 47 3a 3c be
       0.18005812 0.1405021 0.17592192 -0.18381606
000160 68 dc f9 3d bb fc f9 bd f9 b1 14 3e 9c 01 f3 3d
       0.12200242 -0.12206408 0.14521016 0.11865541
000170 67 89 e9 bd b4 16 e8 bd 89 0f 2b 3e 5c 18 4f be
       -0.114031605 -0.11332455 0.16705145 -0.20224136
000180 8f 01 2c 3e 05 3c 55 3e 9d a2 4d be 6e 81 04 3e
       0.1679747 0.20823677 -0.20081563 0.12939999
000190 6c 6b c0 3d 04 e0 68 be 0c 30 2b 3e 44 ad 44 be
       0.09395489 -0.22741705 0.16717547 -0.1920672
0001a0 7d f1 20 be db 5e 43 3e 2d 90 f5 bd cb 97 0b be
       -0.1571712 0.19079153 -0.1199039 -0.13632123
0001b0 62 bc 46 3e ed 18 34 be 85 d3 de 3d 09 a6 b0 bd
       0.194078 -0.17587633 0.10880188 -0.08625419
0001c0 b8 86 28 be fc 0e dd bd 02 ea 43 3e 9e 6c 62 3e
       -0.16457641 -0.10793874 0.19132236 0.22111747
0001d0 27 da 4c be 44 e0 1e 3e 29 4e f5 bd b8 9e 27 be
       -0.20005094 0.15515238 -0.119777985 -0.1636914
0001e0 00 6a 0b be f1 9d 0c 3e f7 8d 33 be 34 3f d5 bd
       -0.13614655 0.13732125 -0.17534624 -0.10412446
0001f0 ae 47 23 3e 12 db 12 be 0a c0 e5 bd 98 a7 47 3e
       0.15945312 -0.14341381 -0.11218269 0.19497526
