value_net_cat_monsters.pth (torch, 83145 bytes, 5 tensors)

fc1.weight f4 [128, 25]
000000 99 0c ed bd f3 20 17 3d 18 7d 05 be 54 5e 6e 3d
       -0.115746684 0.036896657 -0.13036 0.058195427
000010 19 7b ba 3d 1f 64 3f be 60 78 57 be ec a4 7c 3d
       0.0910551 -0.18690537 -0.21042013 0.06168072
000020 73 0c 54 bd 54 7f b0 bd df e3 f2 3d 00 ba 97 bc
       -0.051769685 -0.08618036 0.11859869 -0.018521309
000030 63 1f 0e be f3 62 ef 3c df 7e 91 3c a4 56 0b 3e
       -0.1387916 0.029221987 0.017760692 0.1360727
000040 f7 46 a2 3d f3 4e 2c be 59 2d 42 3e d3 e8 c0 3d
       0.07923692 -0.16826992 0.18962611 0.09419408
000050 dd 5c 56 be 40 f8 50 3e 50 e1 68 3e d0 d3 19 3d
       -0.20933862 0.204072 0.227422 0.037555516
000060 9f 5a 29 3e c0 36 ae 3d 8c 1f cb bd 7b 5f a3 3d
       0.16538475 0.085065365 -0.099181265 0.07977196
000070 df 3f 91 bd c4 df 60 3c 0f 0f 8a bc df a5 33 bd
       -0.070922606 0.013725225 -0.016852884 -0.04385936
000080 38 3d 92 3c 5c 59 38 3d 27 b4 b6 3d 9e c1 2d be
       0.017851457 0.045007095 0.0892108 -0.1696839
000090 67 d5 b2 bb b8 64 1e 3e 90 e7 07 be 0b 9b 06 3e
       -0.0054575684 0.15468109 -0.13271928 0.13145082
0000a0 49 47 c3 bd 92 ce 7d be 37 f4 f5 bd 11 28 4a bd
       -0.09535081 -0.24785832 -0.12009471 -0.049354617
0000b0 4e 7b 89 3d ff a2 3b be 10 8a d6 3d 88 e0 82 3e
       0.06712972 -0.18323897 0.10475552 0.2556193
0000c0 58 b8 8f 3e a5 6f 8a bd 41 12 22 3d 62 7d 1f be
       0.2807033 -0.06759576 0.03956819 -0.15575173
0000d0 21 16 bc bd 37 70 43 3e 21 92 3d 3d de 08 02 3e
       -0.09183908 0.19085775 0.046281938 0.12698695
0000e0 d8 96 0a 3e bf 53 31 3d 0a f2 3c be 71 f0 28 be
       0.13534105 0.043292757 -0.18451706 -0.16497971
0000f0 e6 5c 7c 3d a7 93 ad bc da 44 17 be 9d 5f df 3d
       0.061612032 -0.02118857 -0.14772359 0.10906909
000100 da 76 f6 3d 49 5e 27 3e 5a ca 82 bc ef e9 1e be
       0.12034388 0.1634456 -0.01596563 -0.15518926
000110 04 e6 61 be 78 e9 f6 bd 91 90 3f bd 00 ce 3a 3e
       -0.220604 -0.120562494 -0.04676873 0.18242645
000120 54 06 e3 3d 5a 93 f1 3c dd 3c 3b be 8d dd 12 3e
       0.11085191 0.029489208 -0.18284936 0.14342327
000130 5f 8e ff 3d c0 3e be bd 92 25 7c bc 59 9c d1 3d
       0.12478327 -0.09289312 -0.015389817 0.10234899
000140 45 78 92 bb 59 ce e2 bd c0 e2 b6 bc 7a 30 93 3d
       -0.0044699037 -0.11074514 -0.02232492 0.071869805
000150 c5 c0 b5 3c 0f 74 16 3e a0 0d 2a 3e af 00 12 be
       0.022186646 0.1469271 0.1660676 -0.14258073
000160 d0 28 a9 bd d0 ad 63 3c 46 75 3d 3d da d6 8c 3c
       -0.082597375 0.013896421 0.04625442 0.017192293
000170 d7 62 c5 3d 54 86 21 3c d3 8c aa bb e4 79 11 3e
       0.09637993 0.0098586865 -0.005204776 0.14206654
000180 f6 3c 2c be 81 f6 87 bd 62 79 77 be f8 12 1a 3e
       -0.1682013 -0.06638814 -0.24167398 0.15046299
000190 03 7d 82 3c bb 08 09 be cb a4 ac bc 50 37 a1 3d
       0.01592875 -0.13382237 -0.021074673 0.07871878
0001a0 51 c0 c2 bd e2 f3 a9 3d a8 b3 ef 3d f4 05 59 bd
       -0.09509338 0.0829847 0.117041886 -0.052984193
0001b0 4a a2 dc 3d a5 98 d8 3d 3f ff 99 3c 4d ff 35 3c
       0.10773142 0.1057599 0.018798469 0.011108232
0001c0 ca 9e b4 3d 27 d2 97 bc 20 44 26 3e 61 9e 22 bd
       0.08819349 -0.018532826 0.16236925 -0.039701823
0001d0 fb 5d ac 3d 43 e2 b6 bd 40 11 56 3e 51 fa f0 39
       0.08416363 -0.08929875 0.20905018 0.00045962867
0001e0 7b 78 43 be 94 c4 49 3e 55 3a 62 3e db e7 9b bd
       -0.19088928 0.19703895 0.22092564 -0.07612582
0001f0 3f c6 fc 3d a6 06 2d 3d a3 e8 2f 3e f5 f5 a4 39
       0.123425 0.04224267 0.17178588 0.0003146377
000200 e5 ef de 3d a7 35 30 bd 14 2c 65 3e c9 f5 95 3c
       0.108856 -0.043019917 0.22380096 0.018305676
000210 e3 ef 37 bd b6 fd ca 3c 55 44 be 3d ad a5 23 3e
       -0.04490651 0.024779182 0.09290377 0.15981169
000220 67 ef 7e 3c c5 f8 13 be 53 cd 9b 3d 8d 90 97 bd
       0.015560008 -0.14450367 0.07607522 -0.07400618
000230 2f a0 3d 3e ce 1d 66 3e 5d 0c 35 be 48 9a fa bc
       0.18518136 0.22472307 -0.17680497 -0.030591145
000240 6a 72 47 be 85 ab ed 3d 19 a0 d4 bd 38 7f 71 3d
       -0.19477239 0.116049804 -0.10382099 0.058959216
000250 e2 f7 ce bc e7 6a 15 bd e1 71 24 bb 6b 58 3f be
       -0.025264684 -0.036478903 -0.0025092291 -0.18686073
000260 18 de 8e bc 98 e3 26 be 30 74 3c 3d e3 30 5a 3d
       -0.017439887 -0.16297758 0.046009243 0.05326928
000270 09 bd f0 3d 32 bd 19 3e 16 e5 dc bd 94 47 ad bd
       0.117548056 0.15013579 -0.10785882 -0.08460918
000280 47 cc 83 be 4d 86 2b bc 4d 4f 52 3c 9a 4b 1a bc
       -0.2574179 -0.0104690315 0.01283629 -0.009417439
000290 02 cc c5 3d c1 5b a5 bd 14 b4 41 be 37 f1 d9 bd
       0.09658052 -0.08074141 -0.1891635 -0.10641711
0002a0 6f 52 80 3e 87 09 df 3d 21 ee 4f be 73 df 03 be
       0.25062892 0.10890489 -0.20305683 -0.12878208
0002b0 78 06 32 bb f5 a6 d2 3d f1 c4 bc 3c c9 72 b1 bd
       -0.00271645 0.10285751 0.023043128 -0.08664472
0002c0 ac 0e bd 3d d0 f9 09 be 02 d0 d0 bb ac 3f 21 3e
       0.09231314 -0.13474202 -0.0063724527 0.15746945
0002d0 07 04 9b bd fe 4b 0f 3e 11 14 ff 3b c9 27 d0 bc
       -0.075691275 0.13993832 0.0077843745 -0.025409596
0002e0 fd c2 b3 3d 40 92 b1 bd c7 1f 5e bd 02 1a 06 be
       0.087774254 -0.08670473 -0.054229524 -0.13095859
0002f0 4d d5 16 3e fb 76 23 be 3a c5 8c bd 4b 48 08 3e
       0.14729805 -0.15963356 -0.068735555 0.13308828
000300 4a a0 ca 3d 88 5f c3 bd 56 ef 6d be bb 7b 25 3e
       0.09893854 -0.095397055 -0.2323583 0.1616048
000310 f5 f3 b3 bd 35 4c cc 3d 53 05 a1 bd 78 cb c4 bd
       -0.087867655 0.09975473 -0.07862344 -0.09609121
000320 07 a8 0f be 53 fb f0 bc 7c 4d f9 3d 56 83 65 bc
       -0.14028941 -0.029416716 0.12172982 -0.014008364
000330 da c8 59 3c 22 c6 05 be 3d 2f 9e 3d 5b 5d bf 3d
       0.013292516 -0.13063863 0.07723854 0.09343978
000340 5a b7 e3 3d 96 6f 26 3c b2 ac be 3d 97 2d 17 3e
       0.11118956 0.01015844 0.09310283 0.14763485
000350 27 73 ad bd 00 b3 e6 3b da 91 04 be 51 8e 00 3d
       -0.08469229 0.0070403814 -0.12946263 0.031385724
000360 76 c2 7f 3e 20 c7 7d bd 9b 7c 36 be 1d 0a 79 3c
       0.24976525 -0.06195748 -0.1782097 0.015200165
000370 bb 36 66 3e 00 ff 43 be 1b 8b 7d bc 24 55 69 be
       0.22481816 -0.19140244 -0.01547506 -0.22786385
000380 5c 66 a8 3b b2 1f a4 3d 6d fe 54 3e e4 de 13 3d
       0.0051391553 0.08013858 0.2080018 0.036101237
000390 5b 15 13 3e 4c d0 80 3d 2f 8f 0f bc 2b 44 9e 3c
       0.14363615 0.062897295 -0.008762165 0.019319614
0003a0 3f 14 53 3e 43 06 93 3d 80 a5 59 3d 96 a0 d6 3d
       0.20613192 0.07178929 0.05313635 0.10479848
0003b0 27 ff 87 bc 87 b9 1c 3e 00 6c 07 bb 3f b2 a9 bd
       -0.016601158 0.15305148 -0.0020663738 -0.08285951
0003c0 3d bc c5 bd fd 7c 16 be 1a 7f 02 3c fc df a3 3c
       -0.09655044 -0.14696117 0.007964874 0.020004265
0003d0 01 9b f9 bd 90 75 73 3e 2c 28 1a 3e 75 c2 e2 bd
       -0.12187768 0.23775315 0.15054387 -0.11072246
0003e0 2b aa 72 bc 7e c4 80 3b 2c 29 0e 3e 13 34 a9 3d
       -0.014811079 0.0039296737 0.13882893 0.082618855
0003f0 a2 f4 07 3d 67 25 d8 bd 2d bf 45 3d 1b 1e 49 3b
       0.033192284 -0.10554009 0.048278023 0.003068811

fc1.bias f4 [128]
000000 64 ee 94 bc 01 e9 9b 3d 98 ab af 3c 6c 24 4a be
       -0.01818008 0.07612801 0.021444127 -0.19740456
000010 8c 3e 36 3e a2 2b 8b 3d 37 31 58 3e 7e 31 62 be
       0.17797297 0.06795432 0.21112524 -0.22089192
000020 19 8d 17 be 75 29 4b bd fa 8a 34 3e 66 20 42 be
       -0.14799918 -0.049600083 0.1763114 -0.18957672
000030 8e dd 96 bc c1 e0 9b 3b d2 d3 10 3e 8f 6a 3f be
       -0.018416192 0.0047570174 0.14143303 -0.18692993
000040 71 d6 14 be e9 60 8e bd 24 fd 4d be ed 81 9a 3d
       -0.14534928 -0.06952078 -0.20116097 0.075443126
000050 47 b9 a5 bb 1e f2 2a 3e e1 c3 f7 3b bf d5 42 bd
       -0.005057487 0.16693923 0.0075611924 -0.047567125
000060 fe e9 49 be 84 93 04 be 6c 63 4a bd ef 58 64 be
       -0.19718167 -0.12946898 -0.049411222 -0.2229955
000070 b9 f2 3d be 74 7b 4e be 81 a0 d2 bc f0 e3 e8 3d
       -0.18549623 -0.20164281 -0.0257113 0.11371601
000080 ac 96 1a 3d f2 55 6d 3c 10 bc 04 3e 14 db 06 3d
       0.03774135 0.014485823 0.12962365 0.032923773
000090 dc 9b bc 3d 1d f3 8c bd 79 ec a7 3d b6 b0 a8 3c
       0.09209415 -0.06882308 0.081994005 0.020592075
0000a0 d8 bd 1d 3e 9b 8d 23 be 47 ff 13 be 19 cb 65 3e
       0.15404451 -0.15971987 -0.1445285 0.22440757
0000b0 34 88 29 be 3b 98 90 3d 85 d0 a0 3d 4a 8e 82 be
       -0.16555864 0.07060286 0.07852272 -0.25499183
0000c0 e9 35 1b be d1 5c 53 3e 89 8c 47 3e b4 21 40 3e
       -0.15157284 0.20640875 0.19487204 0.18762857
0000d0 23 f3 7c be 07 78 6e 3c 07 c5 56 be 55 90 17 be
       -0.24702124 0.014554984 -0.20973597 -0.14801152
0000e0 b7 a6 0d 3e e9 ac 48 be a2 43 dd 3d c5 1d 39 be
       0.13833128 -0.1959721 0.108039156 -0.18077762
0000f0 d9 cd 10 3e eb 80 38 3e 6e ca dd 3d f5 9c 91 bd
       0.14141025 0.18017928 0.10829626 -0.07110015
000100 09 f0 a8 3c 2f 78 66 3e 26 11 11 be 0c 29 0e be
       0.02062227 0.22506784 -0.14166698 -0.13882846
000110 65 76 eb 3c 03 93 dd 3b 57 70 33 3e c1 3e 38 be
       0.028742978 0.00676191 0.17523323 -0.17992689
000120 71 3b 46 bd 15 82 12 be 41 46 ff 3d 5c 6f 42 3e
       -0.04839653 -0.14307435 0.12464572 0.18987793
000130 b7 58 4b be e3 50 23 be a1 da 1c be 9c 58 9e 3d
       -0.19858061 -0.15948825 -0.15317775 0.07731745
000140 68 af 46 be 50 c2 ad 3d 52 94 87 be f2 7b 92 3c
       -0.1940285 0.08484328 -0.26480347 0.017881367
000150 df a3 d6 bd d5 57 68 be 75 32 68 3e 8f 90 09 3d
       -0.10480475 -0.22689755 0.22675498 0.033585127
000160 a4 c1 38 be c9 ca 34 3e 94 4d a8 bb 3f d2 62 3e
       -0.18042618 0.17655481 -0.005136201 0.22150515
000170 e3 62 29 3d 5c c5 3c be bf 85 00 3e fe 36 a8 3d
       0.04135407 -0.18434662 0.1255102 0.08213614
000180 be 21 c8 bd 6a 57 bc bd 08 e0 2a be 6c 20 75 be
       -0.09772061 -0.091963604 -0.16687024 -0.23938149
000190 b9 40 70 3d 05 db 04 3e 96 31 99 bd d0 19 00 be
       0.058655474 0.12974174 -0.07480161 -0.12509847
0001a0 a5 c7 43 be a2 c4 40 3d 47 7c f0 3d b6 75 0a be
       -0.19119127 0.047062524 0.11742454 -0.13521466
0001b0 99 a2 29 3e ab ce b1 bd 0f 25 30 bd ee 11 3f 3d
       0.16565932 -0.08681997 -0.04300409 0.04664796
0001c0 10 e4 41 3d 6c 1a bc bd 4f fd 33 3e 3e 96 8d bd
       0.047336638 -0.09184727 0.17577098 -0.06913422
0001d0 78 ad 7c 3e 0c 38 3f be b8 33 18 3e 39 6f 96 3d
       0.24675548 -0.18673724 0.14863479 0.07345433
0001e0 62 a2 dd 3c a1 8f 77 be 63 1b 86 bc 07 aa 5b be
       0.02705497 -0.24175884 -0.01637048 -0.21451579
0001f0 51 5e 66 be 02 89 0e be 60 fb b6 3c 3c 0d d9 3d
       -0.22496916 -0.13919452 0.022336662 0.105982274

fc2.weight f4 [128, 128]
000000 43 40 a9 bc fe c7 dd 3d 55 51 55 bd 28 31 0e 3d
       -0.020660525 0.10829161 -0.052079517 0.034714848
000010 fa 9f c8 bc 78 25 90 3d 7a 91 18 3d 05 57 e6 bb
       -0.024490345 0.070383966 0.037248112 -0.0070294165
000020 b2 0f f1 bd 18 4e 97 3d 46 cb 4b bb 10 9a dd bd
       -0.11770572 0.07387942 -0.0031096502 -0.10820401
000030 30 1b 8e bd 84 0a 19 be d3 b6 d4 bc b6 30 fa bd
       -0.06938779 -0.14945418 -0.025966084 -0.12216322
000040 3c b0 dc 3a d9 d3 c4 bd c4 1e 52 bc e4 f0 95 ba
       0.001683719 -0.09610719 -0.012824718 -0.0011439589
000050 80 1f 51 bd 2f 10 80 3d 2d c0 07 3e 56 a6 65 bd
       -0.05105543 0.06253087 0.13256903 -0.056066833
000060 72 e0 9b 3c 1f 54 d8 ba 7a 31 40 bc c2 75 00 bb
       0.019027922 -0.0016504562 -0.011730546 -0.001960144
000070 53 24 0a 3d 53 a2 db bd 5d 6a 9c bc b5 a4 ea 3b
       0.033726048 -0.1072432 -0.019093687 0.007160748
000080 ca 76 37 bb 49 a5 d7 bd 11 10 3c bc 81 b0 e4 3d
       -0.0027994388 -0.105295725 -0.01147844 0.11166478
000090 84 a7 dc bc a6 62 d2 bd 9c 25 b0 3c f4 1e 18 be
       -0.026935346 -0.10272722 0.021502309 -0.14855558
0000a0 05 5d 3c bd 17 53 ed bc 0e c8 84 bd ca 1b 29 3d
       -0.045987148 -0.028970284 -0.0648347 0.041286267
0000b0 c3 dd 6a bd ca 9b 79 bc 64 88 eb 3d e3 ff 87 3b
       -0.057340395 -0.015234897 0.11500624 0.004150377
0000c0 a2 5b 94 bd d6 88 64 3d f4 0c 41 bc f5 af 21 3c
       -0.0724404 0.05579456 -0.011782873 0.009868612
0000d0 ab b1 f4 bc e5 90 0e 3e cd 0e 12 be 77 cc 7e 3d
       -0.029869875 0.1392246 -0.14263459 0.06220671
0000e0 a0 ad c0 3d e7 f0 96 bd 2e 56 86 3d 26 63 b7 bd
       0.09408116 -0.07370167 0.06559406 -0.08954458
0000f0 20 06 5f 3d e9 87 9f 3d 07 a9 27 3e 68 b6 b2 bd
       0.0544492 0.07789595 0.16373073 -0.087261975
000100 6a 1f 8c bd 7b 54 99 3d 9a 2a 79 3d b9 d5 97 3b
       -0.06841929 0.074868165 0.060831644 0.004633632
000110 d1 23 5f bd fd 25 fc 3d 1c 25 ee 3c 59 64 5f bc
       -0.054477517 0.12311933 0.02907043 -0.013634765
000120 b4 1e 8b 3c 1e fb cf 3b 5a 73 85 3d 94 ba a8 bc
       0.016982414 0.006347074 0.06516142 -0.02059678
000130 c7 fe 27 3b 63 bc 1f 3b e4 e3 62 3c 50 2e 0e 3e
       0.0025634037 0.0024373762 0.013848279 0.13884854
000140 17 16 fb bd 80 14 10 3d 26 95 ff 3c 0d ca 9a 3d
       -0.12260073 0.0351758 0.03119905 0.075580694
000150 28 89 4a bd 26 35 f3 bd 19 b3 fc bc 4e 91 e3 3d
       -0.04944721 -0.11875372 -0.03084712 0.11111699
000160 a6 f1 83 3c b2 33 0c bc 7e 54 06 bd 1b f8 ba 3d
       0.016106438 -0.008557247 -0.03279542 0.091293536
000170 07 f3 dc 3b 9e 89 d8 bd 25 c2 bb 3d 6e 00 95 3d
       0.0067428383 -0.105731234 0.091678895 0.072754726
000180 82 44 d1 bd 63 8a 7d bb dd 09 ae b9 b2 fb 83 bd
       -0.10218145 -0.0038687221 -0.00033195215 -0.064444914
000190 a3 d5 2d 3d c1 63 f6 bb 42 97 89 bd 51 68 7a 3d
       0.042440068 -0.007519216 -0.06718303 0.06113464
0001a0 8c 82 90 3c ae 4b 06 3e 06 ae 3c bd c7 a6 a8 bd
       0.017640375 0.13114807 -0.0460644 -0.08234935
0001b0 31 f7 cd bb be 63 cd bc 5a d4 77 3c 19 af d3 bd
       -0.006285571 -0.025071975 0.015126312 -0.103361316
0001c0 61 c4 ec 3d 1d 2c c6 3c de 08 c3 3d 81 e9 c3 bd
       0.11560894 0.024190957 0.09523176 -0.09566022
0001d0 7e 9d 08 3e 75 72 32 bd c6 84 49 3d d2 79 b4 3d
       0.13341329 -0.043566186 0.04919889 0.08812298
0001e0 62 7a c5 3d d4 27 03 be e2 4e e4 3d c0 08 fb bd
       0.09642483 -0.12808162 0.11147858 -0.12257528
0001f0 1b fd ac bc d2 1c c9 bd d0 b9 00 be 39 56 14 3e
       -0.021116784 -0.0981995 -0.12570882 0.14486016
000200 33 c8 91 3b 54 e6 c1 3d 53 c1 30 bd bf 1c e6 3c
       0.0044489144 0.0946776 -0.04315312 0.02808988
000210 9c de a6 3d f3 75 04 bd 21 a6 fd 3d c9 c7 19 3d
       0.08147928 -0.032339048 0.12385202 0.037544046
000220 84 4d f3 bd 74 9f 75 bd a7 0a 41 3d 33 db 14 be
       -0.11880019 -0.05996652 0.0471293 -0.14536743
000230 3a f7 7b bc f9 50 04 bd b7 43 e8 3d 11 c4 8b bd
       -0.015378768 -0.032303784 0.113410406 -0.06824506
000240 ee 0b d7 3c 6f 0d ef bc 8c 92 cf 3b 9f 57 d8 3c
       0.026250806 -0.02918121 0.0063346084 0.026408968
000250 cb cc c3 bd b0 6e 7b 3d 58 ec 42 3d b2 db c4 bb
       -0.095605455 0.061384857 0.047588676 -0.006007635
000260 90 b6 16 bd a6 28 f1 3c 2a 44 6e 3b 83 5f 6e bd
       -0.0367952 0.029438328 0.0036356547 -0.058196556
000270 6f fc 21 3d 37 45 bd bd 96 70 99 bd ca 9a 56 bd
       0.03954738 -0.09241717 -0.07492177 -0.052393712
000280 87 da 84 3d ea da cf bb 61 30 dd 3c f2 72 0b bc
       0.06486993 -0.0063432353 0.027000608 -0.008511292
000290 5e 5f 10 bd fc 6d ae b9 46 c4 97 bd 56 c8 24 bc
       -0.0352472 -0.0003326981 -0.07410483 -0.010057529
0002a0 49 b4 2c 3c d8 5f 79 3d 2d 6d f8 3b a5 fd 38 3d
       0.01054103 0.06088242 0.007581374 0.04516377
0002b0 b1 79 78 3c 2f 6b 1b 3d 7a 5c 0e 3e 57 74 0e bc
       0.015165732 0.037944015 0.13902465 -0.00869473
0002c0 68 05 45 3c 03 a9 a1 3d 0d 5d 2f bd 3d 0e 17 bd
       0.012025215 0.078935646 -0.04281335 -0.036878813
0002d0 6e 16 53 bd 29 6c 48 3d 6d f2 db bd bb bb a5 3d
       -0.051535062 0.048931275 -0.107395984 0.08092447
0002e0 3d 3e 1f 3e f7 ea 04 bc c1 c9 4d 3d 3d 6a 0e bd
       0.15551086 -0.008112661 0.050241236 -0.034769285
0002f0 2e 0f ee 3d 31 a1 ee 3d 9d 30 24 3e 17 49 d2 bd
       0.11623989 0.116518386 0.1603417 -0.10267847
000300 7f e1 18 be c9 4e d0 3d 17 34 48 bc 1d a1 e5 bc
       -0.1492977 0.10171277 -0.01221945 -0.028030926
000310 63 38 b1 3a a0 bd ce 3d f8 4f 38 bc 2b 1c b7 bd
       0.0013520833 0.10094762 -0.011249535 -0.089409195
000320 0d 66 78 3d 14 85 07 be 58 8e 2a bd 60 45 f7 3b
       0.0606442 -0.13234359 -0.041639656 0.007546112
000330 6b aa 23 3d 3c e8 12 be 69 fe ac bd d7 67 1a 3e
       0.039957445 -0.14346403 -0.084469624 0.15078674
000340 64 49 b6 bd 9e a9 8c 3d 77 58 9c 3b f4 4e 5d bc
       -0.08900717 0.068682894 0.004771288 -0.013507593
000350 cc 97 29 bb 47 3c 68 bd ee 1c d6 3d 0c 16 5f bc
       -0.0025877832 -0.05669811 0.10454737 -0.013616096
000360 28 aa be bd cd d1 47 3d f2 a7 43 bd 40 3d 0c 3e
       -0.093097985 0.048784066 -0.047767587 0.1369524
000370 f8 9d 7c 3d ff 00 d3 bd 96 98 ba 3d 10 aa 0e 3e
       0.06167409 -0.10302924 0.09111135 0.13932061
000380 1f 08 41 bd 2f 30 0d 3d 83 62 59 3d e4 aa fc 3c
       -0.047126886 0.03446978 0.053072464 0.030843206
000390 50 73 89 3d 7d ec 2e 3d 09 2c 20 3d a0 3c 51 bd
       0.06711447 0.042706 0.039104495 -0.051083207
0003a0 39 32 ee bd 7a e0 35 3d 44 90 86 bd da d6 36 3d
       -0.11630673 0.04440353 -0.06570485 0.044638492
0003b0 b3 14 0b 3d aa a5 26 3d 3d 47 ce 3d b8 3a 61 bd
       0.033955287 0.040685333 0.100721814 -0.05498764
0003c0 63 14 41 3d d7 a3 03 be 8a 28 4a 3d 05 98 1d be
       0.047138583 -0.12855469 0.049355067 -0.15390022
0003d0 67 7f 7c 3d 62 ea 3a bb 8c 4e ea bc ac 30 86 bc
       0.061644938 -0.002852105 -0.028601907 -0.01638063
0003e0 b3 bd 1d 3e 59 99 06 3b 3a 13 49 bb 45 9a f7 bd
       0.15404396 0.002053818 -0.0030681626 -0.120899715
0003f0 8a 5e e2 bd ed cf 8c bd 0d 0f 14 bd 40 99 ec 3d
       -0.11053188 -0.06875596 -0.036147166 0.115526676

fc2.bias f4 [128]
000000 8c 1c f2 3d 6b cd ec bc 4a 90 d4 3c 0f e8 5d bc
       0.11821851 -0.028906545 0.025947709 -0.013544097
000010 34 62 0e 3d 4c c7 cd bd 36 b3 06 3d 8c 5f c7 bd
       0.034761623 -0.100477785 0.032885753 -0.09735021
000020 12 f6 b5 bd 8a e3 26 3d 0a 7e 36 bc 2c b0 1b bd
       -0.08884825 0.040744342 -0.0111384485 -0.038009807
000030 5b 0d 2b bd ec dd e5 3d 79 31 24 3d bf 47 bc 3d
       -0.041760784 0.11223969 0.040086243 0.09193372
000040 22 88 92 3c de ac 13 3c 65 11 b5 bd 33 d3 4c 3d
       0.017887179 0.009013383 -0.08841208 0.050006103
000050 b9 4e ba 3c 2d 0c c0 3d 3d 4a 73 bd 3c 18 9c 3d
       0.022742616 0.09377322 -0.05939697 0.0762181
000060 69 ba 5c 3d c9 5a dd bd 1e cd 59 bd aa 64 bc bd
       0.053888712 -0.108083315 -0.05317413 -0.09198888
000070 89 1c bc 3c 97 95 57 bd 30 cf 8a bb 0e ed 6c bd
       0.022962825 -0.052632894 -0.0042361245 -0.05784326
000080 bc e5 c9 3d 13 95 45 3d b6 34 80 bb e6 fe 4d bd
       0.098582715 0.04823787 -0.0039125336 -0.05029192
000090 db 24 c3 bd e3 0d 8f 3d ce 14 25 3d 58 ab b2 3c
       -0.09528514 0.069850706 0.040303044 0.021810219
0000a0 3a 14 ac bb 66 cc 40 bd bd 1c 3e bd a1 c9 00 bd
       -0.0052514346 -0.04706993 -0.046414126 -0.03144229
0000b0 76 d2 e4 3b 02 0b 8b 3d d4 04 78 bd 7f 9b 50 bd
       0.0069830967 0.06789209 -0.06055148 -0.050929543
0000c0 cb e3 eb bd b5 fc 92 bd ce 29 b4 3d e9 b1 e6 3d
       -0.115180574 -0.07177106 0.08797036 0.112644024
0000d0 4b 9a c3 bc 0d 3f ad bc 41 7f 2e bd 08 45 31 bd
       -0.023877284 -0.021148229 -0.042601828 -0.043278724
0000e0 5c 2e c5 3d f3 03 dd bc 87 fa 9f 3c 38 3d 97 bd
       0.09627983 -0.026979422 0.01952864 -0.073847234
0000f0 a1 9b 01 bd b7 d3 43 bd ff c4 19 bd df 39 6c bd
       -0.03164256 -0.04780933 -0.037541386 -0.057672378
000100 f8 2c 8d 3d 47 77 24 3d 9b e8 e1 bd 04 48 75 bc
       0.06893343 0.040152814 -0.11030694 -0.014970783
000110 24 94 bf 3d 70 b4 cd bc 87 dd a0 3d 6c 8d 59 bc
       0.093544275 -0.025110453 0.07854753 -0.0132783465
000120 45 01 00 bd 4c 3d 97 bd 45 69 bc bc 5c e5 43 ba
       -0.03125121 -0.07384738 -0.022999415 -0.0007472837
000130 28 af 51 3d cb 20 ef bd af 8c d5 3b e6 93 91 bd
       0.051192433 -0.11676177 0.006517015 -0.071082875
000140 88 01 ac 3d f0 fe 8b 3c a4 b3 49 bd be 58 f3 bc
       0.083987296 0.017089337 -0.049243584 -0.029705402
000150 19 49 03 bd b5 a9 25 3d f1 f5 66 bd 44 1e 8d bd
       -0.032052133 0.04044505 -0.05638689 -0.06890538
000160 96 39 b6 3d 33 24 91 bc e4 eb bb bb ca 15 fa 3d
       0.088977024 -0.017717456 -0.0057349075 0.12211187
000170 1f 9d 10 3d 5c 12 3c 3d 3f f9 16 3d b1 9a fb 3c
       0.035306092 0.045915946 0.036858793 0.030713411
000180 de 30 04 3d a8 ac f9 3d 34 e2 aa 3d ca 70 49 3d
       0.032273166 0.12191135 0.08343926 0.04917983
000190 e0 56 e6 bc 33 51 eb 3d e7 9d 23 3d 29 f1 ef 3d
       -0.028117597 0.11490097 0.03994551 0.117159195
0001a0 14 9d ac bb ee 14 f6 3b 94 24 7f bd db db c1 3d
       -0.0052677486 0.007509819 -0.062290743 0.09465762
0001b0 ec 48 0d bc 95 56 b8 3d 29 dd 9f 3b f1 dc d9 3c
       -0.008623343 0.09000889 0.0048786593 0.02659461
0001c0 54 10 db 3d 06 56 17 3d 36 57 fe 3c de 16 3f 3d
       0.10696474 0.036947273 0.031047445 0.046652667
0001d0 ff 47 a9 bd c3 68 9a bd 00 14 26 3d 95 e3 57 bc
       -0.08265685 -0.07539513 0.040546417 -0.013176818
0001e0 f8 fa 39 3b 58 d3 bf bc 9c eb ad bd 35 ac 68 bd
       0.0028378349 -0.023416206 -0.084922045 -0.056804854
0001f0 61 e2 ad bc 76 48 21 bd 6d 72 8d 3c 02 da a3 3d
       -0.02122611 -0.039375745 0.017266477 0.08000566

fc3.weight f4 [1, 128]
000000 43 7f 38 3e 75 e8 5f 3e 38 1a 04 be d1 1e 0f be
       0.18017296 0.21866019 -0.12900627 -0.139766
000010 9c 89 eb bd 74 0e da bd cc b9 2c 3e 0c 1b 2c be
       -0.11500856 -0.10647288 0.16867751 -0.16807193
000020 cd 05 2f be 98 91 20 3e 67 3e 47 3e af 87 39 3e
       -0.17092057 0.1568054 0.19457398 0.18118165
000030 e4 3b 29 be 6e 34 1e 3e 63 f5 45 be 8d 9c 18 3e
       -0.16526753 0.15449688 -0.19331889 0.1490347
000040 73 d8 28 3e b4 e0 57 3e bf 93 2e be 08 05 33 be
       0.16488819 0.21081811 -0.17048548 -0.17482388
000050 0b 5d f2 3d 69 8e 23 3e 6a f0 02 be 0d ad 4c 3e
       0.11834153 0.15972294 -0.12787023 0.19987889
000060 85 f2 f5 bd 96 d4 fd bd 6e 50 26 be 31 33 12 be
       -0.120091476 -0.12394063 -0.16241619 -0.1427734
000070 2c c1 d6 bd 4d a9 31 3e 02 a9 48 be 34 53 ef 3d
       -0.10486063 0.1734974 -0.19595721 0.116857916
000080 d3 ac 04 3e a5 d7 21 3e 32 be fb 3d 05 b7 3b 3e
       0.12956552 0.15804918 0.12292136 0.18331535
000090 64 1d 01 be 41 68 1d 3e e6 c7 48 3e 4f b0 88 3d
       -0.12608868 0.15371801 0.19607505 0.06674253
0000a0 8b 83 0d be bb f6 1d 3e c7 43 fd 3d 10 eb d9 3d
       -0.13819711 0.15426151 0.12366443 0.10640538
0000b0 bb 51 00 be 76 70 4d 3e 0e ee 5a be db 1b 35 be
       -0.12531178 0.20062432 -0.21379873 -0.17686407
0000c0 37 4d 48 be 8f d7 19 be 17 77 08 3e 78 01 07 3e
       -0.19560705 -0.15023635 0.13326679 0.13184154
0000d0 b1 4a 06 be 6c 72 4c 3e 00 50 14 3e 92 8a aa 3d
       -0.1311443 0.19965523 0.14483643 0.083272114
0000e0 5e 5b 13 3e 97 15 22 be 4d 74 3a 3e 48 06 41 be
       0.14390323 -0.15828548 0.18208428 -0.18850052
0000f0 b0 ff 0f 3e d3 62 46 be 8f fe 61 be d3 76 36 be
       0.14062381 -0.19373636 -0.22069763 -0.17818765
000100 ec 5a 43 3e 3b 2e fd bd b2 4f 37 be 39 67 39 3e
       0.19077653 -0.123623334 -0.17901495 0.18105783
000110 46 7d 0e 3e a0 22 85 3d b1 3f 40 3e fd 39 1d be
       0.13914976 0.06500745 0.18774296 -0.15354152
000120 7c b6 ea bd 1b 98 25 be 18 ac 4a be 40 f0 46 3e
       -0.114605874 -0.16171305 -0.19792211 0.19427586
000130 fb 88 2d be e3 98 29 be 6f 56 24 3e 2a 29 3a be
       -0.16946785 -0.16562228 0.16048597 -0.18179765
000140 0d 5e 28 3e e2 e2 c7 bd 15 56 23 be 5c 9f 16 3e
       0.16442128 -0.09760071 -0.15950806 0.14709228
000150 45 25 1a 3e 3f 19 e2 bd f4 1b 0d be 07 83 3e be
       0.1505328 -0.110399716 -0.13780195 -0.1860467
000160 d5 d2 23 3e 4b ad f0 3d c3 6b 0d 3e e4 0f 12 3e
       0.15998395 0.11751803 0.13810639 0.14263874
000170 ba ec 34 3e fb 7e 12 be 73 b4 49 3e 54 6d 42 3e
       0.17668429 -0.14306252 0.19697742 0.18987018
000180 af ff 2c 3e 51 bf 2e 3e 82 a3 39 3e cc 4b 25 3e
       0.1689441 0.17065169 0.1812878 0.16142195
000190 c3 27 e9 bd 02 da 1c 3e a5 54 29 be d1 6d 66 3e
       -0.11384537 0.15317538 -0.16536196 0.22502829
0001a0 a5 e8 07 be 90 23 58 3e 65 4c 2c be 79 13 fc 3d
       -0.1327234 0.21107316 -0.16826017 0.123084016
0001b0 3a af 2f 3e 7a 9c 52 3e 99 cc 31 be a7 32 5e 3e
       0.17156687 0.20567504 -0.17363204 0.2169901
0001c0 56 35 11 3e d6 e0 dd bd fc 83 18 be 88 b6 4f 3e
       0.14180502 -0.108339 -0.14894098 0.20284474
0001d0 65 75 32 be 29 fd 3f be dc 53 fc bd 3f df 57 be
       -0.17427595 -0.18748917 -0.123206824 -0.21081255
0001e0 60 da 3c 3e f0 f5 5e be b5 a1 48 be a3 9a 11 be
       0.18442678 -0.21773505 -0.19592936 -0.14219145
0001f0 8e 37 57 be d2 d3 07 3e 92 21 41 3e df 58 64 3e
       -0.21017286 0.13264397 0.18860462 0.22299527
