checkpoints/reinforce_cartpole/policy_final.pth (torch, 72657 bytes, 6 tensors)

fc1.weight f4 [128, 4]
000000 60 b2 ea 3e 36 62 ce be 6c e2 1c be 08 a7 e0 3d
       0.45839214 -0.40309304 -0.15320748 0.10969359
000010 ee c2 38 be a2 54 8f 3e ba ec 9a 3d 62 0b 5e be
       -0.1804311 0.27994257 0.07564683 -0.2168403
000020 87 61 81 be 2a a2 db be 43 6d bd bd 7f 7e 07 bf
       -0.2526972 -0.4289716 -0.09249356 -0.5292739
000030 f3 ab 98 be 8d 6a 06 3e d9 47 86 be 78 1e 9f 3e
       -0.29818687 0.13126583 -0.2622669 0.31077933
000040 a3 ac 95 bd 81 69 ba 3c 50 ae 06 3f 56 8a e7 3d
       -0.073083185 0.022755386 0.5260973 0.11305682
000050 08 1d cf be 1b 6a 5b be 4a 2b 13 3f 67 50 1c bc
       -0.40451837 -0.21427195 0.5748793 -0.009540654
000060 51 9f 3e bd 60 0f 9b 3e 44 ed 0e 3e 18 65 02 3f
       -0.046538655 0.30285168 0.13957697 0.50935507
000070 19 3b 86 3d 3a 78 a3 3e 7e ec 0d bf 95 3e 22 bc
       0.06554241 0.31927663 -0.55438983 -0.009902616
000080 38 59 ec be b6 1e 66 3e d3 d0 7a 3e 3f f1 02 bf
       -0.46161819 0.22472653 0.24493723 -0.5114936
000090 29 9f 32 3e 55 03 06 be 34 ae 28 3f 0d e3 df 3e
       0.17443527 -0.13087209 0.6589081 0.43727913
0000a0 a9 8e cb 3e a7 f3 d4 be ec d8 14 bf 97 c6 07 bf
       0.3975728 -0.41592142 -0.58143497 -0.530374
0000b0 1d 3b ef be de 0a ac 3e 0d 53 11 3f 29 d8 05 3d
       -0.46724787 0.3360204 0.5676735 0.03267685
0000c0 20 04 fe bd b3 7e 9c be c8 cb 31 bf 8a d8 c9 be
       -0.124031305 -0.30565414 -0.6945157 -0.3942302
0000d0 56 f3 c7 3e 32 ae 92 bd 40 ac 50 3e 13 f7 d2 be
       0.39052838 -0.07162131 0.20378208 -0.41204128
0000e0 f9 b6 3f be 42 5f 9c 3d bd ce c1 be 6d 84 8e be
       -0.18722142 0.076353565 -0.3785304 -0.27835408
0000f0 55 5e d6 be 61 9e f8 3e 53 e0 d7 be ef c6 9a bd
       -0.41868845 0.48558334 -0.42163333 -0.07557475
000100 3e 4b a1 3e dd 93 cb be 46 ab b1 3d a5 0c 54 bc
       0.31502718 -0.39761248 0.08675246 -0.012942468
000110 94 c3 a6 3e 07 30 59 be d8 20 02 3e 9c df f2 3e
       0.3257109 -0.21209727 0.12707841 0.47436225
000120 47 6c 0d 3e 95 8c 34 3e 32 03 5b be 21 5d 5c be
       0.13810836 0.17631753 -0.21387938 -0.21519901
000130 0e 0b a8 3e 03 6f 82 be 36 be 9c 3e 60 ee 02 3f
       0.32820934 -0.2547532 0.3061387 0.5114498
000140 bf 0a b5 3d 3c d9 42 be 3a ae bd be 8d 55 10 bd
       0.0883994 -0.19028181 -0.37046987 -0.035237838
000150 ef 69 d7 be 88 03 cd be c5 d8 f6 be cd 0c 3c be
       -0.42073008 -0.40041757 -0.48212257 -0.18364258
000160 32 05 0a bd 44 95 65 be e7 70 a7 3b 38 c6 ea be
       -0.03369636 -0.22420222 0.0051098946 -0.45854354
000170 b8 c4 f1 be e9 29 6c be 58 ac 15 be fe 8f c2 3d
       -0.47220397 -0.23062862 -0.14616525 0.095001206
000180 ec 6e 53 bd ef ae 98 be b5 d7 1c bf 3d 28 e8 be
       -0.051619455 -0.29820964 -0.6126664 -0.453432
000190 3e 5b 99 3e e7 f3 f0 be 08 94 d7 3e 45 df 01 3f
       0.29952425 -0.47061083 0.42105126 0.5073131
0001a0 0b ba cb be c8 0a 91 3c 39 47 d4 be b3 7e b5 be
       -0.39790377 0.017705336 -0.4146059 -0.35448226
0001b0 3f b5 67 3c 61 8f 88 3c 8e 5e a7 bd 31 bb 9c 3e
       0.0141423335 0.01666993 -0.08172332 0.30611566
0001c0 43 70 56 3e c9 d8 ba 3e 4b d6 f3 be 31 97 da be
       0.20941262 0.3649352 -0.4762443 -0.42693475
0001d0 cb 36 73 bd 3a 53 81 3e e3 57 12 bf 90 4e 0f be
       -0.059378427 0.2525881 -0.57165354 -0.13994813
0001e0 23 fd 6c be 3b c5 52 3c 3f ef 86 be b8 f0 3f 3d
       -0.23143439 0.012864406 -0.26354405 0.046860427
0001f0 e7 b3 c5 bb d4 9e 9d 3e 98 bf 01 bf 80 28 02 bf
       -0.006033409 0.3078524 -0.50682974 -0.5084305
000200 48 db 3f 3d fa a6 aa 3e 2b e6 38 3f 0f 6e a6 3d
       0.046839982 0.33330518 0.7222621 0.08126461
000210 61 5a b3 3e ca 39 a3 be 95 bd 39 3e 2c 32 84 be
       0.3502989 -0.31880027 0.18138726 -0.25819528
000220 66 e9 61 3e bc 84 f1 3c 55 b9 08 bf 56 15 60 3e
       0.2206169 0.029482238 -0.53407794 0.21883139
000230 e5 33 a9 3e 32 9a 25 3e 20 2d 08 3f d5 2c 8a be
       0.33047405 0.16172102 0.53193855 -0.2698733
000240 ec ee 5e 3e b8 81 82 3e 7b 36 a6 be 01 a7 81 3e
       0.21770829 0.25489593 -0.3246344 0.25322726
000250 ee c0 14 3e ee a0 8b be 08 c7 0f 3f 5b 81 42 3c
       0.14526722 -0.27271217 0.5616307 0.011871661
000260 fd 60 90 be 25 57 82 be de 0f 3c be fa 08 91 3e
       -0.28198996 -0.2545711 -0.18365428 0.2832716
000270 5f 16 db be ed 4b 82 be 0a ba af be 14 32 8d be
       -0.42790505 -0.25448552 -0.34321624 -0.2757727
000280 4a 0b f6 be a4 31 6e bb a1 60 22 3e e6 3a a5 3e
       -0.48055488 -0.0036345506 0.15857174 0.32271498
000290 73 c7 2f be c1 27 a4 3e 1c fa 0f 3f ec b1 e1 bc
       -0.17165928 0.3206158 0.5624101 -0.02755066
0002a0 dc bc ad 3e 64 ab 3b bd 55 5c 96 3e f2 52 fb 3e
       0.3393315 -0.045817748 0.2936732 0.4908672
0002b0 a1 fe e0 be ce eb be be ad a4 e3 be 75 5a f1 be
       -0.43944266 -0.3728928 -0.44461575 -0.47139326
0002c0 b4 67 a3 3d 46 c5 2f 3e 3d fa a9 be fd 8f 3b be
       0.07978764 0.17165098 -0.3319873 -0.18316646
0002d0 20 d0 da be a2 d6 90 3b 28 73 19 3f d6 e0 ec 3c
       -0.42736912 0.0044201175 0.5994134 0.028915804
0002e0 f0 6a 80 be 23 6d 11 3e 68 27 6a be b5 ec ca bd
       -0.25081587 0.14201789 -0.22866595 -0.099084295
0002f0 6b 0f d7 3d 80 79 e7 3e 48 5e 0c 3e 7a 6b d6 3e
       0.105009876 0.45209885 0.1370784 0.41878873
000300 fd f9 22 be 6a a8 2d 3d 76 92 bd 3e c8 d1 07 bc
       -0.15915675 0.04239694 0.37025803 -0.008289762
000310 53 2a f5 be e6 2f 25 3e c4 e4 de bd 01 f7 a5 be
       -0.47883853 0.16131553 -0.10883477 -0.32415012
000320 e9 c0 a5 3e 16 1f c4 3d 83 04 1a 3f f3 38 c2 3d
       0.3237374 0.09576242 0.60163134 0.094835185
000330 59 62 70 3e ce 00 56 be 59 42 a0 bd f9 b9 be be
       0.23475017 -0.20898744 -0.07825155 -0.3725126
000340 ac 3a fa 3e cb c3 f3 be 8e a8 e3 bc 1b 3e 07 bf
       0.48872888 -0.47610316 -0.027790334 -0.5282914
000350 6d e6 9f 3e d3 17 79 3e 02 cf fe 3e fb 10 d6 3d
       0.31230488 0.24325494 0.4976731 0.104524575
000360 01 ba 2c 3e 79 4d 73 be ff e7 04 3e ee 12 c2 bc
       0.1686783 -0.23760022 0.12979124 -0.023690667
000370 39 1d b1 3e 7e 8f 8b be 28 1e 91 3e 52 4e df 3e
       0.34592608 -0.27257913 0.2834332 0.4361444
000380 af 6e 91 3d ba 64 01 be fc e0 1d 3e 21 f7 04 3f
       0.07101189 -0.1263608 0.15417856 0.5193959
000390 a8 8a 1b 3e 4a ec 9e be ef e2 10 bf 4e b7 8f 3e
       0.15189612 -0.3103965 -0.56596273 0.28069538
0003a0 46 14 07 3e 44 02 55 3c 2a 07 23 3e ab b9 24 3d
       0.13191327 0.013001028 0.15920702 0.04021613
0003b0 95 d1 1d be 3d ff 23 3e 92 90 af bd af 0e 03 3e
       -0.1541198 0.16015334 -0.085724965 0.1279857
0003c0 d8 d5 22 3e 69 37 c9 be e4 d4 f9 3e 95 84 9b 3e
       0.15901887 -0.39300087 0.48795235 0.3037459
0003d0 ac d9 dc 3c 2a 0b 8c be 69 09 9d be 30 c1 f2 3d
       0.026959263 -0.27352268 -0.30671242 0.11853254
0003e0 03 65 cf be 75 11 e2 be 1f c5 a7 bd a9 2a ca bd
       -0.40506753 -0.44153944 -0.08191895 -0.09871418
0003f0 99 a0 96 3e 4f e3 87 3e 3c ef 56 3d a4 93 e6 be
       0.294194 0.2654061 0.052474245 -0.45034516

fc1.bias f4 [128]
000000 01 d9 36 3e 0e 3d 71 b8 b7 73 8e be bb ac b4 be
       0.17856218 -5.751574e-05 -0.27822658 -0.35288033
000010 73 94 b4 be 6c 49 fa be ff 93 aa 3c 52 32 e5 3e
       -0.35269508 -0.4888414 0.020822523 0.44764954
000020 b4 aa 8e 3d f3 26 bd 3d 0f 66 b2 3c 3c b5 a9 be
       0.06966153 0.092359446 0.021777181 -0.33146083
000030 94 c1 f1 bc e5 82 71 3d b0 86 a6 be 97 8a 74 be
       -0.02951125 0.05896272 -0.32524633 -0.23880993
000040 b6 ba 77 be 3f bc 93 be e0 95 69 3e 33 62 94 be
       -0.24192318 -0.28854558 0.22811079 -0.2898117
000050 5b 4d 20 3e 6c 98 81 be 51 19 f0 3e eb d2 47 3e
       0.15654509 -0.253116 0.46894315 0.19514053
000060 da 3c db be 0a e1 14 be 51 0c 00 be eb 50 a5 be
       -0.42819864 -0.1453897 -0.12504698 -0.32288298
000070 14 58 1c 3d 65 15 9d bd 3c a0 b9 be eb a5 60 3e
       0.038169935 -0.07670096 -0.36255062 0.21938293
000080 54 70 c7 be 1c 7e b0 3e f9 4d b8 3e 0d d3 58 3d
       -0.38952887 0.34471214 0.35996988 0.05293565
000090 1e 0e da be ed d8 81 be 2c cc 1a ba 6d 77 67 3e
       -0.42588896 -0.25360814 -0.0005905058 0.22604151
0000a0 99 1a 9a be a6 5e 56 3c b9 25 b3 be 20 d1 f0 be
       -0.30098417 0.013084089 -0.34989718 -0.4703455
0000b0 82 1c b2 3e 79 cf 45 3e 1d 2b be 3e 02 04 4b bd
       0.34787375 0.19317426 0.37142268 -0.04956437
0000c0 85 8e c0 be 6b e8 b8 3e 08 a4 ea 3e 84 06 e0 be
       -0.37608734 0.3611482 0.4582827 -0.4375497
0000d0 e9 0b 3b bc d5 e1 05 3e f7 dc 87 3e f1 26 20 3d
       -0.011416414 0.1307443 0.2653577 0.039099637
0000e0 c3 f1 df be 42 89 5c 3d 48 fd 9a be 24 15 e2 be
       -0.43739137 0.053841837 -0.30271363 -0.44156754
0000f0 38 8f e3 3e ee 47 96 be ca 01 01 3d b3 14 ae 3d
       0.44445205 -0.29351753 0.031495847 0.08500042
000100 34 4f 81 3e ff e9 8d be 54 25 59 be 77 9d 84 be
       0.2525574 -0.27717587 -0.21205646 -0.25901386
000110 94 52 f5 3e 4b 30 a5 3e e4 4b d4 3e 9c 4b 13 3c
       0.47914565 0.32263407 0.4146415 0.008990195
000120 83 07 f2 be 8c 56 eb 3d bd 02 87 3e 8d 7e 6e bd
       -0.47271356 0.11491117 0.26369277 -0.058226157
000130 cf e9 b7 3e d9 41 ca bb 87 2c 99 3d 9e a5 a5 3e
       0.3592057 -0.0061724004 0.07479196 0.32352918
000140 4f 7b 62 be f4 d0 94 bd f8 91 84 3e 3a 06 9a 3e
       -0.22117351 -0.07266417 0.25892615 0.30082875
000150 a5 53 7f 3e d6 6f df be f5 a1 87 be 46 67 06 be
       0.24934252 -0.43640012 -0.2649075 -0.13125333
000160 53 57 38 3d 10 95 04 3e cd 29 76 3e e5 77 d6 3e
       0.045005154 0.12947488 0.24039383 0.41888347
000170 6e 82 39 3e df ba db be ed 27 4d 3e 61 7f 8d be
       0.18116161 -0.4291601 0.20034762 -0.27636245
000180 73 89 aa be 3e 68 10 be f9 55 32 3b 49 f3 79 3e
       -0.3330799 -0.14102265 0.0027211888 0.24409212
000190 0a 65 d9 be bc c4 a6 3e 2f 0f da be d4 27 7a 3e
       -0.424599 0.3257197 -0.4258971 0.24429256
0001a0 85 18 46 bd fb 77 5e 3e 78 1e 8e 3d 35 0f c6 be
       -0.048363227 0.21725456 0.06939405 -0.38683477
0001b0 50 63 bf be 3a c5 f3 be 67 1f 9c 3d d8 12 fb 3d
       -0.37380457 -0.4761141 0.07623177 0.122594535
0001c0 4a 82 ce 3e 71 1f 2c be 81 66 c4 3e 0a 54 b9 be
       0.40333778 -0.16808869 0.38359454 -0.3619693
0001d0 06 0d ec 3e 4a d8 56 be a9 81 d4 be ec 1a 95 bd
       0.46103686 -0.20980945 -0.41505173 -0.072805256
0001e0 f8 0d be bd 23 61 db 3d 07 cf 31 be e8 2d 1a 3e
       -0.09280008 0.10711887 -0.17364131 0.15056574
0001f0 0c ef 49 3e 1b e8 90 be 48 c7 96 bd 91 24 98 3e
       0.19720095 -0.28302082 -0.07362229 0.29715398

fc2.weight f4 [128, 128]
000000 94 6f 47 3d f0 dd 3e 3d cf 1e 70 3d 76 ea c5 bc
       0.048690394 0.046598375 0.05862313 -0.024159651
000010 db f7 93 3c 1a 91 88 3d ee ba b2 bd a1 5f 9a 3c
       0.018062523 0.06668301 -0.0872706 0.018844428
000020 22 78 85 3d 6b 5b 3b bd 30 94 fa bc a7 78 81 3c
       0.06517054 -0.04574148 -0.03058824 0.015804602
000030 76 ab 06 3e 3a fc 9b 3d 70 95 80 3c 9d 38 b3 bc
       0.13151345 0.07616468 0.015696257 -0.021877581
000040 d3 72 19 bc ff c7 c1 3c 63 45 ec ba 19 7c 81 bb
       -0.009365755 0.023654936 -0.001802605 -0.003951561
000050 2b 59 96 3d d5 25 2e bc 5a 51 ab ba 23 22 55 3c
       0.07341226 -0.010629137 -0.0013070509 0.013008627
000060 91 65 3a 3d c8 27 b2 bc 57 99 8b 3c 84 51 05 bd
       0.045507018 -0.021747485 0.017040892 -0.032548442
000070 66 d6 1d bd ea 47 6d 3d ba ee 9b bd db ea 5a bd
       -0.038534544 0.05792991 -0.07613893 -0.053446632
000080 ac 75 f9 bc 14 be 88 3d 3e 52 95 3d 1f 97 19 ba
       -0.030451618 0.066768795 0.07291077 -0.00058590056
000090 b5 3f a4 3d 7d 09 d0 bc 59 73 7d bc 7f d6 d4 bc
       0.08019964 -0.02539515 -0.015469396 -0.025981186
0000a0 53 f5 79 bd 7b cd c3 bc e8 3c 80 3c 85 3b 56 3c
       -0.061024975 -0.023901692 0.015654042 0.013075714
0000b0 83 8b 01 3d af e2 cf bd 4d ff 8f 3d dd 1a 89 3c
       0.03162719 -0.10150658 0.07031117 0.016736442
0000c0 65 24 8d 3d 16 47 e9 3c 80 c0 6b 3d ea 12 95 bd
       0.06891707 0.02847628 0.05755663 -0.07278998
0000d0 dd 9b 05 bd 5e 41 5d 3d f6 53 95 bd c5 93 48 3d
       -0.032619346 0.054017417 -0.07291405 0.04896905
0000e0 76 66 98 3d 24 5d 9e 3d 6e 0e 92 bc 56 ef 9f bd
       0.07441418 0.07732609 -0.017829146 -0.078093216
0000f0 e0 a5 35 3b 8a 21 79 3d 42 1f db 3c 90 fa 98 3d
       0.0027717277 0.060823 0.026748303 0.07469666
000100 80 e4 cd bc 48 ce 84 bc 5e cc a1 3d 4c 48 6a 3d
       -0.025133371 -0.016211644 0.07900308 0.057197854
000110 f3 65 c7 bc f6 01 e8 3c 4e f1 03 3d 7a b9 3e bd
       -0.024340605 0.028321248 0.032212548 -0.046563603
000120 f4 7a 0d bb f5 6b 63 3d e1 1d 81 bd b3 7b 68 bd
       -0.0021588178 0.055522878 -0.06304527 -0.056758594
000130 f6 78 a4 bd 9c c4 6b 3c 42 29 de b9 8d 72 2c bd
       -0.08030884 0.014390137 -0.0004237388 -0.04210143
000140 f4 3e ad 3d b5 d6 ac 3d 55 c4 20 bd 86 cc af 3d
       0.08459273 0.084393896 -0.039249737 0.085839316
000150 b3 4d f4 3c 63 fd 80 bd 31 41 6b bd 66 4a 6e bd
       0.029822206 -0.0629833 -0.05743522 -0.05817642
000160 91 4e e4 bc 0f 86 3a 3d 1a 16 0e bd 98 92 83 3d
       -0.027869495 0.045538004 -0.034689046 0.06424445
000170 95 e1 20 3c f5 02 21 bc fa da 0f bd b6 47 2e bc
       0.009819408 -0.009827365 -0.03512094 -0.010637214
000180 97 48 01 bd 31 ee 80 bc 4b df de bd 8b c4 94 3c
       -0.031563368 -0.015738579 -0.108824335 0.018160125
000190 cb 92 ea 3b 97 bf 97 bd 43 65 9c bd e9 e8 14 bd
       0.0071586124 -0.0740959 -0.07636502 -0.036354933
0001a0 29 7c c7 bc 8e e1 85 3d 91 ca 9e bd 33 4c 7e bd
       -0.024351196 0.06537162 -0.0775348 -0.062084388
0001b0 ff 81 84 bd 2a cb 9c 3d d1 24 a0 bd 49 7c 8d bd
       -0.06470107 0.07655938 -0.07819522 -0.06908471
0001c0 71 86 1b 3c de c4 2a bd 86 64 1a 3c b1 6c a3 3a
       0.009492503 -0.041691653 0.009423381 0.0012468306
0001d0 69 03 b2 bb a1 96 62 3d 23 db ef 3c 5e 60 a7 bd
       -0.0054325354 0.055319432 0.029279297 -0.081726775
0001e0 84 20 8c 3d cc e6 90 3c 4b 85 24 3c 81 e5 81 3d
       0.06842139 0.017688178 0.010041545 0.063426025
0001f0 da 5b 93 3c 44 32 99 3c 2d f5 e4 3c 73 d4 1a bd
       0.017988134 0.018700726 0.02794894 -0.037800264
000200 7a 73 f5 bc 5e 7f b9 3c 02 a3 5c 3d 01 5e 1b 3d
       -0.02996229 0.022643741 0.053866394 0.037931446
000210 e9 98 98 3c 30 5c 85 bd 84 c3 8c 3d 74 fa 79 3d
       0.0186276 -0.06511724 0.06873229 0.061029866
000220 40 99 ca bb 5d c8 cc 3c 3f 93 c9 bc f2 c6 37 3d
       -0.0061828196 0.024997884 -0.024606345 0.044867463
000230 de fb 6d bd 6b 60 c3 bd 17 bb b3 3c 6e 59 98 bd
       -0.058101527 -0.09539875 0.021939797 -0.07438932
000240 9b d8 2c bd f5 79 78 3c 98 b4 7a 3c 6c 34 4f 3d
       -0.04219876 0.015165796 0.015301846 0.050587103
000250 0c fd 97 bd 64 4f ce bd b4 4c 21 bd fd 53 e9 3c
       -0.07421312 -0.10073736 -0.03937979 0.028482432
000260 3d d8 d4 bd d7 dd 48 bd 09 57 d9 bd e3 4f 46 3d
       -0.10392807 -0.049039688 -0.10612304 0.04841603
000270 8d 3e 73 3d db b7 72 bd 18 ae 8b bc d7 ef 14 3d
       0.059385825 -0.05925737 -0.017050788 0.03636154
000280 c6 d1 77 3d 09 11 a9 bd 0b 01 1f bd bb da 95 3d
       0.06050279 -0.08255202 -0.038819354 0.0731711
000290 c9 11 b3 bd 5d 95 e9 bc 66 14 b6 bc 1f f3 3c bc
       -0.087436266 -0.028513605 -0.022226524 -0.011532574
0002a0 00 37 55 3c f8 55 07 3d 52 da 76 3d 47 15 4a bd
       0.013013601 0.03304097 0.0602668 -0.049336698
0002b0 0b b1 8f 3c 97 e7 05 bd 01 ce 60 3d b7 56 be 3d
       0.017540475 -0.032691564 0.05488396 0.09293883
0002c0 94 f2 91 bd d6 60 ba bc 68 14 47 bc 41 d7 8e bd
       -0.07126346 -0.022751253 -0.012150861 -0.0697465
0002d0 09 a2 93 bd 64 6b 53 bd 2e 23 8b 3d 60 72 bc 3d
       -0.0720864 -0.051616088 0.06793819 0.09201503
0002e0 d3 15 21 bd 21 c5 b4 bc 21 8a 33 3d d5 17 6c 3d
       -0.039327454 -0.022066655 0.043832902 0.057639915
0002f0 6f f1 05 3d 4a b0 b4 bd b2 74 a8 bd cb 6a a7 bd
       0.032700952 -0.08822687 -0.08225383 -0.08174666
000300 f2 a4 af 3d b6 25 08 3d da 5a 54 3d 1d ca 14 3d
       0.08576383 0.03323909 0.051844455 0.036325563
000310 c0 e3 88 bd e6 f7 9c 3d 1c 5c a1 3c e5 18 a4 bd
       -0.06684065 0.076644704 0.019697241 -0.08012561
000320 a1 81 95 bd ab f9 50 bd 56 b2 ab bd 60 36 4c 3d
       -0.073001154 -0.051019352 -0.08383624 0.049856544
000330 aa 24 f1 3d 6a 2d 13 3b b1 b0 5b bd b9 d2 a7 bd
       0.11774571 0.0022457489 -0.053635303 -0.08194489
000340 75 da 9d bd 30 fe b7 bd f3 b1 15 3d 38 82 89 3d
       -0.07707683 -0.08984029 0.03654666 0.067142904
000350 42 c7 c2 3b 3c 70 8c bd a9 19 87 3c 7a 16 b6 3c
       0.0059441635 -0.068573445 0.016491728 0.022227515
000360 96 56 b4 3b df fd 52 bd 71 49 3f 3d b7 ef 44 3d
       0.005503486 -0.05151164 0.0467009 0.048080172
000370 9a 58 d6 3c 16 94 8d 3d ca f5 8b bd 5b 6e bb bc
       0.026165295 0.06913011 -0.0683399 -0.02287977
000380 5c fa 8f 3b e3 8a af bd 97 c6 f7 ba a3 b5 1a bc
       0.004393859 -0.085714124 -0.0018903789 -0.00944272
000390 9d 6c 62 3d e2 94 88 bb 1a 1b 41 bd eb 30 8b 3d
       0.055279363 -0.004168139 -0.047144987 0.0679644
0003a0 ea 2c 5c 3d 0f 81 1a bd 1e 22 a2 bd 09 16 95 bd
       0.05375377 -0.037720736 -0.079166636 -0.072795935
0003b0 7b 2b 7c 3d 0c ef 44 bd a9 da 11 3d 9c 38 1a 3d
       0.061564904 -0.048079535 0.03560892 0.037651643
0003c0 f9 c8 32 bd 22 60 37 3d b4 51 9b 3d 8d 9a d7 bc
       -0.043648694 0.044769414 0.07583943 -0.026318813
0003d0 ac f8 82 3d bf ab 17 3d ef 17 0d 3d 54 fb 88 3d
       0.06395087 0.037029024 0.034446653 0.06688562
0003e0 cb bd d1 bd 76 84 a7 3d 59 9a 80 3d c4 2a 80 bd
       -0.10241278 0.08179562 0.062794395 -0.06258157
0003f0 72 cb 10 bd 9e d7 9d bd 84 2d 65 3d 79 37 17 3d
       -0.03535027 -0.07707141 0.05595161 0.036918137

fc2.bias f4 [128]
000000 18 a0 f5 bc 3d b2 68 3d 7c e8 83 bd 45 d6 67 3d
       -0.029983565 0.056810606 -0.06440827 0.056600828
000010 f3 b3 9e bd 43 73 48 3d 73 e3 30 bd 1f ce 99 bd
       -0.07749166 0.048938047 -0.043185662 -0.075100176
000020 3e ae 81 bd a2 87 0a bd 6d 8e 80 3c 01 88 63 3d
       -0.06332062 -0.033820756 0.015692914 0.055549625
000030 d2 df 96 3d 3d b2 4f bc a3 f1 6f 3d bd ba 63 3c
       0.07366909 -0.012676773 0.058580052 0.013899502
000040 32 a3 3f 3d 65 10 2a bd 73 bf ee bc 66 1b 47 3d
       0.046786495 -0.04151954 -0.029144024 0.048610114
000050 03 f5 bb bd 66 dc 99 3d 75 ce f8 bc b8 c3 3b 3d
       -0.09177592 0.07512741 -0.030371884 0.04584095
000060 26 5e a1 ba ce 86 d8 3c 1a 55 9d 3d b6 5c 52 3d
       -0.0012311384 0.026431467 0.076822475 0.051357947
000070 c5 5c a2 bd 22 46 89 3d 77 da 11 3d 90 82 03 3d
       -0.07927851 0.0670283 0.035608735 0.032106936
000080 57 a1 66 bc 15 2e 3c 3d 09 6f 4b bd eb 9e 1d 3d
       -0.014076552 0.045942385 -0.04966644 0.038481634
000090 d2 97 6b bd 02 20 5b 3c e8 2e 0b bd 85 df 1a bc
       -0.057517834 0.0133743305 -0.03398028 -0.009452705
0000a0 0e 29 41 3d 6b 9e 9f 3b 7f d8 96 bd 90 a3 3a 3c
       0.047158293 0.00487118 -0.07365512 0.011391535
0000b0 a5 f7 87 bd f4 14 00 bc dd 15 97 3c e6 41 f2 3b
       -0.06639031 -0.007817496 0.018443042 0.0073931096
0000c0 af 1a 3a bd fe f2 b0 3c 69 dd 1a 3d b6 6a 8d 3d
       -0.045435604 0.021600243 0.03780881 0.06905119
0000d0 03 ad 84 3d 68 2a 23 bd a6 eb 9f bc ff c5 3a 3d
       0.06478312 -0.039835364 -0.019521546 0.04559898
0000e0 93 12 42 3d b9 5f b4 bd 80 a2 b1 bd 19 61 a8 bd
       0.047380995 -0.0880732 -0.086735725 -0.08221645
0000f0 39 a1 06 bd bd 79 27 bd 3b a5 01 bd 7a b9 3a 3d
       -0.032868598 -0.040887583 -0.031651717 0.04558704
000100 00 07 71 3d 50 1d 97 3d 2e 78 9b bd f2 b6 34 3d
       0.058844566 0.07378638 -0.07591282 0.044119783
000110 e5 7f 85 bb c4 d9 50 3d 8c 2e b6 3d 89 47 8c bd
       -0.004074084 0.050988927 0.08895597 -0.06849582
000120 db 07 41 bc 8b 07 ab bd 0a ab 09 3d 6f b8 84 bd
       -0.011781658 -0.08351048 0.03361038 -0.064804904
000130 29 f2 7a 3d 92 d3 12 bd e0 80 a4 3a 9c a0 6c bc
       0.0612661 -0.0358463 0.0012550615 -0.014442589
000140 58 a6 b8 bc a7 22 fd bc 7a 49 d1 bc 0f bb 83 3c
       -0.022540256 -0.030900313 -0.025547732 0.016080407
000150 76 76 ff bc 47 a9 3e 3d 21 7c 52 3d a8 b3 4e bd
       -0.031184416 0.046548154 0.05138791 -0.050464302
000160 49 03 de bc d6 b7 a9 b9 2a f9 0e 3d 36 1d bc 3c
       -0.027101176 -0.0003237116 0.03490559 0.022963148
000170 b4 a1 07 3d 23 4d bd 3d 61 b3 0a bd b8 45 1b 3d
       0.033113196 0.09243228 -0.033862475 0.037908286
000180 e1 38 ce 3c bc 7b b3 bd 37 ca 6f bd 76 40 1c 3d
       0.025173606 -0.08763835 -0.058542456 0.038147412
000190 d1 b0 42 3d 26 b2 8c 3d 22 f1 95 3d 47 b8 8d bd
       0.047531907 0.068699166 0.07321383 -0.06919914
0001a0 8a 84 8e bd c7 87 50 bd 1c 01 1f 3d 23 85 52 bd
       -0.069588736 -0.050910737 0.038819417 -0.0513965
0001b0 d6 11 58 3d 7d f9 a4 3d 72 0f 86 3b 8b f4 3a bd
       0.052751385 0.080553986 0.0040911967 -0.04564337
0001c0 81 26 a2 3d f9 a1 fb bc e3 1e 9a bc c3 ab 35 bd
       0.079175 -0.030716883 -0.018813556 -0.044353258
0001d0 11 bf 84 3d da e3 01 3d 61 a7 05 bd 6c 32 a0 3c
       0.064817555 0.031711437 -0.032630328 0.019555293
0001e0 49 1d 01 3d b2 55 9d bc 07 a0 9a 3c 32 f0 2e bc
       0.03152207 -0.019205902 0.018875135 -0.010677384
0001f0 e3 47 a7 bd 3b ae 4a 3c 16 7f 9e 3d 79 24 d7 3c
       -0.08168008 0.012370641 0.077390835 0.026262509

fc3.weight f4 [2, 128]
000000 a2 dd 1d bd b7 47 a7 bd 7a e8 ab bd 35 89 b9 bc
       -0.038541444 -0.081679754 -0.08393951 -0.022648433
000010 a8 9a 87 3d 89 aa e6 bd e3 4e 08 3e 3f 69 aa 3d
       0.06621295 -0.11262996 0.13311343 0.08320855
000020 0d 65 d7 3c a5 6a 83 3d 4f f4 ba bd 1b b2 12 bb
       0.026293302 0.06416825 -0.091286294 -0.002238399
000030 4c 2f 6d 3d a3 4e 01 bd 52 1b cb bd 9b ce 97 3d
       0.057906434 -0.031569134 -0.0991732 0.07412454
000040 94 fb b2 bd 72 61 83 3d 73 97 ac bc ef 3c 25 3d
       -0.08739391 0.064150706 -0.02106831 0.040341314
000050 fe c5 e7 3c 76 6e 96 3d 6d 68 5a 3d 21 aa bd 3c
       0.028292652 0.073452875 0.053322244 0.023152413
000060 5a 03 b8 bc f4 3b 83 3d af 03 f1 3d 9f a2 03 bd
       -0.022462536 0.064079195 0.11768281 -0.03213751
000070 d9 c3 7e bd 3a b9 b4 3d 8c 0a ba bd 3b ac af bd
       -0.062198494 0.08824392 -0.09084043 -0.08577772
000080 75 25 a5 bd 60 4d 64 bd 09 60 92 bd 4d 66 e2 bd
       -0.08063785 -0.055737853 -0.071472235 -0.110546686
000090 eb e0 c1 bd ce e6 88 3d cd 6c e6 3d 77 29 4b bd
       -0.09466728 0.066846475 0.11251221 -0.04960009
0000a0 b2 82 02 3c 5a 79 91 3d 0c 3e 0f bd c7 7e c6 bd
       0.0079657305 0.07103224 -0.034971282 -0.096921496
0000b0 eb 76 da ba 36 b5 01 3e 57 ec 07 bc 7f 41 a1 bd
       -0.001666752 0.12666783 -0.008296094 -0.078738205
0000c0 da e5 a6 bd dc 1c 23 3b b8 21 3d 3d 89 f0 28 3d
       -0.081493095 0.0024889028 0.046174735 0.041245017
0000d0 6e a9 68 3d ea 9d ca 3d 41 37 40 3d e4 cb 73 bc
       0.056802206 0.09893401 0.046927694 -0.014880154
0000e0 b0 7b 03 3d 96 cf 2c 3d 37 46 10 3d 14 75 69 bd
       0.03210038 0.042190157 0.035223212 -0.05699642
0000f0 cf 27 0e be 3a f5 57 3d 5a 33 c0 bd 88 e0 1f bd
       -0.13882373 0.0527241 -0.093847945 -0.03903249
000100 c7 ea 87 bc 60 8e 13 3c 00 b6 a6 3d 12 2a 67 3d
       -0.016591443 0.009006113 0.081401825 0.056436606
000110 f6 8f f1 3d ca 20 8b 3d 6c af ab bd 76 a3 16 bd
       0.117950365 0.067933634 -0.083830684 -0.036776982
000120 57 95 92 3d 3f ac 40 3d 79 91 c6 bd ba 53 ca 3d
       0.071573906 0.047039267 -0.096957155 0.09879251
000130 f1 49 64 bc a9 bd db bd 28 23 d3 3d 51 82 27 bd
       -0.013933645 -0.10729534 0.1030944 -0.040895764
000140 b1 30 df 3d 52 06 c9 3d a5 3c 88 3c 67 f7 78 bd
       0.10897959 0.09815659 0.01663048 -0.060782816
000150 d5 bb ef bc c0 85 87 bd de 55 e7 bd b9 28 a0 bd
       -0.02926437 -0.06617308 -0.11295675 -0.07820267
000160 be 74 a7 bd 3f 21 a2 bd 27 2f ea bd 22 6c a4 3d
       -0.08176564 -0.079164974 -0.11434775 0.08028437
000170 90 43 58 bd 11 45 c7 bb b7 f1 5e bd 05 26 03 3e
       -0.052798808 -0.0060812314 -0.054429736 0.12807472
000180 72 b8 54 bd cc a1 68 3d 03 e3 4c 3d 1a 6b 05 be
       -0.051933713 0.056794927 0.050021183 -0.13029137
000190 21 e2 14 bd ef 2e 5d bd 0d 76 f3 3d 99 49 45 3c
       -0.036348466 -0.053999837 0.11887751 0.012041473
0001a0 d1 19 f4 3d 6f 42 c3 bd 89 33 cd bd fe 42 b3 3d
       0.119189866 -0.095341556 -0.10019595 0.08753012
0001b0 e1 66 ab 3d 6e 27 4b 3d 61 2b 3d 3d 4b 9b 1e bd
       0.08369232 0.04959815 0.046183947 -0.038722318
0001c0 62 8d 61 3b 86 02 06 bd 2d b0 13 bd 9d b0 8a bd
       0.0034416546 -0.03271725 -0.036056686 -0.067719676
0001d0 39 7e ee 3c 19 33 0c be 09 40 96 bd c6 20 ed 3d
       0.029112922 -0.13691367 -0.073364325 0.11578517
0001e0 06 53 03 3d fb 6b 20 3d c5 23 47 bd 69 db 88 bd
       0.0320616 0.03916548 -0.048618097 -0.06682474
0001f0 67 5d 6d bd b8 64 13 3d b8 77 a3 bd 19 f4 00 3e
       -0.057950404 0.035984725 -0.07981819 0.12593116
000200 74 10 53 bd 67 a5 59 3c c9 ee a6 3d bb 8e cd bd
       -0.051529363 0.013284064 0.081510134 -0.10036989
000210 4a ca e8 bd 69 a0 d9 3c 2a 96 62 bc 9b 96 81 bd
       -0.113667086 0.026565747 -0.013829747 -0.06327554
000220 7c 80 99 bd 6e 69 79 bd 5c 8c 02 3d c2 92 c1 3d
       -0.074952096 -0.06089156 0.03187214 0.0945182
000230 12 7a 07 bd 24 84 53 3d ad 6e ad 3d 8c c0 02 be
       -0.0330754 0.05163969 0.08468375 -0.12768763
000240 d6 35 d3 3c b3 0b b5 bd cf 91 51 bd 85 4c 63 bd
       0.025782507 -0.08840122 -0.051164445 -0.055492897
000250 31 51 5b bd c6 4f b1 3b ef 6f b7 bd be 2e c5 3d
       -0.053544227 0.005411121 -0.089568965 0.09628056
000260 92 36 64 3d 97 61 ea bc f6 9b 43 bb ee d4 f1 3d
       0.055716105 -0.028610988 -0.0029847599 0.11808191
000270 73 03 99 3d 74 4d 3d bd ec 97 ac 3d 27 cb e8 3d
       0.07471361 -0.046216443 0.08427414 0.11366873
000280 a6 ac a4 3d 85 38 b7 bd 84 8b 99 3d 2e 59 2f 3c
       0.080407426 -0.08946327 0.074973136 0.010702414
000290 b1 17 bd 3d 9d f8 da 3c 4f 3a f7 bd e5 27 9b 3c
       0.092330344 0.026729876 -0.12071668 0.018939922
0002a0 88 c9 8b 3d f8 c0 a1 3c bf ab 24 3d a0 6e 03 bd
       0.068255484 0.019745335 0.040202852 -0.032087922
0002b0 a9 12 42 bd 9f c7 01 bd 5f c5 d0 bd 88 ba 04 3e
       -0.047381077 -0.031684514 -0.101938955 0.12961781
0002c0 34 2b d1 3d 41 fc bf 3d ef 50 8b 3d 39 7e 39 bd
       0.102133185 0.093742855 0.06802546 -0.04528639
0002d0 30 1f a5 bd 1a 7a ca bd f3 e3 3a bd 7f d7 85 bd
       -0.08062589 -0.0988657 -0.045627546 -0.06535243
0002e0 0d 80 cf bd 3b 1c 93 bd 58 ad 65 bd fe c2 aa 3d
       -0.101318456 -0.07183119 -0.056073517 0.08337973
0002f0 91 32 d0 3d de ac 8a bd 84 29 ed 3d 92 be ab 3d
       0.10165895 -0.06771253 0.11580184 0.08385958
000300 d9 d4 f8 bd 54 f7 09 3d ef 03 2c bd fb 73 ca bd
       -0.121499725 0.033683136 -0.04199594 -0.09885403
000310 be a8 8a bd 63 b0 58 bd e1 8c b9 3d 0c c8 ba bd
       -0.06770466 -0.05290259 0.09060074 -0.09120187
000320 34 92 6c 3d 95 72 34 bc 34 60 d3 bc 96 ae 4a bd
       0.057756618 -0.011013647 -0.02580271 -0.049482904
000330 07 e1 21 bd 5c e7 fc 3d 9c f9 cc bd a8 62 d0 3d
       -0.039521243 0.12348816 -0.10008547 0.10175067
000340 79 74 9b bd 82 5b 98 3c d7 26 2f bd a6 9b 30 3d
       -0.07590575 0.018598322 -0.04276165 0.043117188
000350 4f 7a e5 bd 31 76 d1 3d 21 2c f6 3c 47 06 44 3c
       -0.11204969 0.10227621 0.03005034 0.011964387
000360 85 f3 b7 3d 7f 5a ce 3c 36 65 d1 3c 60 1d 07 bc
       0.089819945 0.025189636 0.025560956 -0.00824675
000370 4b 59 b6 3c 6e a7 96 3d e9 fb b0 3d 0b 38 e4 bd
       0.022259375 0.073561534 0.08641798 -0.11143502
000380 d9 82 49 3d 6f ca a7 bd cd cd 02 be ef 6e f3 3d
       0.04919705 -0.08192908 -0.1277382 0.11886393
000390 83 21 73 3d 1f c3 5d bd 5e a4 d7 bc 9e 61 bd 3d
       0.05935813 -0.05414116 -0.026323494 0.092471346
0003a0 b2 d6 a6 bd c0 ee 96 3d e7 a9 90 3d 6c c9 2c bc
       -0.08146419 0.07369757 0.07063656 -0.01054607
0003b0 fb b6 6b bd 65 a1 45 bd 5a 73 e2 bd cf 73 bf 3d
       -0.05754755 -0.04824962 -0.11057158 0.093482606
0003c0 b2 0c b0 bd 6a 21 cd 3d 72 c6 b1 3d 55 07 a9 3c
       -0.085961714 0.10016139 0.086804286 0.020633379
0003d0 18 d5 fa 3b 51 cc a5 bc ff 0e d3 3c b1 f7 3f bd
       0.0076547973 -0.020239027 0.025763987 -0.046867076
0003e0 fc 1d ab 3d d9 5d c3 bd 37 74 b1 bd 68 3d c4 bd
       0.083553284 -0.095393844 -0.08664744 -0.09582025
0003f0 3d b3 bb 3d 5c 79 97 bd 97 f6 4d bb 64 ca f4 bc
       0.09165046 -0.07396194 -0.0031427497 -0.029881664

fc3.bias f4 [2]
000000 93 5f 28 bd bc fc f1 3c
       -0.04110677 0.029539458
