checkpoints/reinforce_cartpole/value_final.pth (torch, 72133 bytes, 5 tensors)

fc1.weight f4 [128, 4]
0	0x3e0bb858	0.1364454
1	0xbe1e869d	-0.15481038
2	0xbe1ffcea	-0.15623823
3	0x3ed1a6a5	0.40947452
4	0x3e1e78d1	0.15475775
5	0x3e6ba88c	0.23013514
6	0xbd19b8a4	-0.037529603
7	0x3e84a3bd	0.25906172
8	0x3d891744	0.06693891
9	0xbe87397d	-0.26411048
10	0x3e08e25b	0.13367598
11	0x3e39e194	0.18152457
12	0x3e6b3f11	0.22973277
13	0x3e1ca52d	0.15297385
14	0x3ee1e499	0.4411972
15	0x3c29c17b	0.010361071
16	0x3ed9a357	0.4250743
17	0xbe814ccf	-0.25253913
18	0xbe406cae	-0.18791458
19	0x3ebb2ae2	0.36556154
20	0xbe6d8bfb	-0.2319793
21	0x3ed7f3c0	0.42178154
22	0x3eea618d	0.4577755
23	0xbdc18981	-0.09450055
24	0x3d5cd2ef	0.0539121
25	0xbe8b7b7f	-0.27242658
26	0x3ebacaa2	0.36482722
27	0xbecf1362	-0.40444475
28	0xbdc91189	-0.09817798
29	0x3b89224b	0.0041849962
30	0xbea9344a	-0.33047706
31	0x3ecd304d	0.40075913
32	0x3d958347	0.0730043
33	0xbed6d0b5	-0.41956106
34	0x3ce76ef1	0.028251143
35	0x3e0bac09	0.13639845
36	0xbd9a93ed	-0.07547746
37	0xbdb72cf0	-0.08944118
38	0xbea74240	-0.32667732
39	0xbeb118a6	-0.34589118
40	0xbeb1c8f3	-0.34723625
41	0x3d52ffb8	0.051513404
42	0xbdb749b0	-0.08949602
43	0xbd90e315	-0.070745625
44	0xbe4465ea	-0.19179502
45	0x3ea8d61f	0.3297586
46	0x3df35ca0	0.11882901
47	0xbd66f959	-0.05639014
48	0xbe944c77	-0.28964588
49	0xbe1b0d16	-0.1514171
50	0x3ef728b9	0.48273256
51	0x3e5c8d03	0.21538167
52	0xbdfa61b2	-0.12225665
53	0x3e8dca47	0.27693388
54	0x3ebf8d2d	0.37412396
55	0xbecc54dc	-0.39908493
56	0x3ebd2bcd	0.3694748
57	0xbe0b4877	-0.13601862
58	0x3ef0bfdd	0.4702138
59	0x3e27f251	0.1640103
60	0xbe99001e	-0.29882902
61	0xbeb7ea27	-0.35920832
62	0x3d3eec9a	0.04661236
63	0x3e805b0c	0.25069463
64	0xbeb530c3	-0.35388765
65	0xbeb5a808	-0.3547976
66	0xbee47911	-0.44623616
67	0xbdd15910	-0.102220654
68	0x3e9b0dc0	0.30283928
69	0x3e7489e9	0.23880734
70	0x3d1a4a13	0.0376683
71	0xbe3c2988	-0.18375218
72	0xbd61e7e2	-0.05515278
73	0xbead77b2	-0.33880383
74	0xbe938a29	-0.28816345
75	0x3e115f5f	0.14196537
76	0x3ed0e088	0.40796304
77	0xbec13aec	-0.37740266
78	0xbef80430	-0.48440695
79	0xbe7c66fb	-0.24648659
80	0x3dc44908	0.09584242
81	0xbe6e3744	-0.2326327
82	0xbec05366	-0.37563628
83	0x3e16c565	0.14723738
84	0x3ed05e8a	0.40697128
85	0x3ec4dfd5	0.3845202
86	0xbe5df6db	-0.21676199
87	0xbea34635	-0.318895
88	0xbe27ee61	-0.16399528
89	0x3e63f4cb	0.2226135
90	0x3e3b782d	0.18307562
91	0x3e8e37dc	0.27776992
92	0x3e0174de	0.12642238
93	0x3ea6e45e	0.32596105
94	0x3e3104fa	0.17287055
95	0xbcc1e767	-0.023669912
96	0xbe897f2f	-0.26854846
97	0x3ec3f9c3	0.3827649
98	0xbeba50e0	-0.36389828
99	0xbe947205	-0.2899324
100	0x3eb7923e	0.3585376
101	0x3eef8aa7	0.4678547
102	0xbe161d29	-0.14659561
103	0x3ec352cb	0.38149104
104	0x3e0a3212	0.13495663
105	0xbe5d8433	-0.21632461
106	0x3e3d82b2	0.18506888
107	0xbe808b9e	-0.2510652
108	0xbe88569b	-0.26628575
109	0x3e6593eb	0.22419707
110	0x3ea9e168	0.33179784
111	0x3e351975	0.17685492
112	0x3ea966d1	0.33086255
113	0x3ee58a17	0.44831917
114	0xbe8dca11	-0.27693227
115	0xbeb16555	-0.34647623
116	0x3eb09926	0.34491843
117	0xbe5988b1	-0.2124355
118	0x3ec8b75b	0.3920239
119	0xbd652f93	-0.055953573
120	0x3ed4d5f7	0.41569492
121	0xbebb3e9c	-0.36571205
122	0xbee846f9	-0.45366648
123	0x3d7c2e56	0.061567627
124	0x3e87ec58	0.26547503
125	0xbe13478d	-0.14382763
126	0xbef8380d	-0.48480263
127	0x3e3475ca	0.17623058
128	0x3ed85671	0.4225345
129	0xbdbc5929	-0.091966935
130	0xbedbc945	-0.42926994
131	0xbe87a568	-0.26493382
132	0xbeedabe3	-0.46420202
133	0x3dfced80	0.12349987
134	0x3d9a4f76	0.07534687
135	0x3cbeba9b	0.02328234
136	0x3db029f8	0.08601755
137	0xbe4ed3c9	-0.20197977
138	0x3eef95ad	0.4679388
139	0x3dd1deab	0.10247549
140	0x3dd60a79	0.10451216
141	0x3e89c4ad	0.26907864
142	0x3ec69dcc	0.38792264
143	0x3eb6d3d9	0.35708502
144	0xbdeee743	-0.116652034
145	0xbd13c902	-0.036080368
146	0xbea749d9	-0.3267353
147	0x3ec0e13c	0.3767184
148	0xbe9631b1	-0.29334787
149	0x3c8fee37	0.017569644
150	0xbed09e09	-0.4074557
151	0xbe8a5a73	-0.27022132
152	0xbe4f279c	-0.20229954
153	0xbd79a53b	-0.06094859
154	0x3ec8b27c	0.39198673
155	0xbed33ad0	-0.41255808
156	0x3e34bf3d	0.17651077
157	0xbeeb5c54	-0.45968878
158	0x3eb05144	0.34437
159	0x3cb91768	0.022594169
160	0xbe9e1e6e	-0.3088259
161	0xbedba49c	-0.42899024
162	0xbd2a24df	-0.04153907
163	0x3e8f298a	0.2796138
164	0x3e3d18ea	0.18466535
165	0x3ec24ea5	0.37950626
166	0xbb5acbec	-0.0033385707
167	0x3eb29aaa	0.34883624
168	0x3e8618dc	0.2619084
169	0x3d642b9a	0.055705644
170	0x3efcb173	0.49354133
171	0x3eb2decd	0.34935609
172	0x3e936e9e	0.28795332
173	0x3e4e3eea	0.20141187
174	0x37efcf93	2.858768e-05
175	0xbe5bc58b	-0.21462075
176	0xbdc365b7	-0.09540885
177	0x3dbb788d	0.091538526
178	0x3eeb2746	0.459284
179	0x3eefc093	0.4682661
180	0xbeb64d47	-0.35605833
181	0x3e991aa4	0.29903138
182	0x3debea6c	0.11519322
183	0x3ec6e3c3	0.38845643
184	0xbee4a1e7	-0.44654772
185	0x3e93ef8e	0.28893703
186	0xbe4cc03d	-0.19995208
187	0x3ee8f7d8	0.4550159
188	0x3e8efce5	0.27927318
189	0xbe1f4d89	-0.15556921
190	0x3e31b2ea	0.17353407
191	0xbd2ab464	-0.04167594
192	0xbda449e1	-0.08021904
193	0x3ea07bc7	0.31344435
194	0x3eb7a787	0.3587
195	0x3e4cb15b	0.1998953
196	0xbe24ba2e	-0.16086647
197	0xbe4bf0c8	-0.1991607
198	0x3dec6697	0.11543005
199	0xbe7ba309	-0.24573912
200	0x3eb29b41	0.34884074
201	0xbeb1399d	-0.34614268
202	0x3dcf8dfb	0.101345025
203	0x3dbf5846	0.09343009
204	0x3e4b7da9	0.19872154
205	0xbe74bc34	-0.23899919
206	0xbeab5437	-0.33462688
207	0xbd364ad2	-0.044504948
208	0xbe8abf6b	-0.27099165
209	0x3df8360f	0.12119686
210	0x3e67f26a	0.22651067
211	0xbe77190a	-0.24130645
212	0x3efd3e3f	0.49461553
213	0xbe92ded6	-0.28685635
214	0x3def6767	0.11689644
215	0x3ea210dd	0.3165349
216	0x3edcb539	0.43107012
217	0xbe402593	-0.18764333
218	0xbd17850d	-0.03699212
219	0xbcf3147a	-0.02967285
220	0xbe4168a1	-0.18887569
221	0x3eb70a26	0.3574993
222	0xbe844fb8	-0.2584207
223	0x3ed4fddb	0.41599926
224	0x3e98734d	0.29775468
225	0x3ea8afa2	0.32946497
226	0xbe8b6d3a	-0.2723177
227	0xbe3c0d03	-0.18364339
228	0xbf009268	-0.502234
229	0x3e87831d	0.2646722
230	0xbe8c9f9d	-0.27465525
231	0x3e6163ec	0.22010773
232	0x3e8915d8	0.26774478
233	0x3c42e8c8	0.01189632
234	0x3ebbe29f	0.36696336
235	0x3de340a6	0.11096315
236	0x3e0b6d40	0.13615894
237	0xbe3f4d8a	-0.18681923
238	0xbeec4541	-0.46146587
239	0xbe651e46	-0.2237483
240	0xbe4bdbdd	-0.1990809
241	0x3ed5db6a	0.41768962
242	0x3ea0a261	0.31373885
243	0x3e86992e	0.26288742
244	0x3ebf435c	0.3735608
245	0xbde02d18	-0.10946101
246	0xbe709ae1	-0.23496582
247	0x3e8818d7	0.2658145
248	0x3eb93441	0.3617268
249	0xbe35e6a2	-0.1776376
250	0xbe2c9707	-0.16854487
251	0xbe7cf362	-0.24702218
252	0x3da33c65	0.07970504
253	0xbe848f3e	-0.25890535
254	0xbee5bb5d	-0.4486951
255	0x3ed6e7b2	0.41973644

fc1.bias f4 [128]
0	0xbe781707	-0.24227534
1	0x3f073af5	0.52824336
2	0x3ef041f9	0.46925333
3	0x3eb6120b	0.3556064
4	0x3e3ab093	0.1823142
5	0xbe93fd05	-0.28903976
6	0x3ec6a74f	0.3879952
7	0x3e289447	0.16462813
8	0x3ea03a1f	0.31294343
9	0xbe9edce4	-0.310279
10	0x3e3f0c92	0.18657139
11	0x3e387c6e	0.18016216
12	0xbec3ec20	-0.38266087
13	0x3e8f87a4	0.28033173
14	0x3f16d7f3	0.5892326
15	0x3f0e4eae	0.55588806
16	0x3ef396f9	0.4757612
17	0xbe97fed0	-0.29686594
18	0xbedf0a6a	-0.43562633
19	0x3e8aee5f	0.27134988
20	0xbecce02f	-0.40014789
21	0xbed018fb	-0.4064406
22	0x3ea8f2b6	0.32997674
23	0x3e94cdcc	0.2906326
24	0xbef69448	-0.48160005
25	0xbf0ef20c	-0.55838084
26	0xbe342164	-0.17590863
27	0xbe610f66	-0.2197853
28	0xbe9105ff	-0.28324887
29	0xbeca4efb	-0.39513382
30	0xbf092a80	-0.53580475
31	0x3e08efbc	0.13372701
32	0xbf057d4e	-0.52144325
33	0x3ecca8d7	0.39972565
34	0xbeccdcd4	-0.40012228
35	0x3e5742d3	0.21021585
36	0x3e714b62	0.23563913
37	0xbec817ca	-0.3908065
38	0xbeeff465	-0.46866146
39	0xbe80a11d	-0.2512292
40	0x3c8c3a0e	0.017117526
41	0x3e5d15d4	0.21590358
42	0xbebb5682	-0.36589438
43	0x3e8b0c8b	0.27158007
44	0xbf06a291	-0.52591807
45	0x3f178cc4	0.59199166
46	0x3ed93bd1	0.4242845
47	0x3ed1e84c	0.4099754
48	0x3ee2a2eb	0.44264922
49	0x3e6c3b47	0.23069488
50	0x3ef65f8a	0.48119766
51	0xbedc8a94	-0.43074477
52	0x3f09ca43	0.5382425
53	0xbdb3e16a	-0.08783229
54	0x3e2f4ff8	0.1712035
55	0xbf02acb9	-0.51044804
56	0xbe294d2d	-0.16533346
57	0x3e524c72	0.20536974
58	0xbea347e5	-0.3189079
59	0x3e7b48dd	0.24539514
60	0x3e6db74b	0.23214452
61	0xbf0b9331	-0.5452147
62	0xbee79c51	-0.45236447
63	0x3efdc6be	0.4956569
64	0x3e4b52e8	0.19855845
65	0xbeb7a8ac	-0.35870874
66	0xbed82605	-0.42216507
67	0xbeb1ed59	-0.34751394
68	0xbed0ca75	-0.40779462
69	0x3f1d0ce8	0.6134782
70	0xbe86bdf0	-0.26316786
71	0xbf02934b	-0.51006
72	0xbf0a6362	-0.54057896
73	0x3e13f504	0.14448935
74	0x3e415c80	0.18882942
75	0x3ea28385	0.31740966
76	0x3dfd8ece	0.123807535
77	0x3f1ab18f	0.6042718
78	0xbf120c92	-0.5705043
79	0x3e319f2d	0.17345877
80	0x3f069462	0.52570164
81	0xbec33971	-0.38129762
82	0xbeddff9a	-0.4335907
83	0x3e93f356	0.28896588
84	0xbeb6f9cf	-0.35737464
85	0xbee9d146	-0.45667475
86	0xbe894c22	-0.26815897
87	0xbf11e4f1	-0.5698996
88	0x3e522fbc	0.20526022
89	0x3e54cc77	0.20781122
90	0xbe367405	-0.17817695
91	0xbf14316f	-0.5788793
92	0x3e59a1ca	0.21253124
93	0x3f00bb41	0.50285727
94	0x3ed813b7	0.4220254
95	0xbee39415	-0.44448915
96	0xbec27501	-0.37979892
97	0x3e876dbc	0.26450908
98	0x3f17f2a6	0.5935463
99	0x3e93395e	0.28754705
100	0xbf0a227f	-0.53958887
101	0x3ee058a2	0.4381762
102	0x3e84a05b	0.25903592
103	0x3f13f1f9	0.57791096
104	0xbe61bb88	-0.22044194
105	0xbeebe484	-0.4607278
106	0x3f0cefb0	0.55053234
107	0xbebc3fce	-0.3676743
108	0x3e5d3a42	0.21604255
109	0x3e494e7a	0.19658843
110	0xbefe71be	-0.49696153
111	0x3f1b89cb	0.6075713
112	0xbefc02bc	-0.49220836
113	0xbeb1bdee	-0.34715217
114	0xbeba00cd	-0.36328736
115	0xbe0c4710	-0.13698983
116	0xbe8e92b8	-0.27846313
117	0x3e3d7526	0.1850172
118	0x3e2c7805	0.16842659
119	0xbec86bef	-0.39144847
120	0xbe5a3d3c	-0.21312422
121	0xbf001e18	-0.5004592
122	0xbe6966e0	-0.2279315
123	0xbef8f514	-0.4862448
124	0xbef4cacf	-0.4781098
125	0x3f03ccb6	0.5148424
126	0xbec90dad	-0.39268246
127	0x3eb40091	0.35156682

fc2.weight f4 [128, 128]
0	0xbc20165c	-0.009770956
1	0x3d18470a	0.037177123
2	0x3db414bb	0.087930165
3	0x3d835ab6	0.06413786
4	0x3b135427	0.0022480579
5	0xbcdb127e	-0.026742216
6	0x3d2d5cc6	0.042324804
7	0xbc4da695	-0.012551923
8	0x3d7e5a4b	0.06209783
9	0x3cf88ce0	0.030340612
10	0x3d88eb5f	0.066855185
11	0x3db8bcd6	0.090203926
12	0xbd96d798	-0.0736534
13	0xbcd1dc07	-0.025617613
14	0x3d64a503	0.05582143
15	0x3d69fb08	0.057124168
16	0x3df7eb25	0.12105397
17	0xbe124b28	-0.14286482
18	0xbda5b8e1	-0.080919035
19	0x3dd89296	0.10574834
20	0xbd963168	-0.07333642
21	0xbdfced0c	-0.123499006
22	0x3dd1749f	0.10227322
23	0x3d5d273a	0.053992487
24	0xbd5735ae	-0.052541427
25	0xbd928063	-0.07153394
26	0xbdf8be8a	-0.121457174
27	0xbd744c4e	-0.059643082
28	0x3ba08aed	0.0048993737
29	0x3c2af0ff	0.0104334345
30	0xbde0463a	-0.10950895
31	0x3d97df1b	0.07415601
32	0xba513db6	-0.0007981913
33	0x3ce01b32	0.027356718
34	0xbcf22aa1	-0.029561343
35	0x3dcd1c30	0.10015142
36	0xbcaa8303	-0.020814424
37	0xbdaa65ad	-0.08320174
38	0x3ceb94ca	0.028757472
39	0xba55bbb9	-0.0008153278
40	0x3d70a471	0.058750574
41	0x3d6f5914	0.05843456
42	0xbc654cbe	-0.013995348
43	0x3e0003a5	0.1250139
44	0xbd925ce3	-0.07146623
45	0x3cbd5502	0.023111824
46	0x3c5486df	0.012971609
47	0x3d741213	0.05958755
48	0x3d8727de	0.06599401
49	0x3e1daae2	0.15397218
50	0x3dc3e5ae	0.09565292
51	0xbd8ea9d6	-0.069659874
52	0x3bf8cf12	0.007593044
53	0xbd9321e7	-0.07184201
54	0x3d8dfce9	0.069330044
55	0xbda9e59c	-0.08295748
56	0xbd33de26	-0.04391303
57	0x3d6d01e9	0.05786315
58	0xbd125a9b	-0.03573094
59	0x3d8c520c	0.06851587
60	0x3cb658b4	0.022259094
61	0xbd1bd2dc	-0.038042888
62	0xbda736cf	-0.08164751
63	0x3df2e548	0.11860138
64	0x3be38d80	0.0069443583
65	0xbdea6189	-0.114443846
66	0xbd9dbbc9	-0.07701833
67	0xbdda8513	-0.10669913
68	0xbe1285bb	-0.14308827
69	0x3deb5430	0.11490667
70	0xbdb28bda	-0.08718081
71	0xbce5ec40	-0.028066754
72	0xbd27f6ac	-0.04100673
73	0x3d281a11	0.041040484
74	0x3d06b0e5	0.032883544
75	0x3e0007bb	0.12502949
76	0x3e0eb13a	0.13934794
77	0x3dca56cf	0.09879839
78	0x3c8556b9	0.016276704
79	0x3dc6eac2	0.09712745
80	0x3ddf3742	0.108992115
81	0xbd34f7d9	-0.04418168
82	0xbdebb9a9	-0.11510021
83	0x3df879da	0.12132616
84	0xbdc3dc07	-0.09563451
85	0x3ca97d6c	0.020689689
86	0xbd0c7724	-0.03429331
87	0xbe09b634	-0.13448411
88	0x3d3ffd1c	0.046872243
89	0x3dc58e91	0.09646333
90	0xbd801854	-0.0625464
91	0xbd8cec96	-0.06881063
92	0xbccc96a2	-0.024974171
93	0xbc4f100d	-0.012638104
94	0x3d974e3f	0.07387971
95	0xbd32a156	-0.043610893
96	0xbcc254aa	-0.023722012
97	0x3e0460fc	0.12927622
98	0x3d620fbe	0.055190794
99	0x3db41bfb	0.08794399
100	0xbdf66dda	-0.12032671
101	0x3d0e74c0	0.03477931
102	0xbabaa256	-0.0014239054
103	0x3d6eaf9d	0.058272947
104	0xbe10c4c5	-0.14137562
105	0xbd919414	-0.07108322
106	0x3d8897b5	0.06669561
107	0xbe0be47a	-0.13661376
108	0xba78a06f	-0.00094843557
109	0x3deae6af	0.11469781
110	0xbd93dbba	-0.07219644
111	0x3b72daa7	0.0037056596
112	0xbe0a5c34	-0.13511735
113	0xb8db1518	-0.00010446663
114	0xbd70790b	-0.058709186
115	0xbc5538b3	-0.013014006
116	0xbdad6fdb	-0.084686
117	0x3df1b763	0.11802556
118	0xbd1646fe	-0.036688797
119	0xbe117390	-0.1420424
120	0xbd85d947	-0.06535583
121	0xbc90fa50	-0.017697483
122	0xbdf433e8	-0.11923963
123	0xbd423843	-0.047416937
124	0xbdb0f4d5	-0.08640448
125	0x3d5d02b1	0.053957645
126	0xbe11b49b	-0.14229052
127	0xbba2d018	-0.0049686544
128	0xbe1028ca	-0.1407806
129	0x3c1f5e23	0.009727034
130	0xbc8de822	-0.017322604
131	0x3de7bc18	0.11315173
132	0x3d6a4e56	0.057203613
133	0xbe060a63	-0.130899
134	0xbb9e2ec9	-0.0048273546
135	0x3db47ee7	0.08813267
136	0x3da75588	0.08170611
137	0xbc752168	-0.014961578
138	0x3dbb423e	0.09143494
139	0x3ddd7c23	0.10814693
140	0xbd7fcfbf	-0.06245398
141	0x3b9f8969	0.0048686755
142	0xbc5c04bf	-0.013428866
143	0x3d6078ea	0.054802813
144	0x3d73e2aa	0.059542336
145	0xbd77949d	-0.060444463
146	0xbd6b8664	-0.05750121
147	0x3e115171	0.14191224
148	0xbe0a2036	-0.1348885
149	0xbddcc8dd	-0.10780499
150	0x3df93d32	0.12169875
151	0x3d7d7905	0.06188299
152	0xbd9a1f04	-0.07525447
153	0xbdad025e	-0.08447717
154	0xbdccb630	-0.09995687
155	0xbd8c1585	-0.06840042
156	0xbd803431	-0.06259955
157	0xbdcc5c78	-0.099785745
158	0xbaedc849	-0.0018141355
159	0x3dc7cbf4	0.09755698
160	0x3bf016e7	0.007326949
161	0x3d1dc03a	0.0385134
162	0xbe086eaf	-0.13323472
163	0xbc9a513d	-0.018837566
164	0x3d8c1b51	0.06841148
165	0xbca73d29	-0.020414906
166	0xbd4d45a6	-0.05011525
167	0xbc8de665	-0.017321775
168	0x3dbbbafb	0.09166523
169	0x3dd4c69d	0.10389445
170	0x3c431838	0.01190763
171	0x3dfe54aa	0.12418492
172	0xbe13ff66	-0.14452896
173	0x3d02e6a0	0.031958222
174	0x3dcd5efb	0.10027882
175	0x3e16688b	0.14688317
176	0x3dddd09a	0.10830803
177	0x3d2efac2	0.04271961
178	0xbbabc1f8	-0.0052416287
179	0xbe0c887e	-0.13723943
180	0x3d70814a	0.05871705
181	0xbd81d19e	-0.063388094
182	0x3a3e4683	0.0007258432
183	0xbd109b91	-0.03530461
184	0xbd9ed1a7	-0.07754832
185	0x3bef7849	0.0073080403
186	0xbe183f54	-0.14867908
187	0x3cc3586e	0.023845877
188	0x3d7f1c3b	0.062282782
189	0xbdf8896d	-0.12135587
190	0xbdfb2233	-0.12262382
191	0x3d95c3aa	0.073127106
192	0xbcbada33	-0.022809124
193	0xbe016f6c	-0.1264016
194	0xbb9ae674	-0.004727179
195	0xbe1ade69	-0.15123905
196	0xbcc29c2d	-0.023756111
197	0x3e0fcc0b	0.1404268
198	0xbd494ccf	-0.049145516
199	0x3a39a102	0.0007081182
200	0xbdf84228	-0.12121993
201	0x3c7b7861	0.015348525
202	0x3ceadca9	0.028669672
203	0xbabe9662	-0.0014540667
204	0x3e074c94	0.13212806
205	0x3c97798b	0.018490573
206	0xbb874461	-0.0041280244
207	0x3d869915	0.06572167
208	0x3d63cd5d	0.05561577
209	0xbdccdb99	-0.100028224
210	0xbdbbd6b0	-0.09171808
211	0x390b336c	0.00013275229
212	0xbe07db6d	-0.13267298
213	0xbde756f8	-0.11295885
214	0x3cdf5982	0.02726436
215	0x3b6c295f	0.0036035401
216	0x3d560394	0.052249506
217	0x3e0db621	0.13839008
218	0x3bae452b	0.005318304
219	0xbddddf06	-0.10833554
220	0x3e0f7c75	0.1401232
221	0x390a94ed	0.00013216185
222	0x3e1aae7d	0.15105624
223	0xbe1a0176	-0.1503962
224	0xbddc8b3c	-0.10768744
225	0x3cdd3b93	0.027005946
226	0x3d988a4b	0.07448252
227	0xba38c034	-0.00070476835
228	0xbdbb8ce2	-0.09157731
229	0x3b262347	0.0025350617
230	0x3de1376b	0.10996898
231	0x3d646120	0.055756688
232	0xbe1b0b5a	-0.15141049
233	0xbdf0a221	-0.11749674
234	0xbb4613cf	-0.003022421
235	0xbe09cf92	-0.13458088
236	0xbcfb8657	-0.030703707
237	0x3ded0806	0.11573796
238	0xbd8cc80d	-0.06874094
239	0x3e062026	0.13098201
240	0xbd711114	-0.058854178
241	0x3b00c048	0.0019645859
242	0xbdd14a28	-0.10219222
243	0xbc71be58	-0.014754854
244	0xbe1a4122	-0.15063909
245	0x3cd473e6	0.025934171
246	0x3dc929f0	0.09822452
247	0xbd29099a	-0.041268922
248	0x3c1349a3	0.008989724
249	0xbde060a4	-0.10955933
250	0xbdefff05	-0.11718563
251	0xbd360287	-0.044436004
252	0xbce5b392	-0.028039727
253	0x3db4ef0f	0.08834659
254	0xbe19f18a	-0.15033546
255	0x3de084b1	0.10962809

fc2.bias f4 [128]
0	0x3dd2ef1d	0.102995135
1	0xbcb2df9d	-0.021835143
2	0x3e163db0	0.1467197
3	0x3bf5db25	0.0075029307
4	0x3e267706	0.16256341
5	0xbdaef840	-0.08543444
6	0x3dd6cb26	0.10487966
7	0xbe12e9de	-0.14347026
8	0x3ca860de	0.020554002
9	0x3e0dbfe9	0.13842739
10	0x3c48066a	0.0122085605
11	0xbda6d140	-0.0814538
12	0xbbfd9905	-0.0077391886
13	0x3c81871c	0.015811495
14	0x3dd471e8	0.103732884
15	0x3e15c4ce	0.14625856
16	0x3c97fecd	0.018554116
17	0xbdc76345	-0.09735731
18	0xbdde5e41	-0.10857821
19	0xbda2bf98	-0.079467
20	0x3dd5922c	0.10428271
21	0xba85634a	-0.0010176685
22	0x3d50e66a	0.05100099
23	0xbb94f99e	-0.0045463583
24	0x3db6ca1a	0.089252666
25	0x3d7edca4	0.062222138
26	0xbd8b66b1	-0.06806696
27	0x3c1022ce	0.008797361
28	0xbdb7b60f	-0.08970272
29	0x3d9411ef	0.07229983
30	0x3c18fdec	0.009337883
31	0x3e03af70	0.12859893
32	0xbca25f97	-0.019820971
33	0xbdc9e27f	-0.09857654
34	0x3e13f16b	0.14447562
35	0xbd2a3d0d	-0.04156213
36	0x3da95f07	0.08270078
37	0xbe12b71e	-0.14327666
38	0xbdd366d5	-0.10322348
39	0xbdb59821	-0.08866907
40	0xbdbc349e	-0.091897234
41	0x3daea3a6	0.08527307
42	0xbe0b3842	-0.1359568
43	0xbc074b4f	-0.008257701
44	0x3cee3147	0.029076232
45	0xbdae3b10	-0.08507359
46	0xbce9200e	-0.028457668
47	0xbe0ac861	-0.13553001
48	0xbd8fe686	-0.07026391
49	0x3e17e228	0.14832366
50	0x3bfd8eaf	0.0077379565
51	0x3c43c7dd	0.011949507
52	0x3d3dc6f7	0.046332326
53	0x3e063a79	0.13108243
54	0x3b352ea8	0.0027646217
55	0x3de7939f	0.11307453
56	0xbe0ad3be	-0.13557336
57	0xbd46db43	-0.048548948
58	0x3d858b65	0.06520728
59	0x3e1497fb	0.14511101
60	0xbe1b2375	-0.15150245
61	0xbd39e8ec	-0.045388147
62	0x3e03c230	0.12867045
63	0x3e142432	0.14466932
64	0x3e0523ec	0.13001984
65	0x3d098aff	0.033579823
66	0x3e02581c	0.12728924
67	0xbc622609	-0.013803014
68	0x3dd1b19b	0.10238954
69	0xbd85b3aa	-0.06528409
70	0xbd9a6156	-0.075380966
71	0xbcf1af59	-0.029502558
72	0x3cf96c7d	0.030447239
73	0xbce99322	-0.028512541
74	0xbc821435	-0.015878776
75	0x3dfadf1a	0.122495845
76	0x3c37bd3b	0.01121455
77	0xbd0a16d1	-0.033713166
78	0x3e05b382	0.13056758
79	0x3dbe2073	0.09283533
80	0x3c94582f	0.018108455
81	0xbe0920ac	-0.1339137
82	0xbddd350d	-0.10801134
83	0xbdeed860	-0.11662364
84	0x3ce8b98a	0.028408784
85	0xbe19cbb5	-0.15019114
86	0xbc29e126	-0.010368621
87	0x3d7d3295	0.061815817
88	0x3c11a7ea	0.0088901315
89	0x3d16588e	0.036705546
90	0x3e21566a	0.1575562
91	0xbb42c3a4	-0.0029718662
92	0x3e0198c3	0.1265593
93	0xbe1a3cf9	-0.15062322
94	0xbd414d88	-0.04719308
95	0x3e294bd7	0.16532837
96	0xbd009e6b	-0.03140108
97	0xbe11673e	-0.1419954
98	0xbd664b8e	-0.0562244
99	0x3e1fd52d	0.15608664
100	0x3ddab8c7	0.10679775
101	0x3e0f5345	0.13996609
102	0x3e1541af	0.14575838
103	0xbd3abd4a	-0.045590676
104	0x3daa36de	0.08311246
105	0xbddf7422	-0.109108225
106	0xbaefaa60	-0.0018285029
107	0x3dc9b1d4	0.09848371
108	0xbe052820	-0.13003588
109	0x3d7a2f08	0.06108001
110	0x3e0436b9	0.129115
111	0xbdf107e6	-0.11769085
112	0x3b6d4115	0.0036202122
113	0xbbe234e4	-0.0069032777
114	0x3bff0a98	0.0077832453
115	0x3db92445	0.09040121
116	0x3d92f5fc	0.07175824
117	0xbc39aa49	-0.011332103
118	0x3de57786	0.11204438
119	0xbbd97f0a	-0.0066374587
120	0xbdd15fa6	-0.102233216
121	0xbdcb850b	-0.09937485
122	0xbb559915	-0.0032592465
123	0x3b08ce20	0.0020874813
124	0xbd9e4c54	-0.07729402
125	0x3d3d4f59	0.04621825
126	0x3e172412	0.14759853
127	0xbc76d009	-0.015064248

fc3.weight f4 [1, 128]
0	0x3e8cb9cd	0.27485505
1	0x3e865ad4	0.2624117
2	0x3e60f516	0.21968493
3	0x3e8c755c	0.27433288
4	0x3e5a6c21	0.2133031
5	0xbe8633b9	-0.26211336
6	0x3e6f9064	0.23394924
7	0xbe92ae3f	-0.28648564
8	0xbe8ab4da	-0.27091104
9	0x3e425c36	0.18980488
10	0x3e63248c	0.2218191
11	0xbe707dfd	-0.2348556
12	0xbe8e6691	-0.27812627
13	0xbe8df677	-0.277271
14	0x3e9321af	0.28736636
15	0x3e89012f	0.26758716
16	0xbe7bfb27	-0.24607526
17	0xbe9c4265	-0.30519405
18	0xbe678a94	-0.22611457
19	0xbe799ed6	-0.24376997
20	0x3e5b33f7	0.21406542
21	0x3e8d9948	0.27656007
22	0x3e8e5a09	0.27803066
23	0x3e6001c9	0.21875681
24	0x3e70f103	0.23529439
25	0x3e82b37c	0.2552756
26	0xbe5560f7	-0.2083777
27	0x3e8def6a	0.2772172
28	0xbe63cb14	-0.22245437
29	0x3e91c508	0.28470635
30	0x3e6e50ab	0.2327296
31	0x3e801407	0.2501528
32	0x3e82b078	0.2552526
33	0xbe900f38	-0.2813661
34	0x3e64f39f	0.22358559
35	0xbe7a6c56	-0.2445539
36	0x3e8d7be2	0.27633578
37	0xbe980917	-0.29694435
38	0xbe4bcca7	-0.19902287
39	0xbe58c357	-0.21168266
40	0xbe5eba05	-0.21750648
41	0x3e67b122	0.22626165
42	0xbe6d22f2	-0.23157862
43	0x3e818a68	0.25300908
44	0x3e80af58	0.25133777
45	0xbe4b3194	-0.19843131
46	0xbe7201d3	-0.23633508
47	0xbe84510d	-0.25843087
48	0xbe7f0e42	-0.24907783
49	0x3e6bac8b	0.23015039
50	0x3e979086	0.2960245
51	0xbe81a6c1	-0.25322536
52	0x3e59e22f	0.21277688
53	0x3e8189e6	0.2530052
54	0xbe8ac45b	-0.27102932
55	0x3e7d6524	0.24745613
56	0xbe4d6e8a	-0.20061699
57	0xbe94fdc0	-0.29099846
58	0x3e7fef4c	0.24993628
59	0x3e838113	0.25684413
60	0xbe62180b	-0.22079484
61	0xbe961b87	-0.29317877
62	0x3e763034	0.24041826
63	0x3e6543d6	0.22389159
64	0x3e8ca43b	0.27469048
65	0x3e9cbb6a	0.30611736
66	0x3e929c4b	0.28634867
67	0x3e8699b1	0.26289132
68	0x3e62d195	0.22150262
69	0xbe9679c0	-0.29389763
70	0xbe8d4972	-0.27595097
71	0xbe57a66a	-0.21059576
72	0x3e4f8362	0.20264962
73	0x3e9d2853	0.30694827
74	0xbe7e6d6f	-0.24846433
75	0x3e6e0460	0.23243856
76	0x3e4b10d0	0.19830632
77	0xbe8dcb93	-0.27694377
78	0x3e443222	0.19159749
79	0x3e63f6d8	0.22262132
80	0xbe8c5706	-0.27410144
81	0xbe8f28a1	-0.27960685
82	0xbe678796	-0.22610316
83	0xbe50d384	-0.20393187
84	0x3e958a73	0.2920719
85	0xbe6c3207	-0.23065959
86	0xbe929686	-0.28630465
87	0x3e834964	0.2564193
88	0xbe803369	-0.25039223
89	0x3e944ea5	0.2896625
90	0x3e643eb9	0.22289552
91	0x3e8df133	0.27723083
92	0x3e89571e	0.26824278
93	0xbe7186ac	-0.2358653
94	0xbe93bfaa	-0.28857166
95	0x3e4bb866	0.19894561
96	0xbe840810	-0.257874
97	0xbe961b2c	-0.29317605
98	0xbe9ae2b7	-0.30251095
99	0x3e4ac588	0.19801915
100	0x3e9192f2	0.28432423
101	0x3e82ed19	0.25571516
102	0x3e70a52a	0.23500505
103	0xbe7310eb	-0.23736922
104	0x3e875ce2	0.2643805
105	0xbe80d3f8	-0.2516172
106	0xbe6ca1a7	-0.2310854
107	0x3e97e76a	0.29668742
108	0xbe7a9c12	-0.24473599
109	0x3e7f7575	0.2494715
110	0x3e5e505c	0.21710342
111	0xbe82208e	-0.25415462
112	0x3e6909ea	0.22757688
113	0xbe5a2636	-0.21303639
114	0xbe821ca6	-0.25412482
115	0x3e55716b	0.20844047
116	0x3e5e22b8	0.21692932
117	0xbe8e832d	-0.27834454
118	0x3e82b16e	0.25525993
119	0x3e500be0	0.2031703
120	0xbe8b4070	-0.271976
121	0xbe48c4ec	-0.1960637
122	0xbe83d35e	-0.25747198
123	0xbe777223	-0.24164633
124	0xbe916c4a	-0.2840293
125	0x3e73a6ed	0.23794146
126	0x3e82663b	0.2546862
127	0xbe985d08	-0.29758477
