CartPole/checkpoints/cartpole_act_critic/policy_net_cartpole_act_critic.pth (torch, 73001 bytes, 6 tensors)

fc1.weight f4 [128, 4]
00000000: fb06 17be 0dea 383d b28e 243f 3c46 a53f
00000010: 57f4 17bf 2b51 12bf 3fa9 d1be a044 97bf
00000020: c29f 31be f276 b4be 4a66 86bd 6f11 4bbe
00000030: 08d1 8a3d 6739 38bf 0520 02bf c9de c8bf
00000040: f28f e73d f719 d83e 75d6 b93e c5a8 bd3f
00000050: 3468 1a3e cd07 37bf 168b 4f3e 975f 7ebf
00000060: 60ca 5b3e 1f90 92bf ba9c b43e dec2 44bf
00000070: 8a07 bfbc cb8d 2cbe c279 14bf 9c3b c5bf
00000080: e67a ec3d aebc 4dbe 2313 10bf 60ed b7bf
00000090: 07d2 043d 1d70 90bf 7bda e2be 27cf b2bf
000000a0: 531d fc3d 9a97 2b3f 1cd5 703e 0497 843e
000000b0: 1931 0b3e ff23 153e 584b bc3e 20e8 1b3f
000000c0: 7dcf 8fbe d73c 283f 97e8 83be e2f4 963f
000000d0: 6a44 87bd 5af3 553f 316a ddbe bef4 71be
000000e0: d09f 12bf 2d64 11bf c19e b8be 029e 99bf
000000f0: f577 783e b869 e3be 341d bc3d 1894 c6be
00000100: 0b9c 743d 143d e7bc 4e3b a4bd 1bbc adbf
00000110: ef5d 723e 8426 84bc 6825 163f 2ca1 683f
00000120: a863 c03e bde6 a93d 24d4 243f 2fd4 b33f
00000130: 8a1e 913d 2ea8 d4be 3434 cabe 545c 86bf
00000140: adeb b73e d9df a13e cc91 15bc 88c0 be3f
00000150: 765c 80be 1aff 733b e1b5 e4be 5d81 e9bf
00000160: c730 cd3d 21f7 85bf 0e24 2b3e cf2c d9be
00000170: 0819 3f3d 8683 a1bd 3f89 4c3e 1182 2a3f
00000180: f8ce b2bc 36d6 cd3e d017 ecbd 11cf 04bd
00000190: 1f32 fe3e 6f6c 973d fa38 de3e 4dc8 a13f
000001a0: d02d 853d ce70 5e3d 0f5a dfbe 54d9 82bf
000001b0: 9f9a e0be 3938 6ebe e37e 10be 9964 a3bf
000001c0: c993 cfbc 142a 20bf 93d7 86be 5dba 9dbf
000001d0: f238 10be ef8e b83e 3ff4 3e3f ba80 ab3f
000001e0: 3ea9 d8bc c42d 4a3f 829d 0b3f 9085 ec3f
000001f0: c547 29bd 709e 6cbf c897 0dbf a052 babf
00000200: 4bd3 183e d696 5e3f 269f c43d 7347 273f
00000210: 2de9 063e 40e3 773f 79de 983e 92ad a23f
00000220: 5065 fbbd 42c3 fabe ebcd d8be 4523 c8bf
00000230: 17f3 8c3e b3c9 23bf 5218 c9be b025 c4bf
00000240: fc66 4d3e 9322 6a3f 23eb 8abb ebb1 17bf
00000250: 45c9 07be e4d5 733f bce6 0d3f 82fa e53f
00000260: d7de aebd f950 54bf 5277 00be 6393 5ebe
00000270: f4d0 243f 4703 763e aff1 193d a26d d83f
00000280: c037 f6bc f09d 6fbf 8ed0 13bf b68e bfbf
00000290: 51fa d8bd 26b8 4d3f 0a5b 883d 70e3 da3f
000002a0: 9be2 e0bd 3f7c f53d 20f0 673e 8c5e 953f
000002b0: c3ed 9e3c af80 68bd d2b7 1cbf 06fa cabf
000002c0: 5eef 7ebd ca43 7abf ae0c 8d3e bafb 33bf
000002d0: f5e4 03bf 2af1 93bd d7fd 92bd f902 84bf
000002e0: d5ed 80be 4129 35be 9e54 2cbf f1eb b9bf
000002f0: dfe7 1d3f 7709 d839 9eb7 173f 8ebd c23f
00000300: 4b32 b6be faf7 13bf 25d2 5fbe e675 adbf
00000310: a8dc 49bd 8c4c 08bf 5b27 68be d304 9ebf
00000320: 0605 9e3e d221 293f 0e2d a43e 0a5a 553f
00000330: 9cd5 1c3e 3da9 ddbe dd15 8ebe 35f5 e8bf
00000340: 37ce a03e 07c7 cf3e ab67 d23e 30ee 993f
00000350: c6e6 23be f09e 67bf aae7 c3be c38d adbf
00000360: c7b7 97be e35e 273e 2bbb d9be c868 8a3e
00000370: d578 733e 829a 38bc 80db a23e f8d1 a33f
00000380: fa98 9bbe e962 d8be d3a2 53be 55ec bcbe
00000390: 1c68 debe 6b8c 51bf 851a 7bbe f6b3 0cbf
000003a0: 3a03 bd3e 8b65 7b3e 615b 8c3d 0bd7 a53f
000003b0: 9e65 dc3e 68cb 023d 4063 203f 63d7 bd3f
000003c0: 8673 b43e 5d5d f33e f68c 543d 2627 c73f
000003d0: 5e41 0b3e 414f 8e3f 7dfb 40be 5a7c 813f
000003e0: b68f 16bd 8608 3ebf dc18 7e3c 0343 3dbf
000003f0: 66cd 90be 7431 b9be 483b 103e c63a 09bf
-0.14748757 0.045145083 0.64280236 1.2912059 -0.5935721 -0.571551 -0.40949437 -1.1817818
-0.17346099 -0.35246998 -0.06562479 -0.19830869 0.06778151 -0.7196259 -0.5083011 -1.5692989
0.11306752 0.4220731 0.3629643 1.4817129 0.15078813 -0.7149628 0.20267901 -0.9936461
0.21463919 -1.1450232 0.35275823 -0.76859844 -0.023319025 -0.16850965 -0.5799829 -1.5408816
0.115468785 -0.20091507 -0.562792 -1.4369316 0.03242686 -1.1284214 -0.44307312 -1.3969468
0.12310281 0.670282 0.23518795 0.25896466 0.13592948 0.14564513 0.36776233 0.6090107
-0.28087988 0.65717834 -0.2576339 1.1793482 -0.06604846 0.8357445 -0.4324508 -0.23628518
-0.57275105 -0.5679348 -0.3605862 -1.2001345 0.2426451 -0.44416595 0.091852576 -0.38784862
0.059719127 -0.028227367 -0.08019124 -1.357303 0.23668645 -0.016131647 0.5865083 0.9087093
0.37576032 0.08295963 0.643862 1.4049128 0.07085903 -0.4153456 -0.39492953 -1.0496926
0.35921994 0.31616095 -0.009128999 1.4902506 -0.25070542 0.003723091 -0.44670013 -1.8242604
0.10019069 -1.0466043 0.16712973 -0.42417 0.04665473 -0.07886414 0.1997423 0.66604716
-0.021827206 0.40202492 -0.115279794 -0.032424036 0.49647614 0.07393729 0.43402845 1.2639252
0.06502879 0.054306798 -0.43623397 -1.0222573 -0.43867967 -0.23263635 -0.14110903 -1.2765075
-0.025339024 -0.62564206 -0.26336345 -1.2322499 -0.14084223 0.3604655 0.7459144 1.3398659
-0.026447888 0.7897608 0.5453721 1.847826 -0.04132821 -0.92429256 -0.55309725 -1.4556465
0.14924352 0.8694891 0.09600668 0.653434 0.13174887 0.9683113 0.29857233 1.270922
-0.12275183 -0.48977095 -0.42344603 -1.5635763 0.27529213 -0.63979644 -0.39276367 -1.5324001
0.20058817 0.91459006 -0.0042394563 -0.59255856 -0.13260372 0.95248246 0.554302 1.7967074
-0.08538597 -0.82936054 -0.12545517 -0.21735911 0.6438134 0.24024688 0.037584003 1.6908457
-0.03005588 -0.9360037 -0.57740104 -1.4965427 -0.10594619 0.80359113 0.06657989 1.7100658
-0.109807216 0.11986589 0.22650194 1.1669478 0.019400483 -0.056763347 -0.6121799 -1.5857551
-0.062239997 -0.9775969 0.27548736 -0.7030598 -0.51521236 -0.07223733 -0.07177322 -1.0313407
-0.2518145 -0.17691518 -0.67316616 -1.4525129 0.6168193 0.00041205782 0.5926455 1.5214097
-0.35585245 -0.5780026 -0.21857508 -1.3551605 -0.0492827 -0.532418 -0.22671263 -1.2345222
0.30863208 0.6606723 0.32065624 0.83340514 0.1531586 -0.4329318 -0.27751055 -1.8199831
0.3140733 0.40581533 0.41094717 1.2025814 -0.16006002 -0.90476894 -0.38262683 -1.3558887
-0.29632398 0.1634479 -0.4252561 0.27033067 0.23776563 -0.011267306 0.3180809 1.2798452
-0.3039015 -0.42262962 -0.20667581 -0.36899057 -0.43438804 -0.81854886 -0.24521835 -0.549621
0.36916524 0.24550454 0.06853367 1.2956251 0.43046278 0.031932265 0.62651443 1.4831356
0.35244387 0.47532168 0.051892243 1.5558822 0.13599154 1.1117936 -0.18845935 1.0116074
-0.036758147 -0.74231756 0.015508857 -0.73930377 -0.28281707 -0.36170542 0.14085114 -0.53605306

fc1.bias f4 [128]
00000000: 7e1f 183e 240d 8ebe b498 dc3d 823b 12bf
00000010: 60d5 023e 88ea 45be d4ba d5bd cf46 ed3c
00000020: fa45 a5bd 1bf6 583e 9ddf 0e3e 2fa1 1d3e
00000030: f53c 563e 5d0c 2dbe edca 94bd 5cc7 77be
00000040: 6ecf 9abe eb15 a73e fbf2 3abd 4011 f9be
00000050: 67f1 cf3d 40ce d9bd 9435 ffbd f790 253e
00000060: ab0d 853e a962 01be 8b40 16bf ce46 b93d
00000070: 80d3 9ebe 6469 07be d00b b23d ab86 79bd
00000080: d26a a6bd dc0e 3e3e be17 6abe 8a2d bcbe
00000090: 24fa 363e 6e59 813e a43a 86bd 4437 153d
000000a0: 66ee 903d 3d95 a43e 0be3 1a3f 3b17 a1be
000000b0: ce71 883e 8ed7 51be c18e 1ebe ced7 473d
000000c0: 592b 06be 7aac c2be f6db d43d 54db c2bd
000000d0: f8d2 ac3d f161 e23a 3210 283e d60d b73e
000000e0: 037f 8e3d c9fa bc3d 2a92 a8be 4b84 963c
000000f0: 5fb5 6fbe 38cd 043d ae7a e93d 6aea e0bd
00000100: 6cd6 743d 5ce2 80be a23e 80be c8fd 8cbe
00000110: 4c37 743d a09f d4be 54a2 ae3c aaaf 38bd
00000120: b24e 913e cb36 abbe c6ec 02be 01d1 473e
00000130: 129c 27be cadf a73d 64ed b43d 2750 46bd
00000140: ef46 fdbd 941a 39be 38f2 a7bb cd36 b9be
00000150: b2b6 a83e cd43 963d 1c20 ca3d aa18 113e
00000160: 6630 e4bd 8c6d 373d 59a4 8fbd 7504 123e
00000170: 0d5f 6abe 5bd6 f93c 6be8 cebe c088 abbe
00000180: ec74 433e bdea 053e b2f7 a6bd faf0 183e
00000190: 4916 113e 3090 703e 2eb6 f23c edff 69be
000001a0: c4de 863d 34d7 8ebd 97fc 3b3e 6453 e3bc
000001b0: f24a 723d 5a6c 673e 9982 80be 7b4b d8bd
000001c0: 6462 07bf df83 f93e 83f7 4fbd 71c1 883e
000001d0: dca8 6f3e 4428 183d b0d6 5d3e 8d0e 96be
000001e0: 2fcf 40be 533b dbbe f52a 623e ac0d 19bd
000001f0: e78d f63b 4db5 f53d 8a2f b03e 643f e33d
0.14855763 -0.277444 0.10771313 -0.5712205 0.12776709 -0.19327748 -0.10436025 0.028964428
-0.080699876 0.21187632 0.13952489 0.15393518 0.20921691 -0.16899247 -0.072652675 -0.24197143
-0.3023638 0.3263391 -0.04564188 -0.48645973 0.10153466 -0.10635042 -0.12461391 0.16168581
0.2598699 -0.12635292 -0.58692235 0.09046708 -0.31020737 -0.13223797 0.08693659 -0.060919445
-0.08125843 0.18560356 -0.2286062 -0.36753494 0.17868859 0.25263542 -0.065541536 0.03642966
0.07076721 0.3214511 0.6050269 -0.31463036 0.26649326 -0.20492384 -0.15484144 0.04878979
-0.13102473 -0.38022214 0.10393517 -0.0951449 0.084386766 0.001727162 0.16412428 0.35752743
0.06957819 0.09227521 -0.32924014 0.01837363 -0.23409031 0.032422274 0.114003524 -0.10982211
0.0597748 -0.25172698 -0.25047785 -0.2753737 0.059623048 -0.41528034 0.021317638 -0.0450894
0.28380352 -0.3344024 -0.12785634 0.19513322 -0.1636813 0.08196981 0.08834341 -0.048416283
-0.12367045 -0.18076545 -0.0051253103 -0.36174622 0.32951885 0.07337151 0.098694056 0.14169565
-0.11142044 0.044782206 -0.07013769 0.14259513 -0.22887821 0.03049772 -0.40411696 -0.3350277
0.19087571 0.13077827 -0.08152713 0.14935675 0.14168657 0.23492503 0.029627886 -0.22851534
0.06585458 -0.069746405 0.18358074 -0.027749725 0.059153505 0.22599927 -0.25099638 -0.10561272
-0.5288451 0.48733422 -0.050773155 0.26710084 0.23404258 0.037147775 0.21663928 -0.29307976
-0.18829034 -0.42818698 0.220867 -0.037366554 0.0075242403 0.11997471 0.3441127 0.11096075

fc2.weight f4 [128, 128]
00000000: 92af 0cbe 588a 8ebe c7a4 a33e 5d68 f6be
00000010: ed7b 3c3e 8020 98bd b1d8 d23d 3c6f 173e
00000020: beff 413d ebae 973e 1577 53bd 9dec e03d
00000030: a5d6 ed3e c210 28be dbcf 553e 9ecb dcbe
00000040: 446a 14bf b389 d33e 8dc8 34be a76c bbbe
00000050: 5bc1 31be 206b c9be 271b 6d3e 08ee 8e3e
00000060: 2d5b c53e 05c9 88be ff93 eabe 5c2b d73e
00000070: 9c6b d0be c06d 91be fa02 dbbd fbb9 673e
00000080: 9748 f6be eede 9c3e 41d9 fcbe dca2 fdbe
00000090: e00e acbd ab0a 083f 4a79 dc3e ffff 42be
000000a0: 9fc0 903e 7fe2 d93e 7f26 fe3e 93be f4be
000000b0: 1113 da3e 66fb a4be a974 11bf 8989 33bd
000000c0: ebcb 38be 4962 00bf f45c 40be 0e85 dd3d
000000d0: 83a4 663e 984e ad3e 1dde ca3e 5c53 bb3e
000000e0: ce64 b03e e0a9 ff3e 24d0 9abe 6f03 903d
000000f0: 33d2 bbbe 32ab 82be 152c e83e e843 3e3d
00000100: f93e 5bbd 0690 06bf e15b a7be 5d27 d7be
00000110: 2bd7 073e 754d 09bf 9581 67bd c0b1 60be
00000120: 4b96 bd3e cac5 12bf 267a 1f3d f0e6 153f
00000130: 2014 cf3c 2008 ba3e 6399 253e c8f0 b5be
00000140: 6e49 0cbf be4c b9bd fe8d e63d ce7a a0be
00000150: 7287 023f 9bfb a6bd 0311 493e 42bc c0be
00000160: e880 dcbe 8adf e5bd 4cd5 033e 6ee7 7e3e
00000170: d5ba 81be b4b0 5bbe 1f33 ffbe 9d33 c4be
00000180: 1747 e63e 04f0 c7bc 4d51 1b3d a0f5 8cbe
00000190: 3557 d63c 4859 1c3f b59f 71be b32f d5be
000001a0: 552e 593e 2346 0cbd 3611 003f fe9e b2be
000001b0: 5287 d9bd 38b9 983e d710 79bd 14d6 f5be
000001c0: 64ac edbe 5b77 f33e 248c 86be 1f30 b93e
000001d0: ba25 763e 1898 ec3e d53e e53e 67a9 e4be
000001e0: b769 e1be 6ad3 d6be 75a5 833e cfd1 243e
000001f0: 5221 113d d97c 0f3f e4a8 b63e 1c87 463e
00000200: 0721 993a 90d9 d83a 7171 033f 2be5 c9be
00000210: 5cb9 c9be b700 453e 589e 063f 6ef2 363c
00000220: 5928 f1bb 7ed3 c03d 8f21 95be 57b5 20be
00000230: 5bb0 a0be f924 91be c3d6 25bd b8f4 c9bd
00000240: 5029 b8be 9306 a13e 5480 583d aa04 a9be
00000250: 85e4 7abd e661 94be 45ec 263e 2905 ae3e
00000260: 3d06 0a3e 75cc 35bd dea8 dbbe dfb5 ca3c
00000270: d7d9 abbe 6228 d0ba 0b24 e9bc 6c90 2c3e
00000280: 0f27 58be d04d 3d3d 5431 a8be c943 ca3b
00000290: a172 093e e073 a93c 2ba4 d13e c531 2a3d
000002a0: 8f16 993d c525 303c 90e5 d33e 6bc6 56be
000002b0: 7644 5e3e 13cd 8dbd 1284 2cbe 6989 f53e
000002c0: 1297 c6bc 05e7 8abe 67b9 b1bd aa7b 2abc
000002d0: b66f da3c 86da 423e 333c cbbd 01aa a33e
000002e0: 214c 463e 77ce d13e e5a6 2dbe 9df7 323e
000002f0: 9166 81be 693c 01be f9ef 893e 27ba d73d
00000300: 04bb 00be d6f6 e3be b9de f1bd 2934 a3be
00000310: 81a7 d53e 61b7 aabe 47fd 8c3e c4d6 99be
00000320: 210e 093e 4a42 5abe 9e43 84bd 1dde c33e
00000330: 5474 e93c d1db 763e ac38 cd3d 1306 913b
00000340: d7e2 d23f c3b5 9bbe ae7f d43d 08d9 e33c
00000350: 7097 a23d c768 8c3d 1347 06be 72ca dc3c
00000360: 18b0 62be 2629 40bd 289e ca3d 3ac4 1d3e
00000370: 06fb 943d c522 633e 546a d2be 54fa 9fbe
00000380: aa90 a63e a3ef 89be 8fa0 ce3d ab42 3fbe
00000390: cc30 343e f90c bd3d af36 b7be 1d95 19be
000003a0: 085a 3d3c 61d2 a2bd edf1 943e 2104 b5bd
000003b0: 235d 03be d400 453d 7a96 bdbd 0fa3 9cbe
000003c0: 6378 91be 5971 b83e 5f55 10be 324f c63d
000003d0: 8f46 833d 6a12 353e 9f2a aa3e b4fe ea3d
000003e0: 188b bdbe f21b 00bf 1a52 0d3e 632b b43c
000003f0: 0993 ff3d d5ba 97bf baf4 843e 0e53 d3bc
-0.1373885 -0.27839923 0.31961653 -0.48126498 0.18406649 -0.07428074 0.10295237 0.14788526
0.047363035 0.2962564 -0.051627237 0.109826304 0.46452823 -0.16412643 0.20880072 -0.43124098
-0.5797465 0.41315994 -0.17654629 -0.36606333 -0.17358916 -0.39339542 0.23154889 0.27915978
0.38546124 -0.26715866 -0.45816037 0.42025268 -0.407071 -0.28404045 -0.10693927 0.2262954
-0.48102257 0.30638832 -0.49384502 -0.49538314 -0.08401275 0.5314128 0.43061286 -0.19042967
0.28271958 0.42555615 0.49638745 -0.47801647 0.42592672 -0.32223052 -0.56818634 -0.043832336
-0.18046539 -0.5014997 -0.18785459 0.10816394 0.22523694 0.33849025 0.39622584 0.36587036
0.34451908 0.49934292 -0.30236924 0.07031905 -0.36683807 -0.25521237 0.45346132 0.04645148
-0.053526852 -0.5256351 -0.32687286 -0.4202222 0.13265674 -0.53633815 -0.056520063 -0.21942806
0.37028727 -0.5733305 0.03893485 0.5855551 0.025278151 0.36334324 0.16171794 -0.35535264
-0.54799545 -0.090478405 0.112575516 -0.31343693 0.50987923 -0.08153459 0.19635396 -0.3764363
-0.43067098 -0.11224277 0.12874335 0.24892971 -0.25337854 -0.21454126 -0.4984369 -0.38320628
0.44976112 -0.02440644 0.03791933 -0.27531147 0.02616463 0.6107373 -0.2359608 -0.41637954
0.2120908 -0.034246575 0.5002626 -0.34886926 -0.106215134 0.2982881 -0.060807075 -0.4801489
-0.46420586 0.47551998 -0.26278794 0.36169526 0.24037829 0.46209788 0.447745 -0.44660494
-0.44025967 -0.4195817 0.2571217 0.1609566 0.035432167 0.5604988 0.35675728 0.19387478
0.0011682817 0.0016544331 0.5134497 -0.39432654 -0.3939923 0.19238554 0.52585363 0.011166198
-0.007359546 0.09415339 -0.29127166 -0.15694176 -0.3138455 -0.2834852 -0.040488016 -0.098611295
-0.3596902 0.31450328 0.05285676 -0.3301137 -0.06125309 -0.2898094 0.16301067 0.33988312
0.13478942 -0.04438444 -0.42902273 0.024744926 -0.33564636 -0.0015881176 -0.02845957 0.16851968
-0.2110865 0.046216786 -0.32850134 0.0061726314 0.13422634 0.020685136 0.40945563 0.04155137
0.07475006 0.010751192 0.4138608 -0.20974128 0.21705803 -0.069238804 -0.16847256 0.47956398
-0.024241958 -0.2712938 -0.08677941 -0.01040546 0.026664596 0.19028673 -0.099235915 0.3196564
0.19364978 0.40977833 -0.16958196 0.1747727 -0.25273564 -0.12620701 0.26940897 0.105335526
-0.12571341 -0.44524258 -0.11810059 -0.31875733 0.41729358 -0.33343032 0.27536985 -0.30046666
0.13384296 -0.2131435 -0.064582095 0.38255396 0.028497852 0.24107291 0.10020575 0.004425773
1.6475476 -0.3041211 0.103759155 0.02781345 0.07939041 0.06855922 -0.1311305 0.026952002
-0.22137487 -0.046914242 0.09893447 0.15406886 0.072744414 0.22181232 -0.41096747 -0.31245673
0.32532245 -0.2694064 0.10089218 -0.18677776 0.1759674 0.0923099 -0.35783908 -0.14998288
0.01155711 -0.07950283 0.29090825 -0.08838678 -0.12828498 0.048096493 -0.09257217 -0.30593154
-0.2841216 0.36023977 -0.14095066 0.09683074 0.06409942 0.17682806 0.33235642 0.11474362
-0.37020183 -0.5004264 0.1380085 0.021993345 0.124792166 -1.1853892 0.25967962 -0.02579644

fc2.bias f4 [128]
00000000: 5ade d93e 7b56 9a3e 5d3b 083f 63b5 263e
00000010: b888 30be ae65 833d a400 74bd 5c48 a1be
00000020: 1c4c d13d fcb0 1e3e 4f6c 4dbe 37c4 7fbe
00000030: 2d1c 24be 6ed7 a93d 1dc0 463e 16f0 363e
00000040: 394f d0be 95b8 ce3d 7060 97bd cb24 3dbe
00000050: 229e 9cbe af06 39be 21c8 f33e 974c 67be
00000060: 86b1 7bbe 3017 593e facf d7be 854d 043e
00000070: 04d6 18be ef21 b5be e132 3a3e 1e4e 643e
00000080: 34ff 023e 9fce a6bd c67e dd3e a6a0 cd3d
00000090: 32cf 403e 3565 3b3e 58bf f5bd b705 3dbc
000000a0: f877 69bd 142f f1bd 431a d33d f27b 593e
000000b0: 0044 cb3d 39e6 183e 74ed 383e 5b10 fcbd
000000c0: 4aa6 51be a744 ea3d f5f6 553e 7d6f 2b3b
000000d0: 86ee d73d b8d0 f53e 6541 ec3d 7d80 67be
000000e0: 4214 41be 23ca 5f3e 545e 4cbe 590e 53be
000000f0: e55c 7d3e f548 a2bd c90c c9bd 24f7 023e
00000100: 75a0 b6be e6ac 5e3e 9aff efbc 42d5 a7be
00000110: 5a9e 0fbe c49f f93d a282 083e 5e34 193f
00000120: 46c0 1e3e 2171 083e 91b6 033e c9b3 6cbe
00000130: 5bee a0be d74e d33d 7bb0 b13e 717f 393e
00000140: 18de 063f 0485 123e 893e 65be 075f 96bd
00000150: bdbe bbbe e808 f4bd 75e4 a0be 71c8 ff3e
00000160: ac88 49be dd82 0c3e 795e 173d 0d64 c83d
00000170: b4d1 5e3e b8d5 3d3e 7e79 55be 21ff 2bbe
00000180: f443 bc3d b51b 353e 4539 003f 188c 3abe
00000190: d1e5 e33e 466d a83d 30d1 943e b4a7 093e
000001a0: 84e4 dbbe d581 563e 732f 57be 2196 8dbe
000001b0: f684 87be 02e2 05bf e6f6 253e 5c47 17bf
000001c0: 78cd 423d e567 55be cbb2 c83e 0aea 9a3e
000001d0: 7cb6 1a3e 6f0d b53d a1ab 88be 3cb5 c3be
000001e0: 4ed1 dbbc 32f7 f53e 373a 1ebe c83d 18be
000001f0: e68a f83d 3ae1 3ebe 973b 873e 93e3 0fbf
0.42552453 0.30144104 0.5321558 0.16280131 -0.17239654 0.06415878 -0.059570923 -0.31500518
0.10219595 0.15497202 -0.20060848 -0.24977194 -0.16026373 0.08293043 0.19409223 0.17865023
-0.40685442 0.100938 -0.07391441 -0.18471067 -0.30589396 -0.18068956 0.47613624 -0.2258781
-0.24579439 0.21200252 -0.4215086 0.12920196 -0.1492539 -0.35377452 0.18183471 0.22295424
0.12792665 -0.081448786 0.43260783 0.10040407 0.18829039 0.18300326 -0.119993865 -0.011537007
-0.056999177 -0.117765576 0.103077434 0.21238688 0.09925079 0.14931573 0.18059331 -0.12307807
-0.2047359 0.11438876 0.20894988 0.0026158981 0.105435416 0.48010802 0.115359105 -0.22607608
-0.18855384 0.21854453 -0.19957858 -0.20610942 0.24742468 -0.07924072 -0.09816892 0.12789589
-0.35669294 0.21745643 -0.029296685 -0.3277989 -0.1402525 0.12188676 0.13331082 0.5984553
0.15503034 0.13324405 0.12862612 -0.23115458 -0.3143185 0.10317772 0.34704956 0.18115021
0.5268264 0.14308554 -0.22387137 -0.07342344 -0.3666896 -0.11915761 -0.314243 0.49957612
-0.19681042 0.13721795 0.03695533 0.09784708 0.21759683 0.18538558 -0.20847127 -0.16796543
0.091926485 0.1768635 0.50087386 -0.18217504 0.44511274 0.08223967 0.29065847 0.1344288
-0.4294778 0.20947964 -0.21014194 -0.27653602 -0.2646863 -0.52297986 0.16207466 -0.5909326
0.04755923 -0.20840414 0.39198908 0.30256683 0.15108675 0.08840453 -0.26693442 -0.38224208
-0.026833203 0.48040158 -0.15451895 -0.14867318 0.12135868 -0.18640605 0.2641265 -0.56206626

fc3.weight f4 [2, 128]
00000000: 329a 72be 6fa7 e9bd bf74 c7be 3861 79be
00000010: 9642 b43d 1bf9 f4be b31f 563e 4e47 593e
00000020: d346 efbd 1487 c3be 126c 333e 9717 c23c
00000030: ab7b 973e 7807 aabe 5789 e9bd e7ac e0be
00000040: 2c3f cf3e 10d5 5abd 0e9e cc3e c614 823e
00000050: 8a8e 1a3e 5a6d 4e3e 7690 90be 3d60 9c3e
00000060: 75ad 8f3e 2236 babe 25a9 8b3e 5046 0abf
00000070: 5be2 453f 73d0 9a3e fbf9 b5bd 7dc3 30be
00000080: 3843 adbe f74d e53e d203 65be 2ac3 27be
00000090: 0c50 03bf c93e 12be 2a4d 793e a2d4 c9bd
000000a0: d117 3e3e ad27 243e 7eb4 adbe f971 05bf
000000b0: a05e dfbd 465c 3bbe 49d6 34bf 1621 ab3e
000000c0: 30df d23e a635 c93d f2e0 64be 3234 dcbd
000000d0: bf30 b8bd da06 a7be 3d53 b0be d384 353f
000000e0: a0fb 983e aea0 07bf cca8 f53e 0c68 533e
000000f0: acec 92be bd8d 4e3e cfaf 4d3e d4ee d4be
00000100: e56e 413e 3c07 19bf b774 f33d 37c0 783e
00000110: 5e0c 073f e9a7 15be 651e e4be dcaa 5bbe
00000120: c716 7dbe 484d cfbe 8ee4 93be f9b5 b13e
00000130: 5308 833e fd02 3ebe cebd 8ebe 422f dfbe
00000140: b008 adbe b234 61be 76bf 883e d2b6 df3e
00000150: b83f 163e 7d87 3b3e d5bb 673e 6ecc 90be
00000160: 57c8 023f eb28 05be 80d7 fcbd 34f3 99bd
00000170: 93b6 4fbe f27c 24bf 5b66 9e3e 8466 d73d
00000180: 31f5 b4be d468 fdbd 78a2 35be 505d 1a3f
00000190: e8e9 98be 24b7 4abe 8af4 41be a396 42be
000001a0: 0778 743e 2f70 55be 6318 f53e 0c5e 433e
000001b0: d953 c13e 684f 9f3e aab2 ecbe 95cd c73e
000001c0: 4a26 f6be 953b 0a3e 0626 8abe 71d8 1bbe
000001d0: e7d8 c8bd 479d f8be ab51 313e fb44 b33e
000001e0: e5a2 fcbc 7ae0 9abe 9ddd 333e 5ff5 cb3e
000001f0: 5320 d5be 58cb 243d a770 b3bd 986d 9f3e
00000200: 997b 6c3e 11ec 393e 54f3 953e 68a6 673e
00000210: f196 44be 1357 f33e a8e6 b4bd b859 4cbe
00000220: e90d 383e d1e5 8d3e 325b 4bbe 8d3a 0fbe
00000230: 7adb 9dbe b1b2 873e 2ec0 923d a7ed d33e
00000240: 26e4 83be 9e98 523e f073 eebe 4a59 2bbe
00000250: ee74 61be ea52 b5be 36e4 7f3e a6be 52be
00000260: e763 afbe bf07 bb3e cf66 72be 5d79 223f
00000270: 5975 42bf 3ab6 32be 7f8e ed3d 5779 7a3d
00000280: 693d b23e 6893 c5be 8b68 883e c63d 033e
00000290: 7e31 153f 3e71 ef3d 5467 90be 69a9 903d
000002a0: 7d11 31bd 6f36 70be 5408 9e3e 860b 003f
000002b0: b5c1 003e c29e 273e 6cf6 373f 61e0 c0be
000002c0: 67c8 f1be 0169 23be 3031 563e 4ce3 d83d
000002d0: 127a 0a3e 6442 ce3e 5741 a53e 6873 2bbf
000002e0: ccbe 51be d8bc 193f 0ea7 f2be 6fef 9cbe
000002f0: e1ea 943e 9aca d2bd 152c 74be fedb e53e
00000300: 91d4 8ebe 0110 243f c91f 01be 7583 62be
00000310: dbc8 08bf 3d23 b23d 546b df3e bb9f a23e
00000320: 160d 163e e18e c53e 7c0e 803e a941 c9be
00000330: 4bcf b4be aab8 903d ef11 653e dd02 de3e
00000340: f490 ca3e ffed 6c3e 4df3 78be b60d cfbe
00000350: cbb4 8cbe 9a32 6cbe 0b7d 48be c4dd 873e
00000360: 4ed2 1cbf 083f 883e 5365 f53d 37b8 223e
00000370: ed76 4c3e 0777 013f 392f b4be eaba 06be
00000380: 7e38 cf3e 5eab 393e 67c7 8d3e 253a 1dbf
00000390: 6560 843e 21ea 393e 0772 343e 13fc 793e
000003a0: 0d75 9dbe acf0 673e 5586 ebbe d7e7 9ebe
000003b0: b92f 85be 79e7 82be d573 e63e 99fb 92be
000003c0: 469b dd3e 6ab5 b4bd 06a0 9c3e 92d1 963e
000003d0: 59d8 0d3e de00 e53e 7080 7bbe 5a66 5dbe
000003e0: c964 963c 034b 7b3e 18a8 8bbd 2178 edbe
000003f0: fa30 c53e 4bb4 b9bd 90d3 2f3e dc1e d9be
-0.23691633 -0.114088885 -0.38956258 -0.24353492 0.08801763 -0.47846302 0.2091053 0.21218607
-0.116834305 -0.38188994 0.17521694 0.02369289 0.2958654 -0.33208823 -0.114031486 -0.43881914
0.40477884 -0.05342585 0.39964336 0.25406474 0.15093437 0.20158902 -0.28235215 0.30542174
0.28062025 -0.36369425 0.27277485 -0.5401354 0.77298516 0.3023716 -0.088855706 -0.17262073
-0.33840346 0.44786045 -0.22364739 -0.16383043 -0.51294017 -0.14281763 0.24345842 -0.098550096
0.18563773 0.1603076 -0.33926767 -0.52127033 -0.1090672 -0.18296918 -0.70639473 0.3342368
0.41185904 0.09824686 -0.22351435 -0.10752143 -0.089936726 -0.32622415 -0.34438506 0.709058
0.29879475 -0.5297955 0.47980344 0.2064516 -0.2869619 0.20171256 0.20086597 -0.4158846
0.18889959 -0.59776664 0.11887496 0.24292074 0.52753246 -0.14614834 -0.4455444 -0.21451896
-0.2471572 -0.40488648 -0.2888531 0.34709147 0.25592288 -0.18555827 -0.27879184 -0.43590742
-0.3379569 -0.21992758 0.26708573 0.43694168 0.14672744 0.18313403 0.22630246 -0.28280967
0.51086944 -0.1300389 -0.12345791 -0.075170904 -0.2028449 -0.6425315 0.30937466 0.105176
-0.35343316 -0.1237351 -0.17737758 0.60298634 -0.29865956 -0.19796425 -0.1894094 -0.19002776
0.23873912 -0.20843576 0.47870168 0.19078845 0.37759283 0.3111527 -0.4623006 0.39024034
-0.48076087 0.13499291 -0.26982135 -0.15219285 -0.09806996 -0.48557493 0.1731631 0.35013565
-0.030839393 -0.30249387 0.17565008 0.3983564 -0.41626224 0.040232986 -0.08761721 0.311383
0.23094024 0.18156458 0.29287207 0.22622073 -0.19198205 0.4752737 -0.08833057 -0.199561
0.17974056 0.27714399 -0.19859007 -0.13987179 -0.3083151 0.26503518 0.071655616 0.41392252
-0.2576 0.20566031 -0.46572828 -0.1673328 -0.22017261 -0.3541482 0.249894 -0.20580539
-0.34255907 0.36529347 -0.23672031 0.63466436 -0.7596031 -0.17452326 0.115994446 0.061150875
0.34812477 -0.38589025 0.2664226 0.12816533 0.58278644 0.11691521 -0.28203833 0.070635624
-0.04322957 -0.23458265 0.3086573 0.50017583 0.12573893 0.16369155 0.71860385 -0.37671188
-0.47223207 -0.15958025 0.20917201 0.105902284 0.13523129 0.40285027 0.32276413 -0.6697297
-0.2048294 0.6005378 -0.47393078 -0.30651423 0.29085448 -0.102925494 -0.23844941 0.44894403
-0.2789655 0.6408692 -0.12609781 -0.2212046 -0.5343148 0.086981274 0.43636572 0.3176249
0.1465343 0.3858557 0.2501105 -0.39307907 -0.35314402 0.07066472 0.22370122 0.4336156
0.39563715 0.23137663 -0.24311562 -0.40440148 -0.27481684 -0.23066178 -0.1957895 0.2653638
-0.612584 0.2661059 0.11982217 0.15890585 0.19967242 0.50572246 -0.35192278 -0.1315724
0.40472788 0.18131778 0.27691194 -0.61416847 0.25854793 0.1815572 0.17621623 0.24412565
-0.30753365 0.22650403 -0.46000925 -0.31036255 -0.26012972 -0.25567225 0.45010248 -0.2870758
0.43282527 -0.088236645 0.30590838 0.29456764 0.13852061 0.44727224 -0.24560714 -0.21621075
0.018358605 0.24540333 -0.06819171 -0.46380714 0.3851393 -0.09067591 0.17170548 -0.42406356

fc3.bias f4 [2]
00000000: e9ce abbe d0e8 7f3e
-0.33556297 0.24991155
