CartPole/checkpoints/cartpole_act_critic/value_net_cartpole_act_critic.pth (torch, 72477 bytes, 5 tensors)

fc1.weight f4 [128, 4]
00000000: e970 d83e 7464 6abe 2555 b13e 54d1 823f
00000010: de4d e4be 6ca0 eebe 0ba8 08be 75f0 5ebf
00000020: 57c7 013c e603 6ebe 92b1 84be 27b2 113f
00000030: 3925 dcbe 18aa 89be c52d 66be d123 acbe
00000040: f830 b93d 4bab 06be 335a 003f 4d96 243f
00000050: 614a 44be 9ea1 d93e ddbb f43d 1ab8 ed3e
00000060: 451c b1be 3b80 f2be 04b0 013f dcdc 093e
00000070: a854 103f 8c1e 013f b803 cc3e 1148 35bd
00000080: b6e6 e2be 6d2c 32be 6112 86be 55f4 25bd
00000090: 0a76 583e 2c4d d93e bd83 883e df84 62bf
000000a0: adbb c6be 4ed4 063e a70f 1f3d 209b 7d3d
000000b0: 5c50 c13d 1d37 bcbe 4762 cdbe 9099 a7be
000000c0: 0c16 87be fd79 823e b6d1 783e 160f 49bf
000000d0: 4ee0 113e 4632 073f 7c32 573e d509 843f
000000e0: b056 853e d961 c13d 1fef ce3d 4bb7 54bf
000000f0: 7bb0 01bf 55fa d63e dac3 b4be 0a71 483e
00000100: a181 d8be 9919 1bbf 91ca d1be 6113 8abe
00000110: 5a44 4a3e deac 1d3f fe86 8a3e be0a a33f
00000120: 5df7 91be f1dd 69bf e6d0 3b3e 1caa a9bd
00000130: 0647 cebe ad19 35bf b7b6 9fbe 48e3 2bbf
00000140: 47ca ccbc bc53 583f e1c6 0cbe ea8f cb3e
00000150: 52ea b7be e88a 47be 04e0 1a3e 8120 1e3e
00000160: dc18 8f3d 8cb5 e9be 5f57 fa3e a7dc 3e3f
00000170: 2839 243f a4f6 223f 300a 213e cbf2 5e3f
00000180: 555e b13e 82d8 c93e 6091 49be 5f83 3dbe
00000190: 8626 f6be c26c 0cbf 93e6 073e 53ab 45bf
000001a0: 4ae1 f43e 4c5c 39be fc8b 473c f6b4 71bd
000001b0: c634 c53e 2e48 26bb d73e 023e 605a 45bf
000001c0: f4cb e7be 130d 413f eea0 f4be 5974 94be
000001d0: 3c4c cbbd 732e 50be 5ac2 9e3d 5f8e c13d
000001e0: a437 9a3e 08ee 563f 7b35 08be 3c8f f0ba
000001f0: 5c72 35be 3e1f 053f 5cbf ffbd 71e0 06be
00000200: ae1d b4be 3b18 1b3e a3f4 37be cd61 353e
00000210: f21b a8be 69ba 923e e1ac 6ebe 4d2e 81bf
00000220: 08ad bb3e 0541 f3be c8bb 44be a6c9 47be
00000230: 293b 83bd b40e 533d 0e68 ce3e c98b 6c3f
00000240: 950b f63e a385 8fbe 9116 d73e 4b4e c33e
00000250: 1562 0bbf 0b36 38bf f925 123e 11d7 7cbe
00000260: a0d3 a0be f6ff 1fbf 91cf 1c3e 0f04 8bbe
00000270: 46d9 c73c 7f49 31bf 61db d2bd e3fc 8bbe
00000280: 9fea fbbe 04d0 833e a98d 78be a528 97be
00000290: 7d34 08bf d6c8 63be 3e6c b0be f910 7cbf
000002a0: 742e 04bf df92 babe 9832 a6be b810 6abf
000002b0: bef8 26be 7354 c43d eca6 cbbe 4af8 81bf
000002c0: 8416 c23e c10a 4a3f ac0c 7bbe 4fff 483f
000002d0: f4c1 a93e 078a f13e 38f8 ca3d dc98 df3d
000002e0: 9aa9 f43c 6c1b 4bbf ce6c 5f3e 19f9 fe3d
000002f0: 94c7 8bbd b985 90be a58b e0be ad3a 41bf
00000300: 45ed 7ebe 9c1e babe ad0b f7bd 28e3 0ebf
00000310: 27e0 fa3d ca7b 06bf e556 a6bd ef06 74bd
00000320: 82bc fe3e a148 933e 0a77 3f3f f3b5 a73e
00000330: b351 d13e 11b0 ffbd fb10 e53d eb23 533e
00000340: 2d23 043f 9ed0 83bf c038 e53e 065e 343e
00000350: 3271 2abe 7260 41bf c2fa 73bd 6e7f 86bf
00000360: 3b3d 153e 0054 ffbd effe a83e d418 8b3f
00000370: c8e0 3e3e 170d 49bf bf3b 3abe ff25 e4be
00000380: 79e0 7c3e 80ef e73e bc9a d6be a1eb debe
00000390: 66a6 443e fec4 953b 73e2 84be 21eb 17bf
000003a0: ffb8 d53e 76cc e9be 46c3 01be 7198 1bbf
000003b0: 638e 9f3e e070 97bd a157 1f3e 7c4f d9be
000003c0: c8c6 e53e 84f7 c7be 0340 b13d 7607 0e3e
000003d0: c98c 7fbe 351c 57be 85d1 a33e 0ba3 3c3e
000003e0: c2f0 b4be 219a f13c 9d14 14bf a719 22bf
000003f0: 2326 283f 82e4 703e 08f9 f13e 1ff0 bc3d
0.42273644 -0.22889882 0.34635273 1.0220132 -0.44590658 -0.46606767 -0.13345353 -0.8708566
0.0079210615 -0.23243675 -0.25916725 0.56912464 -0.4299715 -0.26887584 -0.22478397 -0.33621076
0.09042543 -0.1315128 0.50137633 0.6429184 -0.19168998 0.42506117 0.119498946 0.4642952
-0.3459188 -0.47363457 0.50659204 0.13463157 0.56379175 0.50437236 0.39846587 -0.04425818
-0.44316643 -0.1739976 -0.26185897 -0.040516216 0.21138778 0.4244169 0.26663008 -0.88483995
-0.3881506 0.13166925 0.038833287 0.061915517 0.094391555 -0.36760798 -0.40114042 -0.32734346
-0.26384008 0.25483695 0.24298748 -0.78538644 0.14245722 0.52811086 0.21015352 1.03155
0.260427 0.09442491 0.101042025 -0.8309218 -0.5065991 0.41987863 -0.35305673 0.19574371
-0.422864 -0.60585934 -0.40974858 -0.2696791 0.19752637 0.615919 0.27056116 1.2737653
-0.28509036 -0.9135428 0.18341407 -0.08284399 -0.40288562 -0.70742303 -0.31194088 -0.6714368
-0.024998797 0.8450277 -0.13747741 0.39758235 -0.3592096 -0.19486582 0.15124518 0.15442087
0.069871634 -0.45646322 0.48894784 0.7455544 0.64149714 0.63657594 0.15726542 0.8708922
0.34642282 0.39422995 -0.19684362 -0.18507145 -0.48076266 -0.5485345 0.13271551 -0.77214545
0.47828132 -0.18101615 0.012179371 -0.05901047 0.38516825 -0.0025372612 0.12719284 -0.77091026
-0.4527279 0.75410575 -0.4777903 -0.28995016 -0.0992665 -0.20330219 0.07751913 0.09450983
0.30120575 0.83956957 -0.13301651 -0.0018353234 -0.17719406 0.52000797 -0.12487671 -0.13171555
-0.35178894 0.15145962 -0.17964415 0.1771309 -0.3283382 0.28657845 -0.23308136 -1.0092255
0.3665545 -0.47510543 -0.19212258 -0.19510517 -0.06407768 0.051527694 0.40313762 0.92400795
0.4805571 -0.28031644 0.42009404 0.3814567 -0.54446536 -0.71957463 0.14272298 -0.24691416
-0.31411457 -0.6249994 0.15313555 -0.27151534 0.024395596 -0.6925277 -0.102957495 -0.27341375
-0.4920244 0.2574464 -0.24272789 -0.29523197 -0.5320509 -0.22244582 -0.34457582 -0.984634
-0.5163338 -0.3644018 -0.32460475 -0.9143176 -0.16305825 0.0958642 -0.3977579 -1.0153897
0.37907803 0.7892266 -0.24516553 0.7851457 0.33155787 0.4717562 0.09910625 0.109178275
0.029866029 -0.7933872 0.2181885 0.12449855 -0.06825176 -0.28227022 -0.4385654 -0.7548016
-0.24895199 -0.36351478 -0.12062774 -0.5581536 0.12249785 -0.5253264 -0.081220426 -0.059576925
0.49753195 0.2876635 0.74791014 0.32756004 0.40882644 -0.12484754 0.111848794 0.2061917
0.51616174 -1.029804 0.4476986 0.17613992 -0.16644743 -0.7553779 -0.059565313 -1.0507638
0.14574139 -0.124671936 0.33007 1.0866952 0.18640435 -0.785356 -0.18186854 -0.4456024
0.24695005 0.45299911 -0.41914928 -0.43539146 0.19204101 0.0045706024 -0.25954017 -0.59343153
0.41742703 -0.45663804 -0.12672147 -0.6077948 0.3116332 -0.07394576 0.15560772 -0.42443454
0.4487822 -0.39056027 0.086547874 0.13870034 -0.24956049 -0.21006854 0.31995788 0.18421571
-0.35339934 0.02949244 -0.57843953 -0.6332039 0.6568319 0.23524669 0.47260308 0.09225487

fc1.bias f4 [128]
00000000: 74a4 ecbe f36a c3bd 5426 84bb 99f8 66bd
00000010: d627 0a3d 2fdf 5c3e 21cf e93c 4ebf 2ebd
00000020: 1afc 5b3c 621e 6a3d d16f ea3d 9577 22bc
00000030: eca5 84bd f97f b23e 29f8 dd3d fbaf 7e3e
00000040: 72a5 0a3e 6a6a 8b3c 7bfd 1abe 079f 513e
00000050: af2e e23e b33a fa3d ec5f a63d c273 04bd
00000060: ddcf dc3d b37c 28bc ec67 523e 9bf1 5fbe
00000070: c7f1 8c3e 61ac db3d 6a36 243e 1065 293d
00000080: 1849 0abe 83ba bcbd 26a5 09bd af14 c2be
00000090: 33ed 61be 866e 38bd 5b54 ad3d d7b9 bcbe
000000a0: 8743 563e d822 833e e8a1 8b3e 1498 4e3e
000000b0: 2f57 d0bb 9776 bb3c 2ea7 dabc f6c2 6dbd
000000c0: 8c7b 383e 3547 5ebe 3d88 0fbf ca36 073e
000000d0: e2f6 39be 4c8e 2bbb 8a14 2dbe d39b 8dbe
000000e0: f699 ea3d 771c 0bbe 5fe9 86be 9201 293e
000000f0: 6490 48be cc22 de3d abb5 86ba bd2b 9abe
00000100: 5d93 11be 37dc 3bbe 76eb 103e 53d3 febc
00000110: de93 b43e 65a3 26bd 32c7 e3bc e670 c2bd
00000120: f731 083d 129b 283b 866d c73b 7d12 d53d
00000130: 3b84 01be b221 d33e 5a5a e13d 1484 d93e
00000140: 103b acbe 8f9c cebd c682 0abd 4205 ff3d
00000150: 950f 58bd e1fd 01be 5230 dc3d d251 73be
00000160: c55c e23d 5f2b 18be 4b6d 7dbd 925e 94bd
00000170: 1f7d 8dbe cc25 27be 836f 1cbc f189 d6bd
00000180: d24c 3ebd c812 cbbe 2419 10bd d65b 3bbd
00000190: 220c 233e 63e8 a73e 0886 453d c988 7f3e
000001a0: c448 503d dc38 d73d 1738 b43c 6979 2a3e
000001b0: 6602 73bd 596d dabe c980 49be 7460 c4bc
000001c0: f03c c13e 2855 b83d 299c c1bd 16b7 a03d
000001d0: b3e0 3b3e b405 bfbc 0a89 1c3f ae63 48be
000001e0: fdd0 b73e 6c0c 493d 539f f6bd 7601 7e3e
000001f0: 8ead 023d 6236 0d3e 3519 ddbc 5676 0d3d
-0.46219218 -0.09541883 -0.0040328894 -0.056389425 0.033729397 0.21569513 0.02854115 -0.04266291
0.013426805 0.05715788 0.114471085 -0.009916206 -0.064769596 0.3486326 0.108383484 0.24871819
0.13539675 0.017018516 -0.15135758 0.2047082 0.44176242 0.12218227 0.081237644 -0.032336958
0.10781834 -0.010283637 0.20547456 -0.21869509 0.2752821 0.10726238 0.16036382 0.041356146
-0.13504446 -0.09215262 -0.033604763 -0.37906405 -0.2206314 -0.04502728 0.08463355 -0.36860535
0.20924197 0.2561252 0.27271962 0.201752 -0.0063580493 0.022883696 -0.026691046 -0.058047257
0.1801588 -0.21706851 -0.5606726 0.13204494 -0.18160585 -0.0026177345 -0.16902366 -0.27657947
0.11455147 -0.13585077 -0.26349923 0.16504505 -0.1958633 0.10846481 -0.001027753 -0.30111495
-0.14216371 -0.18345724 0.14152321 -0.031106627 0.35269064 -0.04068317 -0.027804945 -0.0949419
0.033250775 0.0025727195 0.0060860543 0.10403917 -0.12648098 0.41236645 0.11003561 0.4248358
-0.3363881 -0.10088455 -0.03381612 0.12452175 -0.052749235 -0.12694503 0.10751404 -0.2376168
0.11052851 -0.14860295 -0.061871808 -0.072446 -0.27634522 -0.16323012 -0.009548071 -0.10475529
-0.04645998 -0.39662766 -0.035180226 -0.04574188 0.15922597 0.32794484 0.048223525 0.24954523
0.050850645 0.10508892 0.021999402 0.16647877 -0.05932846 -0.4266155 -0.19678034 -0.023971774
0.37741804 0.09000617 -0.09453613 0.07847421 0.18347435 -0.02331815 0.61146605 -0.19569275
0.35901633 0.049084112 -0.120421074 0.24805245 0.031903796 0.13790277 -0.026989559 0.034536682

fc2.weight f4 [128, 128]
00000000: edb9 87be c190 d43e b9d8 4d38 0b1e 223e
00000010: 7b00 c7bd c2e7 2d3a bc38 94be d5ed 59be
00000020: 0c0d 623e 5abc 163e cb5d 643e b944 453e
00000030: f95b 733e a56b 033e dccf 373e 00a5 0ebe
00000040: 9d35 133f 5a27 b1be ac8b d43d e5d8 4f3f
00000050: ad9a 813b 1991 95bc fa27 d03d c35d b1be
00000060: bc72 8b3e 8937 003f 7d65 1c3e fc97 b3bd
00000070: a0db 943d 1cf7 f73d e857 2fbc 6238 3dbe
00000080: 3691 50be 609e cf3e 79ec f43d d7cb f9be
00000090: ae8e 06bf bd8d db3b 7619 003f f490 06be
000000a0: e302 b83c d78b 313f d8af 463f bbba 143f
000000b0: 715f f9bd d064 8abe 17a2 613e 2fb9 743d
000000c0: 5fb4 b83e c27f 8a3d 61c6 8ebe 639e 823e
000000d0: a9bf f03e d165 2b3e 101f 31bf ac79 8f3d
000000e0: 07a2 e13e 7c80 91bc 99e7 9dbd 381b dd3d
000000f0: 5092 8e3e dd56 48be 165c 403e f1e0 c9be
00000100: e1e3 1d3d f616 71be fb7c 54bd 9dea 5fbe
00000110: 1b4a 1a3e 35e2 153e 289a d03e 329e 303d
00000120: 2223 033f 8212 b43e d5a2 8b3d fc2c 8dbd
00000130: 3469 383e 1ce3 d73e 1f7f 5d3d 85da eb3d
00000140: 924e 43bf eb2a 0dbf 684b d9be 6092 d2bc
00000150: 0a11 5c3e 6d70 a63c 07b5 9b3e 7f8a c93e
00000160: 5cde 16be 9450 60bd a7d8 203d 77f1 3dbe
00000170: d2c8 ef3d 3f46 c5be 4b3a 0b3f ca56 0cbf
00000180: 0838 a53d 285c 1bbe fbb2 3abe 0111 22be
00000190: 4207 cdbd 1117 fe3e b2bd 84be 36dd 103e
000001a0: fd58 87bd e0f4 fa3c 5bd3 bf3e fad4 19bd
000001b0: 3c8b ebbe 3d55 9cbd 5a1d 7cbb 8bae a63e
000001c0: 16ab 1a3d 6c22 293e 6080 ab3d 836f 8c3d
000001d0: e4c2 49be ca66 8abe 4148 693e 08c6 023c
000001e0: 54e0 173e 1743 1bbe 7731 913c 9026 723d
000001f0: 1cab e93e 3be1 a73d 3353 a8bb 16c3 c43d
00000200: 6f74 45be 7983 b83e 6bf7 82bd 3038 553e
00000210: b77d 69bd 4b37 2ebb 8b5d 77be 9619 a0be
00000220: cd06 463e d755 9f3e aebf 913e bf98 383e
00000230: abd6 ad3e f3d9 8c3d ea4e 4a3e df7c 3dbe
00000240: 2e6e ee3e e270 c9be bdb0 013d feb7 453f
00000250: 815a 153e ac23 95bd be75 bc3d b40d debe
00000260: 88b0 9d3e 6253 bd3e 3431 3e3e c6ff 67bc
00000270: 41a5 823d 1398 5a3e 1d30 62bb 0644 55be
00000280: 4602 8ebe c532 e93e 04e9 553e e808 ecbe
00000290: fed3 f6be 953d 003d 235b b03e 3977 62bd
000002a0: 79c0 9c3d 4ebe 153f e715 293f 6b60 ed3e
000002b0: 78a2 30bd a025 9ebe 3cd7 753e 0b4f 193e
000002c0: 2a17 553e f404 893c 6b8a 9bbe 6559 943e
000002d0: bdbf f13e f172 663e da94 2bbf 19b5 d43c
000002e0: 16a9 cb3e e69d 38be 1cff bebd 6727 8b3e
000002f0: a121 c83d db5b 4ebe 9fd8 f63d 62e0 c4be
00000300: d5dc f43d 8db4 a5be a7c5 06be 3933 0fbe
00000310: fc5d 653e f905 a53d 4613 cd3e d7b0 42bc
00000320: 637d de3e ac11 983e c67b 073e 4869 01bd
00000330: bc12 3e3e 2129 9f3e 0cad 2a3e cf0f 133e
00000340: ee62 0dbf 42ab f3be 386b 99be 9f1a 26be
00000350: 2664 553e 6b51 13be 9af3 db3e 6b4e eb3e
00000360: 9d24 4dbe 117e 2b3d 4dcf 163e ec91 72be
00000370: fb5f 8d3d 1446 d4be 1ca0 233f efc3 aebe
00000380: 435f 1e3e 484f 02be d2e3 18be ac14 11be
00000390: 2d79 75bd 29d5 153f 3423 8fbe fa7a fa3d
000003a0: 3e20 0bbe 9e3f 47bd 56e8 ab3e f16f 243b
000003b0: 1f8c dfbe f5fb 10be 1b3e 083e b929 3b3e
000003c0: 92d7 1e3d cf73 283e 01a3 363d 6de1 383c
000003d0: 56b7 f5bd 03c3 b3be fae3 903e 4a13 eabc
000003e0: a197 e23d 5298 8dbd 072b 883b b5f3 6a3b
000003f0: 55a9 fb3e d2c7 bc3d a3b4 40be 7594 713d
-0.26509038 0.41516688 4.9077647e-05 0.15831773 -0.097168885 0.0006633961 -0.28949535 -0.21282132
0.2207529 0.14720288 0.22301404 0.19264497 0.23765554 0.12834032 0.17950386 -0.1393013
0.5750368 -0.34600335 0.10378203 0.8119033 0.0039552064 -0.018257665 0.10163875 -0.34641847
0.27235973 0.5008474 0.1527309 -0.08769223 0.07268453 0.12107679 -0.010702111 -0.1847854
-0.20367894 0.40550518 0.11959166 -0.4878833 -0.5256146 0.006700246 0.5003885 -0.13141233
0.022462314 0.69354004 0.77612066 0.5809743 -0.12176407 -0.2703004 0.22034489 0.059746917
0.36075112 0.06762649 -0.27885726 0.25511464 0.47021225 0.16738059 -0.6918802 0.07005629
0.4406893 -0.017761461 -0.07710189 0.10796207 0.27846003 -0.19564386 0.18785128 -0.3942943
0.0385474 -0.23543915 -0.051877003 -0.21866842 0.15067331 0.14637072 0.40742612 0.043119617
0.51225483 0.3517037 0.06818167 -0.06893346 0.18008882 0.42165458 0.05407631 0.11516289
-0.76291764 -0.5514361 -0.42440343 -0.025704563 0.21490875 0.02031728 0.3041155 0.39363477
-0.14733261 -0.054764345 0.039269116 -0.18549143 0.11708225 -0.38530156 0.54385823 -0.5481993
0.08067328 -0.15171874 -0.18232338 -0.15826799 -0.1001115 0.49626973 -0.25925976 0.14146885
-0.0660877 0.030634344 0.3746594 -0.037556626 -0.46004665 -0.076334454 -0.0038469643 0.3255504
0.037760817 0.16517037 0.08374095 0.06857207 -0.19703251 -0.27031547 0.22781469 0.007981785
0.14831668 -0.15162311 0.017723782 0.059118807 0.4563836 0.08197256 -0.0051368712 0.09607522
-0.19282697 0.36037806 -0.063948475 0.20822215 -0.057004657 -0.002658325 -0.24156778 -0.3126952
0.19338532 0.31120178 0.28466552 0.18027018 0.3395284 0.06877508 0.19756666 -0.18504666
0.46568435 -0.39343935 0.03166269 0.77233875 0.14585306 -0.072821945 0.09202145 -0.4336983
0.30798745 0.3697768 0.18573457 -0.014160102 0.06379176 0.21347074 -0.003451354 -0.2082673
-0.2773611 0.45546547 0.2088967 -0.46100545 -0.48208612 0.03130873 0.34444532 -0.05528948
0.07653899 0.58493507 0.66049045 0.46362624 -0.043123692 -0.3088808 0.24007887 0.14971559
0.20809618 0.016725995 -0.30379042 0.28974453 0.47216597 0.22504784 -0.67024004 0.02596526
0.3977744 -0.18028983 -0.09326002 0.271785 0.09772039 -0.20152228 0.12053036 -0.3845244
0.11956183 -0.32364312 -0.13161336 -0.13984384 0.22399133 0.0805778 0.40053767 -0.011882982
0.43455037 0.29700983 0.1323081 -0.031594545 0.18561834 0.31086066 0.16667575 0.14361499
-0.5522908 -0.47591597 -0.29964614 -0.16221093 0.20838985 -0.14386527 0.4295929 0.45958266
-0.20033498 0.041868273 0.14727516 -0.23688477 0.069030724 -0.41459715 0.6391618 -0.3413386
0.15466027 -0.12725556 -0.14930657 -0.14168042 -0.059930015 0.5852838 -0.27956545 0.12230487
-0.13586518 -0.048644654 0.33575696 0.0025091136 -0.4366159 -0.14158614 0.13304941 0.18277635
0.038779803 0.16450427 0.044589046 0.011284214 -0.11997859 -0.3510972 0.28298932 -0.02857365
0.11064077 -0.069138184 0.00415552 0.0035850827 0.49152628 0.092178 -0.18818907 0.05897947

fc2.bias f4 [128]
00000000: bc5e b2bb b9c6 bf3d b483 4bbe ecbd 813d
00000010: 8af0 813d 0a42 6f3c 8bb8 093e 4bc6 6dbe
00000020: 3320 66bd bc7a 0d3d 45d0 4b3e 3b80 7ebd
00000030: 176e 98bd d9d1 523d cff5 4f3d 04aa 0d3e
00000040: febe c5bd 75ed 5f3d 968e 6a3d 6e9d 33be
00000050: c22b 9f3d b15b cd3d 2270 b8bd bf6e 20be
00000060: 89f1 18be 974b 19bd 0c50 553e 3c3b 37be
00000070: e0cc 2b3d b1c7 223d 7438 05bd 5200 19be
00000080: e4ca 283e 9b80 213d 1105 3d3d fa0a 20be
00000090: e8d0 cb3d 64a4 69bc c373 ab3c 07e0 3dbe
000000a0: d241 e13c bc64 4b3d b353 24bd 4a9e e43c
000000b0: 0cdb 15be ced3 13bc 77b8 a03e 3c95 563e
000000c0: 5081 86bd 50a4 74bd 5695 2d3d 541a 37bd
000000d0: a9b7 75bc 934c 343a c43d 23bb 5ad6 1a3c
000000e0: 4015 fcbd bd73 39bd 29f5 33be c20b b4bd
000000f0: 9200 683e cae2 a4bd 7e9f fd39 c746 b13c
00000100: c753 553e f41d d43c 1df0 743d a917 713d
00000110: efd3 83bc 4144 8abc fb39 e53c db7f 593c
00000120: 3619 21be bd01 2c3e 7e95 f23c 115f 133e
00000130: ce1e 663e fb8d eebd ddec 0fbd 2bd0 7dbd
00000140: f9fc a83d 4ad3 16bd 5cb9 e73c 7810 fdbc
00000150: bd3c c93c 9e0d 71bb af9f 60be 1a44 673b
00000160: 83e2 273e 067f 5a3d 067c 56be 19b5 8f3d
00000170: e575 afbd 6473 1c3d a381 833e 19ab c23d
00000180: 1dfb b1bd 085d 063e 9858 ebbc 15ec 05bd
00000190: 9041 68bd 4fcd cfbd 2b41 a639 46b2 943d
000001a0: f649 843c 57d7 45bd d670 3b3d 6e03 5fbd
000001b0: 22a7 49be 59e6 653d 96d4 febd 07aa 01bc
000001c0: 8cc0 173e 7936 a83c 213e 8fbd 93ac 513e
000001d0: f2b4 9c3d a19c bb3c 1153 68be 94bb c43d
000001e0: b1b4 f03d b6b8 543b 6495 b43b f44d b73d
000001f0: 3ec4 bb3d c37b 5bbb f982 99bd 5329 4b3e
-0.005443422 0.09364075 -0.1987446 0.06335053 0.06344707 0.014603147 0.13449304 -0.23220174
-0.05618305 0.034540877 0.19903667 -0.06213401 -0.07442873 0.051469658 0.05077153 0.13834387
-0.096555695 0.054669816 0.057264887 -0.17540523 0.07772018 0.100272544 -0.09005763 -0.15667246
-0.14935888 -0.037425604 0.20831317 -0.1789369 0.04194343 0.03974122 -0.03252454 -0.14941528
0.16483647 0.03942929 0.04614741 -0.15629187 0.09951955 -0.014260385 0.020929223 -0.18542491
0.027497206 0.049656615 -0.040118884 0.02790751 -0.14634341 -0.009022666 0.31390736 0.20955366
-0.06567633 -0.059727013 0.042378746 -0.044702843 -0.014997401 0.00068778655 -0.0024908641 0.009450519
-0.123087406 -0.045276392 -0.1757399 -0.08791305 0.22656468 -0.08051069 0.0004837475 0.021640195
0.2083274 0.025893189 0.059799302 0.058860455 -0.016092269 -0.01687825 0.027981749 0.013275112
-0.15732273 0.16797538 0.029612299 0.14391734 0.22472689 -0.116481744 -0.035138 -0.061966103
0.08251376 -0.036822595 0.028286628 -0.030891642 0.024565095 -0.0036781798 -0.21935914 0.0035288394
0.16395001 0.053343795 -0.20945749 0.070169635 -0.085674085 0.038195983 0.25684842 0.095052905
-0.08690474 0.13121426 -0.028728768 -0.03269585 -0.05670315 -0.101465814 0.0003171054 0.072605655
0.016148549 -0.048301067 0.045761906 -0.05444663 -0.19692662 0.05612788 -0.12442891 -0.007914073
0.14819545 0.020533787 -0.06994272 0.20475988 0.076517 0.022901835 -0.22687937 0.0960609
0.11753214 0.003245873 0.005510973 0.08950415 0.091682896 -0.0033490516 -0.07495684 0.19839983

fc3.weight f4 [1, 128]
00000000: 886d 263f 579c 133f f885 a33f 28b5 58bf
00000010: ca4d 503f ebc4 62bf 16f0 043f 7c59 04bf
00000020: d073 18bf ce46 13bf 879b fd3e 1a5e 303f
00000030: 2416 3dbf 59fa 563f 7a9c 593f 80dd 133f
00000040: 49da 09bf 5ef9 3b3f 91d3 2e3f e9c9 04bf
00000050: 67af 0f3f b775 a3bf e1f5 9c3f 8c9e 08bf
00000060: f2c7 9f3f cd87 653f 362b f83e f29c 03bf
00000070: 75cc 82bf 22c0 1ebf 6fdb 5cbf f4da 0dbf
00000080: d9b0 0a3f 1f0a 0d3f e95b 133f eab7 08bf
00000090: 2ae5 7fbf 8398 833f b196 453f 0366 f3be
000000a0: 6d64 5d3f b6cc 39bf bbe8 48bf 8e6f 31bf
000000b0: 6d72 dbbe edbc 24bf a1dc f43e 176e 053f
000000c0: 14cc 8d3f 5e28 0cbf 6e4b 3fbf fd5c 8cbf
000000d0: e79b 69bf 0d51 5bbf 3b52 4dbf be42 6fbf
000000e0: fcfd 0fbf 1830 703f 1da3 05bf e618 05bf
000000f0: 2095 033f 7716 613f 7b48 14bf 9a6b 3cbf
00000100: 8982 a7bf 21b7 0a3f 28dd 2fbf 44f8 273f
00000110: f516 6c3f b88b 37bf da3a 5a3f a2f6 75bf
00000120: 4f22 01bf fd92 f63e b710 6abf 982b 083f
00000130: 4136 153f f6f5 0cbf 6817 52bf 066f 6f3f
00000140: 8ced 32bf 9274 64bf 6b24 613f 7e64 09bf
00000150: 670e 1bbf d528 1f3f e5cb 0ebf a25f 49bf
00000160: 3ffa 9abf 360b 97bf d118 12bf 86d7 90bf
00000170: 25bd 663f 611c 50bf 1de4 063f f9f1 52bf
00000180: e3e6 13bf 628f 053f fc1f 57bf 1733 3cbf
00000190: 8883 42bf f2e1 683f db7e 5bbf ba86 353f
000001a0: c3a9 0b3f b283 53bf a9fc 73bf 1d62 27bf
000001b0: 7cc3 16bf c494 3e3f 4d71 28bf 9dab 533f
000001c0: 18d1 aebf b5fe 5ebf 368d 5f3f f0c1 ee3e
000001d0: 8f5d 6a3f 636a 0d3f bdea 11bf a59e 113f
000001e0: 0455 263f 7fe8 223f 8457 69bf ae5a 77bf
000001f0: fb0b 7bbf 03d9 5dbf 2d59 32bf 5883 ff3e
0.6501088 0.5766043 1.2775259 -0.8465142 0.81368697 -0.8858172 0.5192884 -0.5169904
-0.59551716 -0.57529914 0.4953272 0.6889359 -0.7386191 0.8397575 0.8500439 0.5775986
-0.538487 0.7342738 0.68291575 -0.5187059 0.5612702 -1.2770299 1.2262536 -0.53366923
1.2482893 0.8966034 0.48470467 -0.51411355 -1.0218645 -0.6201192 -0.8627233 -0.5541222
0.541761 0.5509357 0.5756212 -0.5340563 -0.9995905 1.0280918 0.7718306 -0.47538766
0.8648136 -0.7257799 -0.7848012 -0.69310844 -0.42860737 -0.6435078 0.47824576 0.5212111
1.1077905 -0.54749095 -0.7472447 -1.0965878 -0.91253513 -0.8567055 -0.802036 -0.93461215
-0.56246924 0.93823385 -0.52202016 -0.51991117 0.5139942 0.87924904 -0.57923096 -0.73601687
-1.3086711 0.5418568 -0.6869683 0.656132 0.9222253 -0.7169757 0.8524605 -0.96079457
-0.50442976 0.48159018 -0.91431755 0.5319152 0.5828591 -0.55062807 -0.82066965 0.93528783
-0.6989372 -0.8924037 0.87946194 -0.53668964 -0.6056885 0.6217168 -0.5577987 -0.7866155
-1.2107619 -1.1800296 -0.57069117 -1.1315773 0.9013236 -0.812933 0.52691823 -0.8240047
-0.5777418 0.5217191 -0.8403318 -0.73515457 -0.7598195 0.90969765 -0.8574044 0.709087
0.5455591 -0.82622826 -0.95307404 -0.65384084 -0.58892035 0.7444575 -0.65797883 0.82683736
-1.365756 -0.871074 0.87324846 0.46632338 0.9154901 0.5524046 -0.5699881 0.568827
0.64973474 0.6363601 -0.91149163 -0.9662274 -0.98065156 -0.8665926 -0.6966732 0.49904895
