CatsMonsters/checkpoints/cats_actor_critic/policy_net_cat_monsters_actor_critic.pth (torch, 84849 bytes, 6 tensors)

fc1.weight f4 [128, 25]
0.10864134 -0.1898428 -0.16403289 -0.11662449 -0.18353933 0.14796086 -0.075011134 0.05635691
0.0065453276 0.13171059 0.10183622 -0.18781553 0.18157713 0.0068035363 -0.12672465 -0.26826656
-0.32618102 -0.042263962 -0.12591037 -0.024414305 -0.013358329 -0.13661408 -0.017240448 -0.120539725
-0.007278388 0.10875628 0.020377392 0.048709497 0.07488251 -0.26274672 -0.005468248 0.21205102
0.2546066 -0.02929594 -0.24378757 -0.12835945 0.19898224 -0.15540087 -0.05810101 0.13510174
-0.2665899 -0.049089685 0.10148781 0.043139465 -0.16553774 -0.11189692 0.15059723 0.060886778
0.1716284 0.0011010934 -0.14311567 -0.0045291567 -0.009101576 -0.15532438 -0.21264365 0.15494259
0.045320388 -0.0036291122 0.17294234 -0.044788223 0.0086133825 -0.082434416 -0.07997241 -0.006890154
0.06641485 -0.090416156 -0.24841997 0.0008178711 -0.21465293 -0.071532436 -0.03407639 0.05536546
-0.045525786 -0.081192926 -0.090763375 -0.10770544 0.06451267 0.12008605 -0.1115335 -0.004743846
-0.16998495 0.13976604 0.052465007 -0.016452815 -0.088484496 0.1451091 -0.1532064 0.08200204
0.03360906 0.17364371 0.2860083 0.023337314 -0.03285227 -0.07115875 0.046443496 -0.0760533
-0.0124372095 -0.20347612 -0.14656775 -0.14361331 0.18285789 0.03940079 0.05346369 0.14420253
0.041555002 0.1517311 -0.06000651 -0.21882264 -0.20630884 -0.07299793 -0.13184173 0.029901886
-0.18616407 0.16904835 0.06728428 0.3420665 -0.24786702 0.0860759 -0.13925302 -0.02027887
-0.06611575 -0.17692709 0.109788306 -0.12533894 -0.08334103 0.072750255 -0.013839916 0.14412825
0.08222324 0.19409616 -0.23438199 -0.10170888 0.12599 -0.23336661 0.025254041 -0.022857312
0.032318424 0.19475678 0.08923767 0.006461558 0.2590491 0.07895399 0.19594805 0.08231528
0.020409094 0.020903982 -0.0626756 -0.11451696 -0.15750907 -0.115704544 -0.08024281 0.029431578
-0.18486154 -0.18810536 -0.00860021 -0.13191433 -0.07907724 -0.04993065 0.0196407 -0.116872154
-0.09700176 -0.1531382 0.19879892 -0.018985583 -0.25640783 -0.16577762 0.16778372 -0.04626129
0.049285237 -0.03695412 -0.13845357 -0.013471304 -0.048472274 0.15393116 0.08538685 0.17201065
0.2575779 0.008701268 -0.0048929714 -0.11474663 -0.0034561283 -0.15241314 0.11171622 -0.2181419
0.22491182 -0.039015315 0.026212191 -0.18501988 0.052388858 0.17717525 0.10947312 0.19361797
0.02246132 0.054424983 0.09619728 -0.04645696 -0.09381774 -0.25585103 -0.21962103 -0.154703
-0.08460747 0.19601198 -0.1018535 0.07779588 -0.02892738 0.10996818 0.1730826 0.04618606
0.025326962 0.2532518 -0.080712244 -0.07808127 0.097840905 0.060230758 0.14305386 0.036329724
-0.26435655 0.15785687 0.11517723 0.16111729 0.1275072 -0.09819609 -0.17454232 0.014944754
-0.19735546 -0.024629466 0.045547612 0.1473289 -0.013883111 0.22797035 -0.18658158 0.17845398
0.06385546 0.10584274 0.23057227 0.083134174 -0.15676558 0.19405268 -0.17396365 0.07210072
-0.20988041 -0.18914495 -0.1649148 -0.04977602 0.09363334 -0.02844088 0.054344922 -0.16284719
-0.090582155 -0.082107976 0.04964547 0.16728166 0.209281 0.10270374 -0.045160495 -0.1582606
00000000: 5a7f de3d 2766 42be 3df8 27be d2d8 eebd
00000010: bcf1 3bbe 0d83 173e 709f 99bd 81d6 663d
00000020: 307a d63b 24df 063e 828f d03d b752 40be
00000030: 5bef 393e 33f0 de3b 1bc4 01be 3c5a 89be
00000040: 3301 a7be fa1c 2dbd a6ee 00be 8200 c8bc
00000050: e5dc 5abc 90e4 0bbe d73b 8dbc 88dd f6bd
00000060: 8b7f eebb 9dbb de3d 7dee a63c 9c83 473d
00000070: 005c 993d bd86 86be fd2e b3bb e723 593e
00000080: cc5b 823e 0afe efbc 73a3 79be a970 03be
00000090: 00c2 4b3e 6821 1fbe 53fb 6dbd 1c58 0a3e
000000a0: 797e 88be 4412 49bd d7d8 cf3d 02b3 303d
000000b0: ba82 29be 362a e5bd 2936 1a3e 6a64 793d
000000c0: 5bbf 2f3e 9052 903a ea8c 12be 5269 94bb
000000d0: c71e 15bc 5b0d 1fbe 42bf 59be 45a9 1e3e
000000e0: dfa1 393d 66d6 6dbb cc17 313e db73 37bd
000000f0: 251f 0d3c 60d3 a8bd 93c8 a3bd cdc6 e1bb
00000100: 8204 883d 1b2c b9bd ce61 7ebe 6766 563a
00000110: facd 5bbe 997f 92bd af93 0bbd e5c6 623d
00000120: 3f79 3abd 7a48 a6bd 26e2 b9bd ab94 dcbd
00000130: 381f 843d adef f53d ad6b e4bd 4472 9bbb
00000140: 8910 2ebe d41e 0f3e 8ce5 563d 0ec8 86bc
00000150: 5c37 b5bd 7b97 143e 23e2 1cbe b0f0 a73d
00000160: a7a9 093d a8cf 313e ae6f 923e e52d bf3c
00000170: 1a90 06bd aebb 91bd 893b 3e3d d5c1 9bbd
00000180: 70c5 4bbc 0b5c 50be db15 16be 5e0f 13be
00000190: 193f 3b3e b962 213d befc 5a3d d4a9 133e
000001a0: 9435 2a3d 665f 1b3e 63c9 75bd 0b13 60be
000001b0: a042 53be f07f 95bd 8501 07be cdf4 f43c
000001c0: cba1 3ebe 031b 2d3e 57cc 893d 5723 af3e
000001d0: dad0 7dbe 9048 b03d 5898 0ebe df1f a6bc
000001e0: b267 87bd 602c 35be b1d8 e03d da58 00be
000001f0: b4ae aabd 16fe 943d d1c0 62bc 5b96 133e
00000200: a864 a83d 25c1 463e d501 70be bf4c d0bd
00000210: 8603 013e a8f7 6ebe 90e1 ce3c 423f bbbc
00000220: 5360 043d 526e 473e 3dc2 b63d 7abb d33b
00000230: 15a2 843e a1b2 a13d 9ba6 483e ea94 a83d
00000240: f930 a73c d43e ab3c 115c 80bd de87 eabd
00000250: 0f4a 21be 81f6 ecbd 5856 a4bd 7e1a f13c
00000260: 584c 3dbe b19e 40be e5e7 0cbc 8d14 07be
00000270: 3ff3 a1bd 1584 4cbd 89e5 a03c ab5a efbd
00000280: dca8 c6bd 43d0 1cbe f291 4b3e a787 9bbc
00000290: e347 83be 9cc1 29be 7fcf 2b3e 7a7c 3dbd
000002a0: 51df 493d 345d 17bd c6c6 0dbe bfb6 5cbc
000002b0: dd8a 46bd 21a0 1d3e 4ddf ae3d 8f23 303e
000002c0: 40e1 833e c38f 0e3c 3855 a0bb 4800 ebbd
000002d0: 3680 62bb 3112 1cbe 79cb e43d 9760 5fbe
000002e0: 494f 663e 86ce 1fbd f3ba d63c da75 3dbe
000002f0: b395 563d 6e6d 353e 7133 e03d ca43 463e
00000300: cd00 b83c bbec 5e3d 1403 c53d a749 3ebd
00000310: 8423 c0bd e8fe 82be 56e4 60be 776a 1ebe
00000320: ae46 adbd 5db7 483e 9198 d0bd 7253 9f3d
00000330: 1df9 ecbc ff36 e13d 913c 313e 982d 3d3d
00000340: 7d7a cf3c 38aa 813e 764c a5bd 13e9 9fbd
00000350: d060 c83d 87b4 763d b67c 123e 7ace 143d
00000360: be59 87be 3ba5 213e 0ae2 eb3d eefb 243e
00000370: 3f91 023e 081b c9bd 39bb 32be d7da 743c
00000380: 8d17 4abe bcc3 c9bc 2290 3a3d 63dd 163e
00000390: fd75 63bc 0f71 693e 3e0f 3fbe a4bc 363e
000003a0: a7c6 823d 14c4 d83d 231b 6c3e 4042 aa3d
000003b0: 2887 20be bfb5 463e 8723 32be 8ba9 933d
000003c0: e4ea 56be 37af 41be 6ddf 28be f1e1 4bbd
000003d0: d6c2 bf3d d9fc e8bc c898 5e3d 6ac1 26be
000003e0: 2383 b9bd 3a28 a8bd 0c59 4b3d e24b 2b3e
000003f0: c24d 563e 5756 d23d 36fa 38bd 110f 22be

fc1.bias f4 [128]
0.16531834 -0.04951408 0.042691216 -0.020621443 -0.07511021 -0.036889102 -0.0040798164 0.018446336
0.028362142 0.18922393 0.06861341 -0.024051128 0.10358313 -0.10068472 0.027664818 -0.06675643
-0.057105973 0.0968108 -0.0466252 0.11810323 -0.100472584 -0.21051201 -0.065404415 -0.13299738
-0.1353211 -0.05763855 0.06608684 -0.10939322 -0.16932741 0.09957662 0.14677744 -0.14062265
0.087680504 0.11437295 0.04329619 -0.1213197 0.045642897 0.018753104 -0.04389506 0.10218683
0.15750967 -0.07226007 -0.19318265 -0.19842778 0.03431417 -0.11084389 -0.12541075 -0.11834141
-0.015501335 -0.1363025 0.14544658 0.011224411 0.20335643 -0.0016141692 0.02358775 0.011051164
-0.12423971 -0.067229435 -0.15240532 0.044667322 0.021296978 -0.14779314 0.081074595 0.11775751
-0.161924 0.09015823 0.10429586 0.17277499 0.039587244 0.019936724 0.017653765 0.12816638
0.046856385 -0.07162265 -0.12670088 -0.058625743 0.1134709 0.025399273 -0.07129608 0.06838951
0.0054450086 0.019272266 -0.06736143 0.17931153 -0.09721785 -0.039505247 0.020370554 -0.11000436
0.105156004 -0.14451592 0.17322576 -0.03350202 -0.06148837 0.08853489 -0.15819134 0.0025207319
0.013962731 0.097085424 0.17336519 0.032835133 -0.10667833 -0.22233304 -0.12900427 -0.13619766
-0.06117769 0.035658885 0.17525952 0.0435268 -0.02695001 0.006461276 -0.016872397 0.10071102
0.12533477 0.11298665 0.16565663 0.123362795 -0.15571731 0.021261895 -0.14784102 0.13773175
-0.1088441 0.05716734 0.19170485 0.23265795 0.12006049 0.07189897 -0.04578544 -0.09271738
00000000: 3649 293e 47cf 4abd fcdc 2e3d 4dee a8bc
00000010: 62d3 99bd 0719 17bd fbaf 85bb c51c 973c
00000020: b957 e83c ebc3 413e 3085 8c3d df06 c5bc
00000030: 6423 d43d ca33 cebd 54a1 e23c 98b7 88bd
00000040: f4e7 69bd be44 c63d 11fa 3ebd 1be0 f13d
00000050: 92c4 cdbd 7690 57be c0f2 85bd 7730 08be
00000060: 9d91 0abe 6616 6cbd 8a58 873d 8d09 e0bd
00000070: 2a64 2dbe d4ee cb3d d34c 163e 62ff 0fbe
00000080: d691 b33d 5d3c ea3d 5957 313d 7676 f8bd
00000090: 0cf4 3a3d 1ca0 993c 4ecb 33bd 5447 d13d
000000a0: 374a 213e 16fd 93bd acd1 45be a730 4bbe
000000b0: 048d 0c3d 1f02 e3bd ad6b 00be fb5c f2bd
000000c0: 50f9 7dbc e292 0bbe f3ef 143e 98e6 373c
000000d0: ab3c 503e 8892 d3ba 193b c13c f10f 353c
000000e0: 6471 febd 96af 89bd 2410 1cbe 15f5 363d
000000f0: 0077 ae3c 1657 17be 700a a63d d92a f13d
00000100: 68cf 25be e1a4 b83d 1199 d53d edeb 303e
00000110: 3c26 223d 5752 a33c a19e 903c 0c3e 033e
00000120: 7bec 3f3d e5ae 92bd e0bd 01be 8c21 70bd
00000130: 6e63 e83d 2312 d03c ae03 92bd cd0f 8c3d
00000140: 0b6c b23b dfe0 9d3c caf4 89bd 719d 373e
00000150: 271a c7bd 41d0 21bd 26e0 a63c f749 e1bd
00000160: 085c d73d fbfb 13be 1862 313e 6a39 09bd
00000170: 3bdb 7bbd c851 b53d e9fc 21be dd32 253b
00000180: f0c3 643c b9d4 c63d a586 313e 227e 063d
00000190: 2b7a dabd 46ab 63be b219 04be 6677 0bbe
000001a0: 7595 7abd 0d0f 123d 3b77 333e 2849 323d
000001b0: 44c6 dcbc 1db9 d33b fb37 8abc 9441 ce3d
000001c0: c257 003e 8b65 e73d e4a1 293e a2a5 fc3d
000001d0: 5c74 1fbe 6d2d ae3c a363 17be 8d09 0d3e
000001e0: a8e9 debd 4d28 6a3d 474e 443e e33d 6e3e
000001f0: 46e2 f53d c43f 933d 8389 3bbd 9ce2 bdbd

fc2.weight f4 [128, 128]
-0.13490081 -0.152542 -0.09998103 0.12934719 -0.06200082 0.06874367 -0.06624116 0.0057127015
-0.100891806 0.0051566865 0.00023315179 0.057579268 -0.03776773 0.062419485 -0.17151281 0.097363584
0.09452405 0.11015984 0.04432252 -0.12663087 0.033553265 0.18501735 0.21862704 0.08521105
-0.11668229 0.049928766 -0.0048199054 -0.06519225 0.19634897 0.046610177 -0.1103486 -0.052430097
-0.01912202 -0.19880252 -0.07098505 0.022647247 0.2022797 0.085847706 0.11596963 0.009086547
-0.038033035 -0.026472049 0.0027319218 0.1161088 -0.14363329 0.014419591 -0.024486687 -0.06559341
-0.090407394 -0.0023163427 -0.23364091 0.066469334 -0.078415655 -0.02162541 0.05608904 -0.1285319
-0.10297243 0.022568518 -0.095411755 0.037919007 0.021257613 -0.19819735 0.125726 -0.10058046
0.07320804 -0.05321965 0.16033188 -0.029805494 -0.0047760224 0.056638397 0.18490972 0.036676016
-0.110699676 0.1171341 0.10712941 -0.036446713 0.05377492 0.018221088 -0.17707723 -0.07532107
0.10808749 0.015323735 -0.17755802 -0.14020047 -0.004399463 0.046935678 -0.038810592 0.041789792
-0.058965098 0.073189 -0.036457382 -0.07209203 -0.056162685 -0.09634283 -0.0293803 -0.24179418
-0.04253557 -0.034019828 0.032246403 0.028264625 0.008565899 0.14441955 0.0040402072 0.05219174
-0.052294403 0.21994992 -0.02767169 0.113545254 0.1339136 -0.055289887 0.0008188882 -0.04337939
-0.017898543 -0.060626224 -0.03904474 0.0822943 0.002129282 -0.12555115 0.11066489 0.058899913
-0.008367469 0.015617474 -0.1718152 -0.0064579486 -0.15265076 -0.13621546 -0.16003975 0.09917284
0.12003901 0.011467857 0.043450728 -0.045634374 0.02388018 -0.13300708 -0.0010971833 -0.15170775
0.11254706 0.07592664 -0.09093193 0.15667878 -0.04911525 -0.11908177 0.029534366 -0.14576861
0.029098015 0.089302115 0.05638366 0.08816408 0.018253366 0.00053138373 -0.06809096 0.02127337
0.066554554 -0.16599342 -0.04392528 0.09705614 -0.12224831 0.20164663 -0.058575712 -0.04053956
0.08312908 0.046816066 0.106102765 -0.0009953819 -0.08869369 -0.07147038 0.10266861 0.07883844
0.11835761 0.053959366 0.07125991 0.15338041 0.044713847 -0.16778891 -0.043020874 0.03025673
-0.14959638 -0.049655177 0.0724374 -0.009615653 -0.06551616 0.04412201 -0.03113878 -0.07829287
-0.06376697 -0.053373393 0.080778725 -0.08836642 0.07363834 -0.029746924 0.058367845 0.025490858
-0.06241688 -0.08113632 -0.15315986 0.053986058 -0.11340107 0.06812969 -0.1580013 0.050753843
-0.07990042 -0.11283398 0.05673189 0.0078024943 0.010827626 -0.12512562 0.076422535 -0.060270283
0.034890022 0.0052894354 0.08607113 -0.07022721 -0.011911255 -0.07810438 0.14793122 -0.029623864
-0.00085996144 -0.023651348 0.014051951 0.20350753 0.1578593 -0.03446306 -0.09689603 0.03881684
0.06688495 -0.031189164 0.01093357 0.13333613 -0.051854953 0.02811135 0.048647948 0.03214079
0.016119115 -0.009652892 0.022343256 0.052918654 -0.13349341 -0.07884484 -0.12305585 -0.03828249
0.033758484 -0.02580529 0.018128045 -0.03307666 -0.015580079 0.024324227 -0.10025669 0.013542499
-0.07282075 -0.12336504 0.10183403 -0.09153629 -0.0317071 -0.045242704 -0.02389841 0.1003632
00000000: 7023 0abe f833 1cbe dbc2 ccbd 9773 043e
00000010: 92f4 7dbd 7bc9 8c3d 72a9 87bd 9d31 bb3b
00000020: 5da0 cebd 6cf9 a83b 357a 7439 3dd8 6b3d
00000030: 56b2 1abd 93ab 7f3d 0ea1 2fbe 8f66 c73d
00000040: d395 c13d 7b9b e13d 888b 353d 86ab 01be
00000050: 266f 093d 3075 3d3e c4df 5f3e 2283 ae3d
00000060: 20f7 eebd 1b82 4c3d 4cf0 9dbb 8483 85bd
00000070: b40f 493e 50ea 3e3d 72fe e1bd f1c0 56bd
00000080: c8a5 9cbc e392 4bbe 9c60 91bd b886 b93c
00000090: 6922 4f3e ecd0 af3d 7c81 ed3d bedf 143c
000000a0: 87c8 1bbd e9db d8bc 0b0a 333b 73ca ed3d
000000b0: 9b14 13be 2640 6c3c 4e98 c8bc d655 86bd
000000c0: 8327 b9bd c8cd 17bb 903f 6fbe 1321 883d
000000d0: 6398 a0bd c627 b1bc 9fbd 653d de9d 03be
000000e0: 36e3 d2bd 9de1 b83c 3d67 c3bd f650 1b3d
000000f0: 7224 ae3c 3ff4 4abe 51be 003e 21fd cdbd
00000100: 19ee 953d d9fc 59bd 0a2e 243e a72a f4bc
00000110: 2e80 9cbb aafd 673d f958 3d3e 9739 163d
00000120: 83b6 e2bd 01e4 ef3d aa66 db3d 2649 15bd
00000130: 1743 5c3d 6444 953c bc53 35be ef41 9abd
00000140: f95c dd3d 6710 7b3c c5d1 35be b690 0fbe
00000150: 5f29 90bb a03f 403d dbf7 1ebd c62b 2b3d
00000160: 6385 71bd 1de4 953d 5654 15bd fca4 93bd
00000170: d80a 66bd 644f c5bd f4ae f0bc e598 77be
00000180: c739 2ebd 6058 0bbd ce14 043d 378b e73c
00000190: fc57 0c3c b8e2 133e b763 843b 02c7 553d
000001a0: a832 56bd 8d3a 613e bdaf e2bc 6a8a e83d
000001b0: a620 093e a677 62bd a8aa 563a 96ae 31bd
000001c0: f79f 92bc 3453 78bd 61ed 1fbd ea89 a83d
000001d0: 6d8b 0b3b 7b90 00be 46a4 e23d 0941 713d
000001e0: b517 09bc 6fe0 7f3c 53f0 2fbe 339d d3bb
000001f0: 7b50 1cbe 117c 0bbe 76e1 23be 211b cb3d
00000200: 03d7 f53d aee3 3b3c 64f9 313d 1ceb 3abd
00000210: 5ea0 c33c 0233 08be 5dcf 8fba 4759 1bbe
00000220: 137f e63d 6d7f 9b3d 853a babd 6770 203e
00000230: 132d 49bd 25e1 f3bd 0ef2 f13c 5e44 15be
00000240: f65e ee3c 07e4 b63d 8df2 663d 5f8f b43d
00000250: 1588 953c 8f4c 0b3a 4673 8bbd 7e45 ae3c
00000260: c14d 883d 2efa 29be ffea 33bd 5fc5 c63d
00000270: 525d fabd 747c 4e3e 16ed 6fbd cf0c 26bd
00000280: 943f aa3d 34c2 3f3d 684c d93d 7977 82ba
00000290: 0aa5 b5bd 105f 92bd ec43 d23d 0c76 a13d
000002a0: 7a65 f23d 7f04 5d3d b7f0 913d c10f 1d3e
000002b0: de25 373d dbd0 2bbe a836 30bd f6dc f73c
000002c0: cb2f 19be 3a63 4bbd 0f5a 943d f98a 1dbc
000002d0: 562d 86bd 48b9 343d c116 ffbc 0358 a0bd
000002e0: 4298 82bd 0f9e 5abd 516f a53d 74f9 b4bd
000002f0: b3cf 963d d2af f3bc 1f13 6f3d 34d2 d03c
00000300: d8a8 7fbd cd2a a6bd f0d5 1cbe 7c20 5d3d
00000310: d23e e8bd 9487 8b3d 18cb 21be 43e3 4f3d
00000320: d5a2 a3bd 8015 e7bd b35f 683d 11ac ff3b
00000330: 5b66 313c ee20 00be 6b83 9c3d f9dd 76bd
00000340: d7e8 0e3d 0053 ad3b 1046 b03d 49d3 8fbd
00000350: 6d27 43bc 30f5 9fbd 487b 173e bfad f2bc
00000360: 096f 61ba 79c0 c1bc 273a 663c 4764 503e
00000370: dea5 213e 2329 0dbd 6d71 c6bd 68fe 1e3d
00000380: fafa 883d 6b80 ffbc b722 333c 4489 083e
00000390: dc65 54bd c649 e63c 1243 473d 10a6 033d
000003a0: 3c0c 843c 2a27 1ebc 3409 b73c 3bc1 583d
000003b0: 7fb2 08be 6779 a1bd b504 fcbd 1ace 1cbd
000003c0: 5646 0a3d 9e65 d3bc 4481 943c 647b 07bd
000003d0: 9643 7fbc 9a43 c73c 6153 cdbd 5ce1 5d3c
000003e0: 0c23 95bd cfa6 fcbd 5c8e d03d 6177 bbbd
000003f0: 4edf 01bd 6a50 39bd 99c6 c3bc 398b cd3d

fc2.bias f4 [128]
-0.041546963 0.004479281 -0.071073614 -0.034872346 0.023157971 0.0007015417 0.0625108 0.04030271
-0.060311593 -0.04961016 -0.0663812 0.09571024 0.07063686 0.00931387 -0.021933012 0.037767727
0.060779553 -0.0599691 0.04986097 0.04867554 -0.055900604 0.08581957 0.066131026 0.05429729
0.018588375 -0.0432035 0.007514803 -0.0152309295 0.0053593675 0.008078937 -0.04691319 0.045725673
-0.06905242 -0.049551528 0.037892792 -0.07069054 0.02272597 -0.09305069 0.06566135 -0.06546083
-0.021905268 0.040714867 0.06083898 0.0093567185 -0.042070385 0.041468386 0.020428618 -0.053425953
0.10543917 0.0048671514 0.009073314 -0.016758397 -0.010338932 -0.0011815543 -0.02499647 -0.046562683
-0.055517044 -0.06605719 0.083782256 -0.08046067 0.030934727 -0.027818192 -0.052791014 0.028374227
-0.05400416 0.10443032 0.040757626 -0.0005029765 -0.05803433 0.010367829 -0.0031910983 -0.034946438
0.05159248 0.050610945 0.06545009 0.06662969 -0.020171806 -0.040683217 0.0042003454 -0.044652462
0.043650217 -0.056196086 0.057098914 -0.0857433 -0.025557825 0.00656347 -0.0625594 -0.010835682
-0.053134937 -0.063129626 0.09102947 0.047082078 -0.03487722 0.039861206 0.083604254 0.04015349
0.08231965 -0.00024394035 -0.07856947 -0.059994217 -0.0040047285 0.010766663 0.06797961 -0.05099461
-0.04506164 0.053444244 0.014246391 -0.027181169 -0.007480231 -0.002311399 0.03130589 0.08902897
-0.041157782 0.03292135 0.052556287 -0.018565372 -0.021638976 0.07248294 0.049388185 -0.042425025
-0.07876247 -0.07470982 0.062096298 0.04803508 0.042168193 -0.032986548 0.025338503 -0.027280899
00000000: 262d 2abd efc6 923b 0b8f 91bd 4ed6 0ebd
00000010: c9b5 bd3c abe7 373a aa05 803d 7414 253d
00000020: 4a09 77bd 0634 4bbd def2 87bd bb03 c43d
00000030: 0faa 903d 3499 183c dcac b3bc 55b2 1a3d
00000040: fbf3 783d 29a2 75bd 043b 4c3d 0160 473d
00000050: 08f8 64bd 2cc2 af3d b46f 873d d666 5e3d
00000060: a646 983c 27f6 30bd bd3e f63b 268b 79bc
00000070: a29d af3b 855d 043c 0c28 40bd d84a 3b3d
00000080: 5b6b 8dbd 8bf6 4abd 7935 1b3d 34c6 90bd
00000090: d02b ba3c 5c91 bebd 7579 863d 5410 86bd
000000a0: ad72 b3bc a2c4 263d 4b32 793d ec4c 193c
000000b0: ff51 2cbd c1da 293d eb59 a73c 2cd5 5abd
000000c0: 7ef0 d73d a07c 9f3b 3da8 143c e848 89bc
000000d0: a064 29bc 62de 9aba 66c5 ccbc 83b8 3ebd
000000e0: d765 63bd fe48 87bd 0896 ab3d 90c8 a4bd
000000f0: d36a fd3c fae2 e3bc 643b 58bd 1171 e83c
00000100: 7733 5dbd 90df d53d 78f1 263d 2eda 03ba
00000110: 68b5 6dbd d4dd 293c bf21 51bb ff23 0fbd
00000120: a352 533d 6c4d 4f3d b20a 863d 2675 883d
00000130: 583f a5bc 72a3 26bd 0da3 893b 80e5 36bd
00000140: 92ca 323d de2d 66bd 8de0 693d 2f9a afbd
00000150: a55e d1bc 6012 d73b 251f 80bd 2588 31bc
00000160: 05a4 59bd 1b4a 81bd a96d ba3d 23d9 403d
00000170: 6adb 0ebd 8145 233d b538 ab3d fc77 243d
00000180: 3497 a83d 3dca 7fb9 08e9 a0bd 7fbc 75bd
00000190: 193a 83bb a866 303c e538 8b3d b9df 50bd
000001a0: 8e92 38bd 5ae8 5a3d b269 693c 0bab debc
000001b0: ba1c f5bb d77a 17bb 9b3a 003d d254 b63d
000001c0: 1095 28bd 8ad8 063d 4345 573d 6816 98bc
000001d0: 3944 b1bc f071 943d 444b 4a3d ddc5 2dbd
000001e0: 384e a1bd 7601 99bd b058 7e3d 6fc0 443d
000001f0: 8eb8 2c3d e71c 07bd b192 cf3c 317c dfbc

fc3.weight f4 [4, 128]
0.22475152 -0.0035362234 -0.0064120824 -0.18385592 0.05985848 0.06144613 0.14573827 -0.007492306
-0.07859337 -0.045564994 -0.14983544 -0.09766927 -0.0014819786 -0.24804996 -0.076404996 -0.1522525
-0.20064752 0.18461305 0.096633635 0.17482579 -0.14990646 0.06710508 -0.119559854 -0.12815331
0.1650107 0.04020902 -0.15514314 -0.035509553 0.040530153 0.10232397 -0.12154219 0.09382075
-0.11813794 0.08068547 -0.10958212 0.12294694 0.12015831 0.08824291 0.27650568 0.18293744
-0.15064901 -0.08959897 0.13876878 0.11226686 0.17806247 0.24062575 0.13641784 0.15498628
-0.032506146 0.23380986 -0.16308191 0.11604884 0.18362758 0.102197796 0.11876862 0.15731417
-0.18965195 0.06432219 0.008853999 -0.088992506 0.19622248 -0.28546572 0.10040127 -0.12243746
-0.020374052 -0.18333258 -0.19005288 -0.053080004 -0.20825154 -0.29824433 -0.16044447 -0.1666163
0.119313955 -0.05428873 -0.060304817 -0.11142239 -0.11634945 0.14760053 -0.1372917 0.15258875
0.043027513 0.017299494 -0.22062612 -0.12487693 0.16476169 0.2228755 -0.17122485 0.15535957
-0.13664466 -0.07014738 0.07960425 -0.14233766 -0.18723425 -0.13041505 -0.116345994 0.15503085
0.1013086 -0.057289958 -0.06703722 -0.13975406 -0.0051070433 0.15724254 0.15427935 0.12252146
0.10671815 0.14183548 -0.16067624 -0.12991282 0.015128729 0.10189841 -0.14423275 -0.140731
0.06451986 -0.11340782 0.1503755 0.0775487 0.093966596 -0.16654384 -0.23659308 -0.03896819
-0.1566099 -0.01098624 0.020441853 0.2310785 -0.13031435 0.020718828 -0.00020398843 -0.06173762
-0.11787593 -0.07070106 -0.09379202 0.095810056 -0.24712397 0.21928407 -0.13307387 -0.0003775151
-0.20300792 0.08633483 -0.07816387 0.1992886 0.19667205 0.15883096 -0.17250665 0.24348345
0.13950117 -0.18672073 0.14085762 -0.12622605 -0.07771934 0.17554387 -0.053451616 -0.02672176
0.002280164 0.20445815 -0.021130621 -0.12615743 -0.1609999 0.011566901 0.16427787 -0.18496472
0.07243583 -0.19640186 -0.08398412 0.0016749096 -0.20571098 -0.12885605 0.03488717 -0.1804036
0.062227692 0.2032855 -0.0013037927 -0.20676367 -0.019861745 -0.14909746 -0.058316145 0.1280025
0.21351896 -0.1851214 0.21021873 -0.21782044 -0.017005596 0.089381024 -0.024261128 -0.1837505
0.01471129 -0.1466708 0.12568527 -0.08591407 -0.1784743 0.09785685 -0.11472772 0.17127974
-0.13723615 0.19807908 0.20167293 -0.18514642 0.047620635 0.09089827 0.20377247 0.093270205
-0.083452374 -0.10906124 0.2075521 0.18551797 -0.10204589 0.04158385 0.15083732 -0.02154465
0.13782924 0.09307604 0.16446733 -0.009474776 -0.18327014 -0.03421082 -0.043569185 -0.13396014
0.1049729 0.16913185 0.18787414 0.2023231 0.08354686 0.14737783 0.1430932 -0.13388419
0.012035379 0.2025427 0.026887277 -0.11015645 0.2270496 -0.039355796 0.11522486 0.036153056
-0.18796098 -0.23866637 0.019460054 -0.11796114 -0.21327393 0.0305693 0.21638098 0.20056923
-0.07105625 0.011970302 -0.17427246 -0.16739574 0.010789059 0.19563809 0.09304834 0.21212149
0.17564498 -0.10634088 -0.10952457 0.030150995 -0.17440856 0.07691994 -0.13896793 0.07445091
00000000: 4325 663e fcbf 67bb 721c d2bb ba44 3cbe
00000010: 2a2e 753d f0ae 7b3d 6a3c 153e 0582 f5bb
00000020: 90f5 a0bd 5ca2 3abd 766e 19be d406 c8bd
00000030: f33e c2ba cf00 7ebe 397a 9cbd 14e8 1bbe
00000040: 8b76 4dbe 340b 3d3e dbe7 c53d 8805 333e
00000050: 1481 19be 636e 893d ccdb f4bd 9f3a 03be
00000060: 91f8 283e 37b2 243d d8dd 1ebe 7772 11bd
00000070: f202 263d 3b8f d13d 1deb f8bd 1825 c03d
00000080: 4ef2 f1bd 6c3e a53d 976c e0bd 9bcb fb3d
00000090: 8f15 f63d b3b8 b43d 2792 8d3e f453 3b3e
000000a0: bc43 1abe aa7f b7bd 6719 0e3e 2bec e53d
000000b0: 0256 363e 9966 763e 1eb1 0b3e b9b4 1e3e
000000c0: 2a25 05bd da6b 6f3e f2fe 26be 04ab ed3d
000000d0: de08 3c3e 144d d13d f63c f33d f716 213e
000000e0: 1f34 42be 5abb 833d 5d10 113c b441 b6bd
000000f0: 8cee 483e 9028 92be 2e9f cd3d 7ec0 fabd
00000100: 7ce7 a6bc 89bb 3bbe 399d 42be 6b6a 59bd
00000110: e43f 55be 7bb3 98be 8e4b 24be 779d 2abe
00000120: e05a f43d dc5d 5ebd 2f02 77bd 6c31 e4bd
00000130: 9f48 eebd 9824 173e 3296 0cbe 3a40 1c3e
00000140: 9e3d 303d abb7 8d3c d0eb 61be 7abf ffbd
00000150: 4ab7 283e 7a39 643e 9155 2fbe 9416 1f3e
00000160: 94ec 0bbe 6ea9 8fbd 8e07 a33d f7c0 11be
00000170: 56ba 3fbe 868b 05be cf46 eebd 68c0 1e3e
00000180: e27a cf3d e0a8 6abd cf4a 89bd b01b 0fbe
00000190: fc58 a7bb 3004 213e 68fb 1d3e 88ec fa3d
000001a0: 0c8f da3d 523d 113e 5088 24be de07 05be
000001b0: 7dde 773c 1db0 d03d c0b1 13be ca1b 10be
000001c0: fd22 843d 5c42 e8bd 09fc 193e dad1 9e3d
000001d0: 8f71 c03d 788a 2abe 7545 72be 1c9d 1fbd
000001e0: 585e 20be a1ff 33bc ac75 a73c d89f 6c3e
000001f0: 2071 05be 88ba a93c bae5 55b9 96e0 7cbd
00000200: f068 f1bd b8cb 90bd 0816 c0bd 1038 c43d
00000210: 110e 7dbe 018c 603e 8444 08be 38ed c5b9
00000220: 4fe1 4fbe 51d0 b03d 6114 a0bd 5012 4c3e
00000230: 6664 493e 95a4 223e 95a5 30be ba53 793e
00000240: 65d9 0e3e b833 3fbe fb3c 103e 6741 01be
00000250: 512b 9fbd c6c1 333e 15f0 5abd 98e7 dabc
00000260: ce6e 153b 7a5d 513e 201a adbc 6a2f 01be
00000270: 28dd 24be 1983 3d3c 7538 283e 6467 3dbe
00000280: 3d59 943d 921d 49be deff abbd a488 db3a
00000290: e6a5 52be d7f2 03be d9e5 0e3d b9bb 38be
000002a0: 77e2 7e3d 132a 503e 06e4 aaba dbb9 53be
000002b0: 19b5 a2bc 01ad 18be e9dc 6ebd 1613 033e
000002c0: b7a4 5a3e 7790 3dbe 9443 573e 520c 5fbe
000002d0: 524f 8bbc 660d b73d 46bf c6bc 1729 3cbe
000002e0: 9f07 713c df30 16be a4b3 003e b7f3 afbd
000002f0: f8c1 36be 2c69 c83d 5ef6 eabd f563 2f3e
00000300: a287 0cbe 3ed5 4a3e 5983 4e3e 0697 3dbe
00000310: db0d 433d df28 ba3d bba9 503e 7304 bf3d
00000320: 14e9 aabd 805b dfbd 8a88 543e 6cf8 3d3e
00000330: 70fd d0bd d453 2a3d 1975 1a3e 687e b0bc
00000340: 1c23 0d3e a79e be3d 206a 283e 173c 1bbc
00000350: 2bab 3bbe a520 0cbd 9a75 32bd d92c 09be
00000360: 08fc d63d e630 2d3e 1462 403e c92d 4f3e
00000370: 9e1a ab3d 37ea 163e 0687 123e f018 09be
00000380: 0a30 453c 5b67 4f3e b542 dc3c b499 e1bd
00000390: b17f 683e 8b33 21bd 03fb eb3d 3a15 143d
000003a0: d878 40be f564 74be b16a 9f3c 9c95 f1bd
000003b0: 7b64 5abe 786c fa3c fa92 5d3e 0562 4d3e
000003c0: f085 91bd 161f 443c 7b74 32be ca69 2bbe
000003d0: 98c4 303c 5a55 483e 2190 be3d 6036 593e
000003e0: 47dc 333e 3fc9 d9bd 6b4e e0bd 38ff f63c
000003f0: 2898 32be 3488 9d3d 9c4d 0ebe b879 983d

fc3.bias f4 [4]
-0.059223253 0.06680643 -0.030971706 -0.051125772
00000000: 1594 72bd cfd1 883d 60b8 fdbc 4269 51bd
