CatsMonsters/checkpoints/cats_actor_critic/value_net_cat_monsters_actor_critic.pth (torch, 83301 bytes, 5 tensors)

fc1.weight f4 [128, 25]
0	0x3d42a082	0.047516353
1	0x3dc71634	0.09721032
2	0xbe2850ca	-0.16437069
3	0xbc2c855f	-0.010529845
4	0xbd840d70	-0.064478755
5	0x3d1f95a9	0.038961086
6	0x3de90219	0.11377353
7	0xbd737f40	-0.059447527
8	0x3c7c4d05	0.015399222
9	0xbc0bc0f5	-0.008529891
10	0x3e07bec2	0.13256362
11	0xbcad4ccd	-0.021154786
12	0xbd27dd6d	-0.040982652
13	0x3e33d968	0.17563403
14	0x3d84b241	0.06479312
15	0xbdec1aa0	-0.11528516
16	0x3dc39e9f	0.09551739
17	0xbde0d730	-0.10978544
18	0x3e43070a	0.19045654
19	0x3dfde58d	0.12397299
20	0x3dc16ffd	0.09445188
21	0xbdf30733	-0.118666075
22	0x3e066699	0.13125075
23	0x3d7e708d	0.062119056
24	0xbd94e360	-0.07269931
25	0x3d1df8a1	0.03856719
26	0xbd30f4d3	-0.043202233
27	0xbdcdf710	-0.10056889
28	0xbe18f03c	-0.14935392
29	0xbc21c3f5	-0.00987338
30	0xbc9b5036	-0.018959146
31	0xbe4c7242	-0.19965461
32	0x3d70176c	0.058616087
33	0xbe1b4be3	-0.15165667
34	0xbdfb5654	-0.12272325
35	0x3d47ca9d	0.04877721
36	0x3e444edf	0.19170712
37	0x3d3d56a7	0.046225216
38	0xbba6fa9a	-0.005095792
39	0x3c93bc03	0.018033987
40	0xbe3fdaa4	-0.18735749
41	0xbe25b0d7	-0.1618074
42	0x3d91be87	0.07116418
43	0x3e369522	0.17830327
44	0x3da17996	0.07884519
45	0x3e0a8523	0.1352735
46	0xbdf761a3	-0.120791696
47	0xbddc97de	-0.10771154
48	0x3df384d1	0.11890567
49	0x3e400941	0.1875353
50	0xbdf753cb	-0.12076529
51	0xbe281594	-0.16414481
52	0x3e56a501	0.20961381
53	0xbcf5a129	-0.029984074
54	0xbe5678ef	-0.2094457
55	0x3e15bdae	0.14623138
56	0xbdb1639b	-0.08661576
57	0x3e2e2ebe	0.17010018
58	0x3c456a4a	0.012049267
59	0xbe20a121	-0.15686466
60	0xbb778dc3	-0.0037773706
61	0x3e35f5ad	0.17769499
62	0x3bb03800	0.0053777695
63	0xbd383727	-0.044974472
64	0xbe566ffb	-0.20941155
65	0xbb172bd2	-0.002306689
66	0x3daa718f	0.08322441
67	0x3e265068	0.1624161
68	0xbd8ccb21	-0.06874681
69	0xbe2215f8	-0.15828693
70	0x3e1288d6	0.14310011
71	0xbe4e5309	-0.20148863
72	0x3dc35ecd	0.09539566
73	0x3cca8cee	0.024725404
74	0x3d9a8098	0.075440586
75	0x3e6aed97	0.22942196
76	0x3d422b69	0.04740468
77	0x3e70e46b	0.23524635
78	0x3e59ea87	0.21280871
79	0x3dd0c460	0.101937056
80	0x3e538d69	0.20659412
81	0xbe2592a8	-0.16169226
82	0x3e54e001	0.20788576
83	0x3e3fdc52	0.1873639
84	0x3d805b9d	0.06267474
85	0x3e7aaab8	0.24479187
86	0xbc4bc7e7	-0.012437797
87	0xbe1c5c77	-0.15269648
88	0x3c58789a	0.013212347
89	0xbe856b6b	-0.26058516
90	0x3d1325da	0.03592477
91	0x3d25a7a4	0.040443078
92	0xbe47d5ad	-0.19515105
93	0xbe1d2b46	-0.15348539
94	0xbe099e6a	-0.13439336
95	0xbda4d8c3	-0.080491565
96	0x3e3f0efe	0.18658063
97	0x3bdb7835	0.0066976794
98	0x3c514784	0.012773398
99	0x3cff3122	0.031151358
100	0x3e09b33c	0.13447279
101	0x3d4f2f35	0.05058213
102	0x3e62ccb9	0.22148408
103	0x3dab2543	0.083567165
104	0x3e145af0	0.14487815
105	0x3e696a26	0.22794399
106	0xbddddd91	-0.10833276
107	0x3e430199	0.19043578
108	0xbd86e2ff	-0.06586265
109	0xbdf1bab5	-0.1180319
110	0x3e393814	0.18087798
111	0x3e35f862	0.17770532
112	0xbc7715e7	-0.0150809055
113	0x3e0f8cc3	0.1401854
114	0xbd2502f7	-0.04028603
115	0x3e859801	0.26092532
116	0x3db99a73	0.09062662
117	0xbdfa9497	-0.122353725
118	0xbe056919	-0.13028373
119	0xbe2fe251	-0.17176177
120	0xbe106b0b	-0.14103334
121	0xbdf9fc93	-0.12206378
122	0xbe589375	-0.2115
123	0xbd928bf7	-0.071556024
124	0x3d64bd9b	0.055844884
125	0x3d5c92e3	0.05385102
126	0x3d823fe0	0.063598394
127	0xbcfc23b6	-0.030778747
128	0x3e1650c1	0.14679243
129	0xbe20c966	-0.15701827
130	0x3d557de4	0.05212201
131	0xbca744f1	-0.020418616
132	0xbe18ba0b	-0.1491472
133	0xbb818818	-0.003952991
134	0x3df012c6	0.11722331
135	0x3e018e72	0.12651995
136	0xbd677b33	-0.056513976
137	0xbd173ea0	-0.03692496
138	0xbe156df8	-0.14592731
139	0x3d31fd28	0.04345432
140	0xbda0ab1a	-0.07845135
141	0x3dc7e7aa	0.09760983
142	0x3cb2d8a7	0.021831824
143	0xbe5c04ff	-0.21486281
144	0xbe875ee3	-0.2643958
145	0x3a06f9fa	0.0005148944
146	0xba7057ba	-0.0009168346
147	0x3caf3198	0.021385953
148	0xbdbd8dc8	-0.09255558
149	0xbe244998	-0.16043699
150	0x3dcdaaa8	0.10042316
151	0x3dcc5f44	0.09979108
152	0xbb17189a	-0.0023055435
153	0xbe451ef9	-0.19250096
154	0xbe2ec311	-0.170666
155	0xbe035058	-0.12823617
156	0xbe27cc7e	-0.16386601
157	0xbd0f26bf	-0.03494906
158	0xbe362231	-0.1778648
159	0x3de007f5	0.10939018
160	0xbe6e56b7	-0.23275267
161	0xbda63663	-0.08115842
162	0xbd03a7c7	-0.032142427
163	0xbd050247	-0.032472875
164	0x3e320348	0.17384064
165	0xbe294ca4	-0.16533142
166	0xbd870b1f	-0.06593918
167	0xbe2125f8	-0.1573714
168	0x3d62a5aa	0.05533377
169	0x3e406fb8	0.18792617
170	0x3d3c601f	0.045990106
171	0xbadaea25	-0.0016701861
172	0x3d0416b3	0.03224821
173	0x3dcb462f	0.09925496
174	0xbe416c10	-0.18888879
175	0x3e6b18d7	0.22958694
176	0xbd08bc76	-0.033382855
177	0x3e0c151e	0.1367993
178	0xbe349780	-0.17635918
179	0xbe3fe679	-0.18740262
180	0xbe1f3b93	-0.1555007
181	0xbc6ceaff	-0.014460324
182	0xbe331742	-0.17489341
183	0x3e32fb34	0.17478639
184	0x3ba8176a	0.0051297443
185	0x3e3e7e24	0.18602806
186	0x3e021aa2	0.12705472
187	0xbcb89300	-0.022531033
188	0x3dbfda8a	0.09367855
189	0xbe64cb1a	-0.22343102
190	0x3d01fe3e	0.031736605
191	0x3e4e7246	0.2016078
192	0x3d45aa3a	0.048258044
193	0x3c91c8ba	0.01779591
194	0xbe0ecc4f	-0.13945125
195	0xbdf22e8e	-0.11825286
196	0xbce3104a	-0.027717728
197	0xbe52da7d	-0.20591159
198	0xbe6fa6db	-0.23403494
199	0x3e1c1d30	0.15245509
200	0xbe144deb	-0.14482848
201	0xbdd8364c	-0.10557231
202	0xbe36f8c5	-0.17868336
203	0xbe42ce6f	-0.1902406
204	0xbe3b46bb	-0.182887
205	0x3de7a192	0.11310114
206	0xbe249497	-0.16072308
207	0xbd98f168	-0.074679196
208	0xbc69dce7	-0.014273859
209	0xbe1876e1	-0.14889099
210	0xbe599b52	-0.21250656
211	0xbd87c687	-0.06629663
212	0xbbfa6dcd	-0.007642484
213	0x3dc5fb1d	0.09667037
214	0x3ddaefc1	0.10690261
215	0xbe18ca4b	-0.14920919
216	0xbd42074e	-0.047370248
217	0x3c16d1b3	0.00920527
218	0x3e04f7e5	0.1298519
219	0xbdc017d8	-0.09379548
220	0xbe529bb5	-0.2056721
221	0x3c666e1c	0.014064338
222	0x3dd35b22	0.103201166
223	0x3e7595c6	0.23982915
224	0xbde2eabf	-0.110799305
225	0x3e7e9003	0.24859624
226	0x3e356523	0.17714362
227	0xbd84ed82	-0.064906135
228	0xbdb02b66	-0.086020276
229	0x3e356c06	0.17716989
230	0x3dae057f	0.08497142
231	0x3d61297f	0.054971214
232	0xbe204f44	-0.15655237
233	0x3e2f663c	0.17128843
234	0xbe371834	-0.17880327
235	0xbb59e778	-0.0033249538
236	0xbcb1d84d	-0.021709586
237	0x3e06c73b	0.13161938
238	0xbe2e4423	-0.1701818
239	0xbe1a2b3f	-0.1505556
240	0x3df19f94	0.11798015
241	0xbd57478d	-0.05255847
242	0xbb739e00	-0.0037173033
243	0xbe4c8cf9	-0.19975652
244	0xbe40af1d	-0.188168
245	0x3c8546af	0.016269056
246	0x3d8adb1b	0.06780072
247	0x3d9bf028	0.076141655
248	0xbe85c6d7	-0.26128265
249	0x3e0436db	0.1291155
250	0xbe17b441	-0.14814855
251	0xbdb55d9f	-0.088557474
252	0x3e216d8c	0.15764445
253	0x3e1822d4	0.14857036
254	0xbdcb4c94	-0.099267155
255	0xbe3a52ac	-0.181956

fc1.bias f4 [128]
0	0xbdc0e2b5	-0.09418241
1	0xbd953d02	-0.07287027
2	0xbd23a598	-0.039952844
3	0x3d444382	0.047915943
4	0xbdb43544	-0.08799222
5	0xbd961141	-0.0732751
6	0x3de593ac	0.11209807
7	0x3e185454	0.14875919
8	0x3e43876d	0.1909463
9	0x3da8052c	0.082041115
10	0x3e267ec1	0.1625929
11	0x3e44d2f6	0.192211
12	0x3dbd89f4	0.09254828
13	0xbdfed0c6	-0.12442164
14	0x3b168207	0.0022965686
15	0x3b031584	0.0020001838
16	0x3d394343	0.04523016
17	0xbe0cd4ad	-0.13753004
18	0xbdc8d33e	-0.09805916
19	0xbe1baf0e	-0.15203497
20	0x3d74b077	0.059738602
21	0xbe225494	-0.15852576
22	0x3e3e71a1	0.18598033
23	0x3d0de255	0.034639675
24	0x3d1c2d82	0.038129337
25	0xbe48bbe4	-0.19602925
26	0x3d30c4e7	0.04315653
27	0xbc3a7235	-0.011379768
28	0x3dd26014	0.10272232
29	0xbe401af3	-0.1876028
30	0x3df806b9	0.12110657
31	0xbd0a3cea	-0.0337495
32	0x3c5b7c6f	0.0133963665
33	0x3cc0655e	0.023485836
34	0xbe610d4d	-0.2197773
35	0x3dc439c2	0.09581329
36	0xbbb15963	-0.005412267
37	0x3ca9134f	0.02063909
38	0x3c0544f2	0.008134114
39	0x3d250e0d	0.040296603
40	0x3e3d146d	0.18464823
41	0x3e0ede16	0.13951907
42	0xbe5fd9a0	-0.21860361
43	0x3da10aff	0.078634255
44	0x3e5e4d3a	0.21709147
45	0xbe4eaab4	-0.20182306
46	0xbe56cb5d	-0.20976014
47	0x3d27501b	0.04084788
48	0xbe1d99d6	-0.15390715
49	0xbe301eab	-0.17199199
50	0x3df08e5a	0.117459014
51	0xbdffc293	-0.12488284
52	0x3e48a38c	0.19593638
53	0x3e13550c	0.14387912
54	0xbe565925	-0.20932443
55	0x3e7f726d	0.24945994
56	0x3e26f059	0.16302623
57	0xbe0e93ea	-0.13923612
58	0xbe4fcce0	-0.20292997
59	0xbe301087	-0.17193805
60	0x3c92c9d9	0.017918514
61	0x3e419823	0.18905692
62	0xbdcfc004	-0.10144046
63	0xbddcc8fc	-0.10780522
64	0x3ca457e8	0.020061448
65	0x3dd6aa71	0.10481728
66	0xbe5b3a25	-0.21408899
67	0x3e5b398a	0.21408668
68	0xbd8e0854	-0.06935182
69	0xb9f54a79	-0.00046785528
70	0x3daa9a6e	0.083302364
71	0x3d842b9e	0.06453632
72	0x3e6150b5	0.22003444
73	0x3e40d53c	0.18831342
74	0x3e6270fd	0.22113414
75	0x3e1f437d	0.15553088
76	0x3cc9cdf1	0.024634333
77	0x3e4b88e2	0.19876435
78	0x3e155089	0.14581503
79	0x3e48bb1d	0.19602628
80	0x3ce5815e	0.028015789
81	0x3de6ea8f	0.11275207
82	0xbd295664	-0.041342154
83	0x3e0123c9	0.12611307
84	0xbe1fcf6f	-0.15606473
85	0xbdf21317	-0.11820047
86	0xbdc1a894	-0.09455982
87	0xbe7129d1	-0.23551108
88	0xbe26b0c2	-0.16278365
89	0xbe581723	-0.21102576
90	0x3dec59da	0.11540575
91	0xbce584dd	-0.028017456
92	0xbe3837ab	-0.17989986
93	0x3da0149d	0.07816432
94	0x3cfbae08	0.030722633
95	0x3e7857c2	0.24252227
96	0x3def1a29	0.116749115
97	0x3e3c0bee	0.18363926
98	0xbd7e685a	-0.062111236
99	0xbca66326	-0.02031095
100	0x3e4dac32	0.20085219
101	0xbe4c186b	-0.1993119
102	0xbda2a499	-0.07941551
103	0xbe02ac63	-0.12761073
104	0xbdec80bc	-0.11547992
105	0xbe295181	-0.16534998
106	0x3d4132a9	0.047167454
107	0xbd2febb8	-0.04294941
108	0xbe21db59	-0.1580633
109	0xbe56f8ed	-0.20993395
110	0xbc5d65a9	-0.013513007
111	0x3daf9ba3	0.08574607
112	0x3e30642b	0.17225711
113	0x3e4bd61a	0.19905892
114	0xbd9752e5	-0.07388858
115	0x3ddc6b45	0.107626475
116	0xbdddcbef	-0.10829913
117	0x3e568801	0.20950319
118	0x3e1bf299	0.15229262
119	0xbc6feb07	-0.014643437
120	0x3e7d7317	0.24750935
121	0xbe0565dd	-0.13027139
122	0xbda257de	-0.079269156
123	0xbdea99a2	-0.114550844
124	0xbde87801	-0.11351014
125	0x3cc3f7e5	0.023921916
126	0x3e5a0a83	0.21293072
127	0xbe371a53	-0.17881136

fc2.weight f4 [128, 128]
0	0xbd79f38b	-0.061023276
1	0xbcf05fc6	-0.029342543
2	0x3de558db	0.111985885
3	0x3cdd6594	0.027025975
4	0x3e0bac62	0.13639978
5	0x3e1d81dc	0.15381569
6	0xbde9bdf6	-0.11413185
7	0xbd7475d4	-0.059682682
8	0xbb1872d3	-0.00232618
9	0x3e21de86	0.15807542
10	0xbe015018	-0.1262821
11	0xbdc6f755	-0.097151436
12	0xbb56a2a7	-0.0032750757
13	0xbc9ed6af	-0.019389478
14	0x3d6a8da1	0.057263974
15	0x3deb2aff	0.1148281
16	0x3ba49323	0.005022423
17	0x3c9d3db7	0.019194467
18	0x3bc64408	0.0060505904
19	0x3e065ee5	0.13122137
20	0x3bb6faa5	0.0055840784
21	0x3c43d507	0.011952645
22	0xbbbaeab1	-0.005704247
23	0x3d6fded2	0.058562107
24	0x3db3a28e	0.08771239
25	0xbd33b328	-0.04387203
26	0xbe11f6b9	-0.14254273
27	0xbd4f1337	-0.050555434
28	0xbca8f88f	-0.020626334
29	0x3d0b48f7	0.03400513
30	0x3d484251	0.04889137
31	0x3e076c58	0.13224924
32	0xbd455643	-0.04817797
33	0x3d5f0474	0.054447606
34	0xbc3a8e77	-0.011386505
35	0xbe1edcfb	-0.15513985
36	0xbd9e6297	-0.07733648
37	0xbd156dce	-0.03648167
38	0x3d797614	0.060903624
39	0x3dda0ebd	0.10647342
40	0xbccdb945	-0.025112757
41	0xbb2876ac	-0.00257055
42	0x3a33c1cc	0.0006857186
43	0x3cff3c6c	0.031156741
44	0xbd74a8af	-0.05973118
45	0x3d6ffefb	0.058592778
46	0x3e1b5379	0.15168561
47	0x3bbf7021	0.005842224
48	0x3e2a1bc8	0.1661216
49	0x3e1724a6	0.14760074
50	0x3db6dd51	0.089289315
51	0xbdaceccc	-0.08443603
52	0xbc48fed4	-0.012267787
53	0xbd7abe8f	-0.061216887
54	0x3d1e0b9f	0.0385853
55	0xbd3237ee	-0.04351037
56	0xbdc5507c	-0.09634492
57	0x3c9f73e6	0.019464444
58	0x3e09a0ab	0.13440196
59	0x3dc7d40c	0.097572416
60	0xbcffb08e	-0.031212118
61	0xbdcfa0a6	-0.10138063
62	0xbd330818	-0.04370889
63	0x3d94f945	0.07274107
64	0xbdda9ba5	-0.10674218
65	0xbd18e583	-0.037328254
66	0x3b81be68	0.003959466
67	0xbd71cfc2	-0.059036024
68	0xbdce1bf2	-0.10063924
69	0x3d280b77	0.04102656
70	0x3db5ae1e	0.08871101
71	0x3dd953df	0.106117
72	0x3ba67eba	0.005081025
73	0xbdcf2bd6	-0.10115783
74	0xbd3f3f60	-0.0466913
75	0xbd07256c	-0.032994673
76	0x3e56e49b	0.20985644
77	0xbc1069d0	-0.00881429
78	0xbd829d8f	-0.06377708
79	0x3caae2d0	0.020860106
80	0xbde12f05	-0.109952964
81	0x3aa299f9	0.0012405507
82	0x3d8755d9	0.06608171
83	0xbccaa3a5	-0.024736235
84	0x3af1213b	0.0018396744
85	0x3d4234ac	0.047413513
86	0x3d371dc4	0.04470612
87	0x3d80c11b	0.06286832
88	0x3bce860f	0.006302602
89	0x3d37da36	0.044885837
90	0xbdfa12a1	-0.122105844
91	0xbddbd90b	-0.10734757
92	0x3d71accb	0.05900268
93	0xbd075227	-0.03303733
94	0xbdca759f	-0.09885716
95	0xbde636e4	-0.11240938
96	0x3d85e44e	0.06537686
97	0xbd296863	-0.041359317
98	0xbd456959	-0.04819617
99	0xbd216949	-0.03940705
100	0xbd072de3	-0.033002745
101	0xbd2bc83f	-0.041939016
102	0xbdd2e58e	-0.1029769
103	0xbd4204da	-0.047367908
104	0x3dd8aec6	0.105802104
105	0xbc7d193c	-0.015447911
106	0x3c5733fa	0.013134951
107	0x3d18fe4c	0.03735189
108	0x3e15771d	0.1459622
109	0xbd147014	-0.0362397
110	0xbca5eb30	-0.020253748
111	0x3c6f7dee	0.014617426
112	0x3b5b331d	0.0033447214
113	0xbdeec9ee	-0.11659609
114	0x3df374d8	0.118875206
115	0x3c83ba4b	0.016080042
116	0xbbe6c3bf	-0.0070423777
117	0xbdc17c90	-0.094475865
118	0xbdc67f27	-0.09692221
119	0xbd68a28e	-0.05679565
120	0xbe0cfad6	-0.13767561
121	0xbdb54d5e	-0.08852647
122	0xbc47d216	-0.0121960845
123	0xbd6505f9	-0.0559139
124	0x3d03b85e	0.032158248
125	0xbc8aa866	-0.016926002
126	0x3d39e8ca	0.04538802
127	0x3db43cef	0.08800685
128	0x3cea21f8	0.02858065
129	0xbd851a42	-0.06499149
130	0x3d1c2ebd	0.03813051
131	0x3c873067	0.016502572
132	0x3e2dd1dc	0.16974586
133	0x3d941bd0	0.07231867
134	0xbd3b03f6	-0.045658074
135	0xbcf1a964	-0.029499717
136	0xbde08986	-0.109637305
137	0x3df3c67c	0.11903092
138	0xbd329b41	-0.043605093
139	0xbaec672d	-0.001803612
140	0xbde5dd2f	-0.11223828
141	0x3dd79bd5	0.105277695
142	0x3c201306	0.009770161
143	0x3d56986a	0.052391447
144	0xbe099090	-0.13434052
145	0xbd91d396	-0.07120435
146	0x3d6382e7	0.05554476
147	0x3d4cdce5	0.05001535
148	0xbc7641bf	-0.0150303235
149	0xbc93e421	-0.018053116
150	0xbdc934fa	-0.098245576
151	0x3d5b4d4d	0.053540517
152	0x3ce225a2	0.027605835
153	0xbb605dcc	-0.0034235595
154	0xbda910fe	-0.08255194
155	0xbe006c02	-0.12541202
156	0xbd709be6	-0.058742426
157	0x3d351b46	0.044215463
158	0x3c4d9158	0.01254686
159	0x3d2b95c5	0.04189088
160	0xbe15ff7d	-0.14648242
161	0xbccac16f	-0.02475044
162	0x3c4a67ff	0.012353896
163	0xbcf9553e	-0.030436154
164	0xbdeb7d52	-0.11498512
165	0xbbee719d	-0.0072767274
166	0x3db12fc3	0.08651688
167	0x3dd3ebfc	0.10347745
168	0x3b36891f	0.0027852727
169	0x3d7e367d	0.062063683
170	0x3ddb3dff	0.10705184
171	0x3b22a1bb	0.0024815637
172	0xbd9cf112	-0.07663168
173	0x3e16f3eb	0.14741485
174	0x3c7fb2af	0.015606566
175	0xbdf60631	-0.120129
176	0x3d6bc4f1	0.057560865
177	0x3dcb9420	0.09940362
178	0x3d15b7dc	0.036552295
179	0xbdb90865	-0.09034804
180	0xbdd62929	-0.104570694
181	0xbd453eae	-0.04815548
182	0x3d0d1729	0.034445915
183	0x3c2fe744	0.01073629
184	0xbd84d9c7	-0.0648685
185	0x3d19355b	0.0374044
186	0x3cb331b7	0.021874292
187	0xbcc8afdd	-0.02449792
188	0xbc16cf1b	-0.009204651
189	0xbdad7d0c	-0.084711164
190	0x3c2cf4a0	0.01055637
191	0x3d6e3de6	0.0581645
192	0xbe1f7570	-0.15572143
193	0xbdc2656d	-0.09492002
194	0xbcc197ef	-0.023632018
195	0xbab3e35a	-0.0013724372
196	0xbd1e0a2c	-0.03858392
197	0x3d1c15ba	0.038106658
198	0x3dac04a1	0.083993204
199	0x3dd96d9d	0.1061661
200	0xbda9df55	-0.0829455
201	0xbdfae5f7	-0.122508936
202	0x3c6db9b9	0.014509612
203	0xbd78f5e5	-0.06078138
204	0x3dc3b70d	0.095563985
205	0xbd8419ec	-0.06450257
206	0xbd413bfe	-0.047176354
207	0x3b68f303	0.0035545237
208	0xbdee70cd	-0.11642609
209	0x3d37a0b7	0.044831004
210	0xbad35acd	-0.0016125083
211	0xbca2b48d	-0.019861484
212	0x3dce7130	0.100801826
213	0x3d8a26c5	0.06745676
214	0x3d441d56	0.04787954
215	0x3d3eb750	0.04656154
216	0x3db4d307	0.08829313
217	0x3d5274e8	0.05138102
218	0x3b216f41	0.0024632963
219	0x3c5ba765	0.013406609
220	0x3d03767c	0.032095417
221	0x3c166b9a	0.009180928
222	0x3ca93ef7	0.020659907
223	0xbd2fc426	-0.04291167
224	0x3dae35d4	0.08506361
225	0xbdeb8b63	-0.11501195
226	0xbc244568	-0.010026313
227	0xbdb4644b	-0.08808192
228	0xbd951c31	-0.07280768
229	0x3db17dd3	0.08666577
230	0xbde291dd	-0.110629775
231	0x3db7f3ef	0.089820735
232	0x3df1c7e1	0.11805702
233	0x3e080e0e	0.13286611
234	0xb9d54f59	-0.00040685644
235	0xbc584e97	-0.013202331
236	0x3e0ec6ec	0.1394307
237	0x3dc7580c	0.097335905
238	0x3cf178ee	0.02947661
239	0x3d2a0db9	0.041516993
240	0xbdd471af	-0.10373246
241	0xbd7aa756	-0.06119474
242	0x3d37ea03	0.044900905
243	0xbda5c129	-0.08093483
244	0x3da1cfec	0.07900986
245	0xbd6a8667	-0.057257082
246	0xbe01eb7b	-0.12687485
247	0xbd627005	-0.05528261
248	0xbdd440ff	-0.103639595
249	0xbd0b3336	-0.033984385
250	0x3d280ce7	0.04102793
251	0x3b4203e5	0.0029604372
252	0x3d3267ad	0.043555904
253	0xbce420f0	-0.027847737
254	0xbd5202c8	-0.051272184
255	0xba804271	-0.0009785426

fc2.bias f4 [128]
0	0xbdd3c2cc	-0.10339889
1	0xbcef9466	-0.029245567
2	0x3dcb0f98	0.09915084
3	0x3df9103d	0.121613
4	0x3c2742c3	0.010208788
5	0xbd300096	-0.04296931
6	0x3d27f49b	0.04100476
7	0x3dc6d29e	0.09708141
8	0x3d1c8a5c	0.038217887
9	0xbd4970c0	-0.049179792
10	0x3c39fa49	0.011351177
11	0x3d41aa44	0.04728152
12	0xbd4164ec	-0.047215387
13	0xbdd461ca	-0.10370214
14	0x3d1d0148	0.0383313
15	0xbdeb31e3	-0.114841245
16	0xbdee28fa	-0.116289094
17	0x3ccf3971	0.025295945
18	0x3dd12c00	0.102134705
19	0xbce0c662	-0.027438346
20	0xbdbe0f40	-0.092802525
21	0xbdaaf7d0	-0.08348048
22	0x3b14aafb	0.002268492
23	0x3c8abd0a	0.016935844
24	0x3d9cf680	0.07664204
25	0xbbeceef8	-0.0072306357
26	0x3cbccd99	0.023047255
27	0xbd0edf22	-0.034880765
28	0x3be537c7	0.0069951746
29	0x3dc8adda	0.097987846
30	0x3db1c456	0.08680026
31	0xbdf3a68c	-0.11897001
32	0xbdfbd2a0	-0.12296033
33	0x3d085057	0.033279743
34	0x3df3b9de	0.11900686
35	0x3d845960	0.064623594
36	0xbc0b5cf8	-0.008506052
37	0xbc85209e	-0.016250905
38	0x3d0739c3	0.03301407
39	0xbdc018a9	-0.093797036
40	0xbdb63151	-0.08896125
41	0x3db9f730	0.090803504
42	0xbcb40bb4	-0.021978237
43	0xbdac8264	-0.084233075
44	0x3ca4978f	0.0200918
45	0xbdd1e60e	-0.102489576
46	0x3d284bc3	0.041087877
47	0xbd05c886	-0.032661937
48	0x3d05949a	0.03261242
49	0x3ba4c8df	0.0050288285
50	0xbbe5392e	-0.0069953417
51	0x3c75efad	0.015010756
52	0x3d5a8cc0	0.053356886
53	0xbdab0085	-0.083497085
54	0xbd119adb	-0.035548072
55	0xbd294dd8	-0.041334003
56	0xbcee8b26	-0.029119086
57	0xbd4dbc93	-0.050228667
58	0x3d98c452	0.0745932
59	0xbd93cc19	-0.07216663
60	0x3d33f51c	0.043934926
61	0xbd29b611	-0.041433398
62	0x3d1f9522	0.038960584
63	0xbdadf021	-0.084930666
64	0x3c51a6a5	0.012796079
65	0x3c2b63d8	0.010460816
66	0xbdf931d9	-0.12167711
67	0x3d090916	0.03345593
68	0xbd1658ff	-0.036705967
69	0x3d3d50c4	0.046219602
70	0xbd3990e5	-0.045304198
71	0xbd4635bf	-0.0483911
72	0xbda8a524	-0.08234623
73	0x3bf8eddc	0.0075967144
74	0xbda770ae	-0.08175789
75	0x3d8e07c8	0.06935078
76	0xbd80ce4b	-0.06289347
77	0xbd6608cd	-0.056160737
78	0xbdd01fea	-0.10162337
79	0x3dbea28f	0.09308349
80	0x3dd0d275	0.101963915
81	0x3da06efb	0.07833668
82	0xba756ce6	-0.00093622354
83	0x3ddb6124	0.107118875
84	0x3dc8ae66	0.09798889
85	0xbdf98316	-0.12183206
86	0xbd207b5c	-0.039180145
87	0x39ff9cd3	0.00048754233
88	0x3c19b9d2	0.009382682
89	0x3d14d04b	0.036331456
90	0xbbf88132	-0.0075837607
91	0x3cde25c3	0.027117616
92	0xbdadc47f	-0.08484744
93	0xbc9d82b7	-0.019227369
94	0xbd5c35fc	-0.05376242
95	0x3c49cb0c	0.012316477
96	0x3c1410fb	0.009037252
97	0xbbe0287d	-0.006840764
98	0xbdcfbce5	-0.10143451
99	0xbd069236	-0.03285428
100	0xbc1f4583	-0.009721163
101	0xbd324fe5	-0.043533225
102	0x3d889dd9	0.06670732
103	0x3a5eef1f	0.000850426
104	0xbcbfde95	-0.023421565
105	0x3dcb9b28	0.09941703
106	0xbd1f0cc5	-0.038830537
107	0x3a82fa95	0.0009992892
108	0x3c24f1be	0.010067401
109	0x3d97ef13	0.07418647
110	0xbcd03877	-0.02541755
111	0x3d929a92	0.07158388
112	0xbd3a33e7	-0.045459654
113	0xbd82e483	-0.063912414
114	0x3d206dd5	0.039167244
115	0x3d9ddad5	0.077077545
116	0xbde376c0	-0.11106634
117	0x3d12dc0b	0.03585438
118	0xbd7d43aa	-0.061832108
119	0xbcdc8d2c	-0.026922785
120	0xbde9a843	-0.114090465
121	0x3d341893	0.04396875
122	0xbc8fffe7	-0.017578078
123	0xbd1353be	-0.035968535
124	0x3df67fb9	0.1203608
125	0x3d0d70a0	0.034531236
126	0x3bc0b51a	0.005880964
127	0x3c5d20b6	0.013496568

fc3.weight f4 [1, 128]
0	0xbe0213db	-0.12702887
1	0xbe156e21	-0.14592792
2	0x3e225cb2	0.15855673
3	0x3e1ac97e	0.15115926
4	0xbe176d84	-0.1478787
5	0xbe46f5b7	-0.1942967
6	0xbe1308d4	-0.14358836
7	0x3e02d4f6	0.1277655
8	0xbde7b25d	-0.11313317
9	0xbe2faa81	-0.17154886
10	0xbe0bcd36	-0.136525
11	0x3dfabdbc	0.1224322
12	0xbe25eff4	-0.16204816
13	0xbe0ae80f	-0.13565086
14	0x3e095cd2	0.13414314
15	0xbe24a08e	-0.16076872
16	0xbdf87ca5	-0.12133149
17	0xbddf306e	-0.10897909
18	0x3e09149f	0.13386773
19	0x3e0f31f7	0.13983904
20	0xbe00a099	-0.12561263
21	0xbe28b3a1	-0.16474773
22	0x3e15bc8e	0.14622709
23	0x3de6b536	0.11265032
24	0x3e21a348	0.15784943
25	0x3e1e38b8	0.15451324
26	0xbe10fdc9	-0.14159311
27	0xbde82828	-0.11335784
28	0xbe1c5c98	-0.15269697
29	0x3e186d03	0.14885335
30	0x3e3477d8	0.17623842
31	0xbe0513a1	-0.12995769
32	0xbe46cbdf	-0.19413708
33	0xbe092e44	-0.13396555
34	0x3e343658	0.17598855
35	0x3e2b5a58	0.16733682
36	0xbe2efb47	-0.17088042
37	0xbe2f7c37	-0.17137228
38	0x3e316938	0.17325294
39	0xbe2b8f75	-0.16753943
40	0xbe40d525	-0.18831308
41	0x3d8e2efa	0.06942554
42	0x3e29e18e	0.16589949
43	0xbe413e84	-0.18871504
44	0x3e0e3d83	0.13890652
45	0xbe2c292a	-0.16812578
46	0x3e2b611c	0.16736263
47	0xbe3ab3f1	-0.18232705
48	0x3dee1240	0.11624575
49	0x3e041e78	0.12902248
50	0xbe4776e4	-0.19478947
51	0x3e1605fd	0.14650722
52	0x3e1ab00a	0.15106216
53	0xbe13ecda	-0.1444582
54	0xbdfd02b1	-0.12354029
55	0xbe40fed7	-0.18847214
56	0x3e3fde3c	0.1873712
57	0xbdf33473	-0.11875238
58	0x3e4f540f	0.2024691
59	0xbe221a8b	-0.15830438
60	0x3e11468a	0.14187065
61	0xbe39bd2e	-0.18138573
62	0x3e123910	0.1427958
63	0xbe3ccbf4	-0.18437177
64	0xbe41c2fa	-0.18922034
65	0x3e2aba99	0.16672744
66	0xbe09c8ae	-0.1345546
67	0x3e1bfe44	0.15233713
68	0x3e0d97c6	0.13827428
69	0xbdf45a10	-0.119312406
70	0x3e37a4bc	0.17933935
71	0xbe3d99ef	-0.18515752
72	0xbe1c170c	-0.15243167
73	0x3debd7fa	0.11515804
74	0xbe2156f8	-0.15755832
75	0x3e24b570	0.16084838
76	0xbe1b0fbb	-0.1514272
77	0xbe414a5e	-0.18876025
78	0xbe0d77c0	-0.13815212
79	0x3e37c4ee	0.17946216
80	0x3e0b8398	0.13624418
81	0x3dd7bfd4	0.10534635
82	0x3e2915fe	0.16512296
83	0x3e2732a4	0.16327912
84	0x3e361f0f	0.17785285
85	0xbdcc01e4	-0.09961298
86	0x3e1189f1	0.14212777
87	0xbe26bd42	-0.16283134
88	0x3dea8385	0.114508666
89	0x3e46fcfe	0.19432446
90	0xbe3b3435	-0.18281634
91	0xbdfc0b21	-0.1230681
92	0xbdd74c56	-0.10512607
93	0x3e1ff02e	0.15618965
94	0xbe3eb49d	-0.18623586
95	0xbe05e29c	-0.13074726
96	0xbe0d17ed	-0.13778658
97	0x3e225fb3	0.15856819
98	0xbe1e6bfa	-0.15470877
99	0x3e551b35	0.2081116
100	0xbe1bebba	-0.15226641
101	0xbe3c3e77	-0.18383203
102	0x3e306ca9	0.1722895
103	0x3dded00b	0.10879525
104	0x3e1213a2	0.14265302
105	0x3e1e0e9e	0.15435264
106	0x3e495cfa	0.19664374
107	0x3e3a76d7	0.18209396
108	0xbe10ba18	-0.14133489
109	0x3e234412	0.15943936
110	0x3e23fe50	0.16014981
111	0x3e1b6cd2	0.1517823
112	0x3de73548	0.112894595
113	0xbe32438b	-0.17408578
114	0xbe0e61b1	-0.13904454
115	0x3e1f8701	0.15578844
116	0xbe18a830	-0.14907908
117	0xbe0b6317	-0.13612019
118	0xbe04dc3a	-0.12974635
119	0xbe565779	-0.20931806
120	0xbe1eacdc	-0.15495628
121	0xbe314104	-0.17309958
122	0x3e2e5000	0.17022705
123	0x3e123d84	0.14281279
124	0x3e3e1424	0.1856237
125	0x3dff362b	0.124615036
126	0x3e103cbc	0.14085668
127	0xbdefd240	-0.11710024
