CatsMonsters/checkpoints/cats_sarsa_n_step/q_net_cat_monsters_sarsa_n_step.pth (torch, 84789 bytes, 6 tensors)

fc1.weight f4 [128, 25]
000000 aa 76 73 3d cf 57 4c 3e f5 cc 79 3e 4d 65 08 3e
       0.05943934 0.19955371 0.24394591 0.13319893
000010 7a e3 ea bd 93 10 78 3e d7 34 11 be d0 96 40 bd
       -0.11469169 0.24225073 -0.14180313 -0.047018826
000020 e3 c3 b8 3d c3 9a a4 bd e2 aa a0 3d c7 0e 2c 3e
       0.090217374 -0.08037331 0.07845093 0.16802512
000030 0d c0 49 3d 0d 38 a8 3d 1e d8 50 bd 24 7a 11 3e
       0.04925542 0.08213816 -0.050987355 0.14206749
000040 25 6d 3a 3e 97 19 0b be 1d d1 f7 bd 87 4c ee bd
       0.18205698 -0.1358398 -0.12100432 -0.1163569
000050 90 ba 26 3e bd 37 4d 3e 38 8b ec 3d fa f8 58 3d
       0.16282105 0.20040794 0.11549991 0.052971818
000060 9f ad 1c be 7c 0e 32 3e ec 08 26 3e 28 ae 06 be
       -0.15300606 0.17388338 0.16214341 -0.13152373
000070 f9 cf 6e 3e 1a 63 d7 bd 83 f4 fb bd 0e 48 5b 3d
       0.23321523 -0.10516949 -0.12302496 0.053535514
000080 e6 be d2 3d ce e9 51 bb 26 3e 93 3d 3f 42 2b be
       0.10290317 -0.0032030228 0.07189588 -0.1672449
000090 33 53 89 b9 e3 29 d2 3d a3 76 36 3e 41 1e 95 bd
       -0.00026192665 0.102618955 0.17818694 -0.07281161
0000a0 68 92 45 3e b0 c9 29 3c 3a 47 41 3d 4b 33 02 be
       0.19294131 0.010363027 0.047187068 -0.12714879
0000b0 a2 e5 08 be 31 c5 6c 3b 5c 69 8a 3e ee 80 54 bd
       -0.13368848 0.0036128277 0.27033508 -0.05188077
0000c0 a3 17 d9 bd 74 25 83 3d bd 5a 92 bd 7f 21 6b be
       -0.106002115 0.06403628 -0.07146213 -0.22961996
0000d0 9b d9 43 be f5 91 a9 bd b5 05 19 be 25 a0 4f be
       -0.19125979 -0.08279792 -0.14943583 -0.20275934
0000e0 b5 f6 61 bd 3a 10 b2 bd 4c 72 42 be e4 0d a4 3d
       -0.05516692 -0.08694501 -0.18988913 0.08010462
0000f0 61 77 0d be 05 b6 06 be d8 04 3b 3e 73 0f 94 3c
       -0.1381507 -0.13155372 0.18263566 0.018073773
000100 fa 6f 59 3e 5d 99 70 be b8 30 40 bd 8d 2c 8d 3c
       0.21234122 -0.23496003 -0.04692146 0.017233158
000110 a9 b4 29 bd aa f1 80 3d 00 b0 42 3d ad 4c 4e be
       -0.041432057 0.06296094 0.047531128 -0.20146437
000120 55 71 37 3e df e4 80 3e 94 09 0f be a7 da 63 be
       0.17914326 0.25174615 -0.13968498 -0.22251378
000130 c9 9b af 3d 71 63 2b be 60 6a 77 bd ad 04 26 be
       0.085746355 -0.16737153 -0.06040418 -0.16212721
000140 32 82 18 bd 88 6e 70 be 54 63 89 bc 2b 85 f2 3c
       -0.03723354 -0.23479664 -0.016770996 0.029604515
000150 ce 41 c9 bd d5 fe d1 bb 33 d4 a3 3b 1d 47 e4 bd
       -0.098270044 -0.006408552 0.0049996614 -0.11146376
000160 67 bf c0 bb ae b3 48 3e f5 bc 50 be 56 24 51 be
       -0.005882192 0.19599792 -0.20384581 -0.20424017
000170 62 68 22 be b5 09 cb 3d 40 34 95 bd 7c c2 74 bd
       -0.15860131 0.09913961 -0.072853565 -0.059755787
000180 64 fb 25 be 91 6f 4a 3e 63 55 7a 3e e3 81 f8 3d
       -0.16209179 0.19769122 0.24446635 0.12134149
000190 17 21 c7 3c fe 32 60 3e c6 36 db bd 6d 4c 2d 3e
       0.02430777 0.21894452 -0.107038066 0.16923685
0001a0 5f da de 3d 24 9b da bd da ed b5 3d 18 76 2a 3e
       0.10881495 -0.10674122 0.08883257 0.16646612
0001b0 05 bf 45 be c5 e3 32 be 4c 5f 22 3e 63 d5 2b be
       -0.1931115 -0.174697 0.15856665 -0.1678062
0001c0 d7 74 88 3d ba 57 bd 3d 98 8e f5 bd bd 7f 57 3e
       0.066629104 0.09245248 -0.11990088 0.21044822
0001d0 64 c0 1e 3e 1f 88 2b be f0 1a 8a 3d 94 46 d9 bd
       0.15503079 -0.16751145 0.06743419 -0.10609165
0001e0 06 8e 4e bc 1f 83 a7 3d ea a8 60 bd fe 67 69 3d
       -0.012607103 0.08179306 -0.05484859 0.05698394
0001f0 ed 1c d1 bc 00 74 3f 3d 2a 1e 27 be 73 c3 9c bd
       -0.025526488 0.046741486 -0.163201 -0.076544665
000200 22 bb 6d bd 97 79 fe bd ef bd f4 3d 0b 1f 06 3e
       -0.058039792 -0.12425535 0.119502895 0.1309778
000210 45 1f 13 be ef 71 79 3e d2 95 7b bd 9a c5 6f bd
       -0.14367397 0.24359868 -0.061422177 -0.058538057
000220 ff 53 36 3e f3 0c 1f be 80 06 10 bd 8f 87 aa ba
       0.1780548 -0.15532283 -0.03516245 -0.001301037
000230 0a 75 1a be 27 83 c7 bc c7 95 96 bd 58 ec 32 3e
       -0.1508371 -0.02435453 -0.073527865 0.1747297
000240 f0 4f de bd 5f 26 9f 3c 0e 3e 66 3e ab 7a b9 3e
       -0.108550906 0.019427476 0.2248461 0.362264
000250 9d 4b db bd d8 d6 78 bd ca 39 7b 3e 4e 22 6b bd
       -0.107077815 -0.060751766 0.24533764 -0.057405762
000260 49 b9 33 3d 12 b1 7e bd a6 7a 3a 3d 8d d0 3c be
       0.043877874 -0.062180586 0.045527123 -0.18438931
000270 b5 99 8f 3c 59 c7 0c 3e 22 2b 3f 3d dc 6c 28 bd
       0.017529348 0.1374792 0.046671994 -0.04111944
000280 b2 1b a6 3e 3d 51 1c 3e 5d 6c 03 3e a7 5f d6 3c
       0.32443005 0.15265365 0.12834306 0.026168657
000290 cb ea 11 3d d8 a8 43 be cc ba 56 3e 40 80 1b 3d
       0.035624307 -0.19107378 0.20969695 0.037964106
0002a0 aa 73 49 be 39 c3 7a bd 39 10 56 3c 0b 0e 5f 3d
       -0.19673029 -0.061221335 0.013065391 0.05445675
0002b0 38 a7 1f bd 8e 78 04 be e9 3b 9a 3c 65 8f 60 be
       -0.03897783 -0.12936613 0.018827396 -0.219297
0002c0 2b 31 89 bd 10 da 4d be 50 30 43 3c c3 ff 0f 3d
       -0.06698831 -0.20102715 0.011913374 0.035156023
0002d0 48 82 66 bd 5d 7d 09 be b0 28 f9 ba 6f aa 27 3e
       -0.05627659 -0.13426729 -0.0019009318 0.16373609
0002e0 53 b2 73 3d cb 56 92 bd 33 76 73 bc e0 79 27 3e
       0.059496235 -0.07145461 -0.014859724 0.16355085
0002f0 0d eb 64 3d 0e 6c 6e 3e 24 92 93 3b 26 2c f2 bd
       0.055888224 0.23283407 0.0045035053 -0.11824827
000300 30 8a c1 3d da 1c c3 3c 6a 75 30 3e 15 20 e6 bc
       0.09450185 0.023817468 0.1723229 -0.02809147
000310 6a 72 b4 bd ed 92 f7 bd a1 85 08 3e 70 19 aa bd
       -0.08810885 -0.12088571 0.13332225 -0.08305633
000320 da 9a 6d be 05 39 5f ba 1a 00 29 3e 57 02 59 3e
       -0.23203602 -0.00085152715 0.16503945 0.21192299
000330 74 b7 13 be 8f 4b 5a 3d d4 7c 8c bd f3 e3 52 bd
       -0.1442545 0.053294715 -0.068597466 -0.05148692
000340 c3 9d bd 3d 85 fb 71 3c ff ea 35 be 7a e3 41 3e
       0.09258606 0.01476944 -0.17765425 0.18934432
000350 9a 05 a3 bc 05 c8 03 3e 9e 09 af bb 7d 7f 5b be
       -0.019900132 0.1286927 -0.0053417226 -0.21435352
000360 10 02 45 be 90 3a 2c be 0f 5a c3 bc e6 f4 8b 3e
       -0.19239068 -0.16819215 -0.023846654 0.2733528
000370 3c d5 22 3d 70 e6 f9 3c d3 71 4c 3d 20 4d cc bd
       0.039754137 0.030505389 0.04991324 -0.09975648
000380 c8 34 6e be 08 24 26 be 8d 63 8c 3d 1a 08 56 3d
       -0.23262322 -0.16224682 0.06854925 0.05225382
000390 ae 2e 46 3e 71 4d 46 3e ad 0a 3f bd 7a c7 53 3d
       0.19353744 0.19365479 -0.04664104 0.051703908
0003a0 53 a9 04 be 67 74 8a 3d 47 aa 3e 3e d3 38 0c be
       -0.12955217 0.06760483 0.18619643 -0.13693552
0003b0 f0 6b 9c bd 03 9f 15 be 6d 99 a1 bd 5d 6f b4 bd
       -0.07637775 -0.1461144 -0.07890592 -0.08810303
0003c0 5d 95 ed bd 7a ec 1d 3e 17 b4 16 be 73 6d f1 3c
       -0.116007544 0.1542224 -0.14717136 0.029471135
0003d0 20 c7 b5 3d 13 4f 89 bd e7 16 d0 3c c7 7d 37 3e
       0.08875871 -0.06704535 0.025401546 0.17919074
0003e0 d0 1c 3f be 0a 11 23 be 51 75 9b bc 21 90 88 be
       -0.18663335 -0.15924469 -0.01897684 -0.26672462
0003f0 a2 ac 92 be d6 94 df 3c 7f 8e 3c 3e 00 c6 40 be
       -0.28647333 0.02729265 0.18413733 -0.18825531

fc1.bias f4 [128]
000000 6d 44 f2 3c de 3b 4d 3d b5 79 95 3e ce be 86 3e
       0.029573644 0.050105922 0.29194418 0.26317447
000010 76 7d 1a 3e c3 b3 60 3d 9f 10 c4 3d 3d fa a1 3e
       0.15086922 0.054858934 0.09573483 0.3163623
000020 3a de 69 3e 0a ae 4a be c7 77 90 3e d8 6c d8 bb
       0.22838679 -0.19792953 0.28216383 -0.006604772
000030 92 77 69 3d f1 3c 6e 3e bf 16 41 3e bf 7a e6 bd
       0.056998797 0.23265435 0.18856333 -0.11253881
000040 a0 46 d9 3d 0e 1e e4 bc 17 28 83 3e 72 35 24 3d
       0.10609174 -0.027846362 0.25616524 0.040090032
000050 73 c9 27 be 54 21 f8 bd 6d 7f fc 3d 26 74 33 be
       -0.1638544 -0.12115732 0.12328992 -0.17524776
000060 b7 a8 45 3e 42 42 c3 3d a8 09 0c 3d 20 62 95 3d
       0.19302641 0.09534122 0.034188896 0.072941065
000070 54 0a ca bd 2a 6e 3f 3e 2e 40 59 bd fb c8 62 3d
       -0.09865251 0.18694368 -0.053039722 0.05536745
000080 0b be 9a 3d 8e 0a db bd e2 ea 26 bd e8 21 26 3e
       0.07555779 -0.106953725 -0.040751345 0.16223872
000090 60 1b 79 3d 00 85 17 3d 2d 00 65 3e 52 d4 80 3e
       0.060817122 0.036992073 0.22363348 0.25161988
0000a0 2b 8a 91 3e 74 3f 50 3e d2 99 40 3d 0c 82 8e 3e
       0.28425726 0.20336705 0.047021694 0.27833593
0000b0 4f 73 80 bd c5 70 6d 3e 6c 6b 33 bd 63 dc f4 3c
       -0.06271993 0.2318755 -0.043803617 0.029890245
0000c0 34 36 2b 3d e4 60 9d 3e 04 f8 2b 3d 07 9f a5 bd
       0.04179974 0.30737984 0.041984573 -0.08086973
0000d0 d9 bc 9f bd 26 82 19 3d 1d ab 56 3d 9f 2c 99 3e
       -0.07799692 0.037477635 0.05240928 0.29916856
0000e0 5e 10 a6 3e e3 24 93 3d a3 b9 aa bd d0 51 85 3e
       0.32434362 0.0718477 -0.08336189 0.2603898
0000f0 73 33 88 3c 18 05 09 bd 76 e1 ab 3e bd 00 ab 3d
       0.016626095 -0.033452123 0.3357045 0.0834975
000100 c0 6a 92 bd 9e 72 2b 3e 91 48 80 3e 77 c5 2c 3d
       -0.07149267 0.16742942 0.25055364 0.042180505
000110 3f e1 28 3e 84 9c f5 3c 28 56 48 3e cb 33 d8 3d
       0.16492175 0.029981859 0.19564116 0.10556754
000120 25 8c 14 3e 32 4f 91 3e b0 00 4f 3e 27 36 80 3e
       0.14506586 0.28380734 0.20215106 0.25041315
000130 63 85 48 be d3 8b 78 3e aa 66 b5 bc 4c aa a5 3d
       -0.19582133 0.24272089 -0.02214368 0.08089122
000140 c3 c9 99 3d 80 fb 0f 3d 1c 32 10 3e 08 12 ea 3c
       0.07509186 0.03515196 0.14081615 0.028573051
000150 3c 97 6b 3e 9b 58 58 3e bc b6 3d 3d 15 ac 77 3e
       0.2300691 0.2112755 0.046316847 0.24186738
000160 3d c5 a3 3e 2c ac d8 bd b2 6b 83 bb cb c0 97 3c
       0.31986418 -0.10579714 -0.004010641 0.018524548
000170 53 b5 85 3e c5 f6 ee 3d 5f a0 0b 3e d9 07 f1 3d
       0.26114902 0.11668161 0.13635395 0.11769075
000180 3c f4 15 3d 89 19 59 3d 75 3e 56 bd ff 22 0d 3e
       0.036609873 0.053002868 -0.052305657 0.13782881
000190 d0 9c 88 3e 05 fb c4 3d 2e ba 70 3e b4 30 0c bd
       0.26682138 0.09618191 0.23508522 -0.034226134
0001a0 94 bd 10 3e 92 95 5c 3e 17 47 d8 3d d4 cf 85 3d
       0.14134818 0.21541432 0.10560434 0.06533781
0001b0 80 77 13 3e a1 be 06 be 90 c8 a5 3d fd a4 14 3e
       0.14401054 -0.13158657 0.08094895 0.14516063
0001c0 e2 32 2e 3e 5b 50 4e 3e 70 f8 00 bd 84 bb 2f 3e
       0.17011598 0.2014784 -0.03148693 0.17161375
0001d0 1d dd c8 bc 5e 6c c6 bd a1 5c 51 3e e2 da 71 bd
       -0.024519498 -0.09688638 0.20445491 -0.059046634
0001e0 b0 76 9d bd 58 4f 49 3e 36 3b 0c 3d 9e 08 64 bd
       -0.076886535 0.19659173 0.034236155 -0.05567228
0001f0 5e ea 2e 3e 38 b9 02 3e 65 b2 09 3e 94 7e 94 3e
       0.17081591 0.12765968 0.13446958 0.2900282

fc2.weight f4 [128, 128]
000000 6b 68 10 3e 2f e0 44 3d 1a 3c a2 3c a3 42 a0 bd
       0.14102332 0.04806536 0.01980405 -0.0782521
000010 27 e6 60 bd 2b 55 6a bd 9a 2d a2 3d ca 80 ae bd
       -0.05490699 -0.05721013 0.07918854 -0.08520658
000020 37 8e 35 3c 97 bf 79 bd ce aa 74 bd a6 9c 8a 3c
       0.01108127 -0.06097373 -0.059733205 0.016920399
000030 29 e9 be 3c fc 7e 7b bd 95 9a 2c 3d 85 c3 3d bd
       0.023304539 -0.0614004 0.04213961 -0.04632904
000040 83 4c c0 3d 4f b4 87 3d 33 51 3a bd 6f 5b 8f 3d
       0.093895935 0.06626188 -0.045487594 0.069998614
000050 c9 ea 7e 3d 45 ea 87 3c 33 07 d3 bd 55 4c 6a bd
       0.062235627 0.0165912 -0.103041075 -0.057201702
000060 a3 1e 03 3e d5 d6 ef bc 18 65 8d 3d 83 f0 74 3d
       0.12804656 -0.029277245 0.06904048 0.059799682
000070 75 a8 2c bc a8 f9 5d bd f2 f6 c6 bc 35 aa 3a 3c
       -0.01053821 -0.05419317 -0.024287675 0.01139312
000080 7c 02 60 3c 73 3e 05 3d 34 b6 f8 3d 0a 35 b6 bd
       0.013672467 0.03253026 0.121441275 -0.08896835
000090 04 f1 b4 3d a3 51 ce bc 32 b2 da 3c d8 ed e1 3d
       0.088350326 -0.025185412 0.026696298 0.11031693
0000a0 53 48 fe 3c 42 10 e7 3d ba 29 25 3c 26 b3 ac bd
       0.031040346 0.11282398 0.010080749 -0.08432607
0000b0 83 c8 3e bd 0b cc 5c bd ba 79 ae 3d 3e b5 db 3d
       -0.04657794 -0.053905528 0.08519311 0.107279286
0000c0 87 f5 13 3e 55 cb 11 3c f8 ea f6 3a c1 18 8e 3d
       0.1444913 0.008898576 0.0018838337 0.06938315
0000d0 0b ec ae 3d 1f 1d cc bd cf 6b 5e 3b 98 96 a2 3d
       0.085411154 -0.09966492 0.003393877 0.0793888
0000e0 6b 77 a3 bd 3c 17 d5 bd 4c d3 63 3b 39 02 07 b9
       -0.079817615 -0.10404822 0.0034763394 -0.00012875431
0000f0 65 33 a1 bc 5a 30 00 3e b7 0f 37 bc 61 07 11 3d
       -0.019677827 0.12518445 -0.01117318 0.035407428
000100 29 4a 06 3e de d7 85 3d 0a 9d 06 be 65 d3 9f bc
       0.13114227 0.06535314 -0.13145843 -0.01950998
000110 58 77 35 bd 66 e9 52 bd 0a 9f 93 3d 67 c0 93 3d
       -0.04430327 -0.051492117 0.07208069 0.07214432
000120 9c af 80 3c 89 16 3a 3d 33 73 e1 bd aa 70 d2 3c
       0.015708737 0.045431647 -0.11008301 0.025688488
000130 8a 60 46 3c 96 71 78 bd e2 48 a0 bc 69 23 4a 3d
       0.012107978 -0.0606552 -0.019566003 0.049350176
000140 0f ca bd ba 68 e6 e7 3d ff 6d 16 3e bb 0a 86 3d
       -0.0014479774 0.113232434 0.14690398 0.065450154
000150 90 2e a7 3d 2c 33 8d bd 3f 26 4b bd 3b 47 37 3a
       0.08163178 -0.06894526 -0.04959702 0.000699151
000160 d7 3b 65 bd 91 e5 78 3d 09 78 a5 3d f4 76 a6 bc
       -0.05596527 0.060765807 0.080795355 -0.020320393
000170 67 db e2 bd 96 7f 09 3a cf 65 6d bd b2 99 c2 bc
       -0.11077004 0.0005245147 -0.05795842 -0.023754928
000180 95 e2 13 3e 05 db c4 bb a3 a2 1d 3e 2b 5b c3 3c
       0.14441903 -0.0060075545 0.15394072 0.023847183
000190 77 c3 95 3b 0c dc 94 bc b3 52 3c bd 51 a1 51 3d
       0.0045704204 -0.018171333 -0.045977306 0.051179234
0001a0 e0 04 27 bd 43 13 c3 3c f0 e2 a0 bd 58 f5 fd 3c
       -0.040776134 0.023812896 -0.07855785 0.031000778
0001b0 eb c3 0a bc 5f be 58 3d 5d 11 1d bd 68 66 bc bd
       -0.008469562 0.052915927 -0.038346637 -0.0919922
0001c0 dd 21 94 bd ab c5 44 bd f6 85 d9 3d a6 23 d4 3d
       -0.072330214 -0.048040073 0.10621254 0.10358362
0001d0 60 78 69 bd b4 4b 25 3d e9 57 0b 3d f5 86 89 bd
       -0.056999564 0.0403554 0.034019385 -0.06715194
0001e0 6c 2d e6 bc b9 50 7b bd 43 a2 db 3d 23 d7 39 3d
       -0.02809783 -0.06135628 0.10724308 0.045371186
0001f0 7c 12 f5 bd f7 e8 70 3d 9c 58 87 bc 2e 19 9a bd
       -0.11966416 0.058815923 -0.016521744 -0.07524334
000200 0e c9 b7 bd ce 9a 37 bd 46 80 31 3e 77 fb 45 3d
       -0.08973895 -0.044825368 0.17334089 0.04833552
000210 4c 36 b8 3d 6a 64 00 3e 1c 04 cf bd f8 02 27 3e
       0.08994731 0.12538305 -0.10108206 0.16309726
000220 0b f3 95 bc 0f 07 a0 3d da e7 a0 3d fb 22 2e bd
       -0.018304368 0.07813846 0.07856722 -0.04251383
000230 11 f6 92 3b 01 06 91 3d 08 13 d9 3d f5 d5 d4 bd
       0.0044849 0.07081223 0.10599333 -0.103923716
000240 20 ea 0b be 48 c8 10 be 78 4e d3 3d 22 fb 05 3d
       -0.1366353 -0.14138901 0.10317701 0.032710202
000250 58 f8 73 bd a1 4f 04 3d d3 97 1c 3e bf b4 1a 3c
       -0.05956301 0.032302503 0.15292291 0.009442507
000260 92 58 e5 bc 5a 64 28 3e 48 9e 33 3d 81 8f d3 3c
       -0.027996335 0.16444531 0.04385212 0.025825264
000270 64 df a0 3d e0 4a df 3d c7 b0 09 3e 22 70 67 3d
       0.078551084 0.10902953 0.13446341 0.056503423
000280 6e 8d 77 bd 3b 73 48 be b1 d6 72 3d 43 c1 fe 3d
       -0.060437612 -0.19575207 0.059286777 0.124392055
000290 c1 a1 64 bc d7 8a 21 3d 0f 04 0f 3e a9 b9 c1 3d
       -0.013954581 0.03943905 0.13966392 0.0945924
0002a0 0a d5 2d 3e a2 ae ec 3d c0 32 68 3e 84 29 47 3e
       0.16975799 0.11556746 0.2267561 0.1944943
0002b0 86 ec 4b 3b bf c8 22 bc ab cf ae bd 42 cf 39 bd
       0.003111632 -0.009935557 -0.08535703 -0.045363672
0002c0 a4 7d 12 be 98 66 09 3d 38 02 9c 3d d9 73 37 be
       -0.1430574 0.033545107 0.07617611 -0.17915286
0002d0 c5 81 dc bc 71 5d 98 3d d8 2b 16 3e ea 10 8c 3d
       -0.026917348 0.074396975 0.14665163 0.068391636
0002e0 4d 26 e8 3d c4 2c 27 3e 71 f4 11 bd fc 4a e7 3d
       0.1133543 0.1632567 -0.035633508 0.11293599
0002f0 4a a4 9b 3c 72 06 6c be 27 d4 ee 3d 87 bd f3 bd
       0.018999238 -0.23049334 0.116615586 -0.11901384
000300 1d c4 14 be ef 25 c3 3d 66 e0 a0 3d a0 fd b7 3d
       -0.14527936 0.0952872 0.078553006 0.08983922
000310 85 6b 1a 3e 61 aa 0b 3e ee dd f4 3d bb 30 09 3d
       0.15080078 0.13639213 0.11956392 0.03349374
000320 35 62 01 3e 17 74 0a 3d 15 eb 37 3e fb da ed 3d
       0.1263512 0.03380212 0.1796077 0.11614033
000330 a1 80 3f bd ef 84 35 3e d1 dd 16 3e 83 20 d5 3d
       -0.04675353 0.17726491 0.14733054 0.10406592
000340 55 1e 83 3d 22 0d f6 bd 31 8f 17 bd a5 5f 5b bd
       0.0640227 -0.12014224 -0.037001792 -0.05355801
000350 a2 db 1e 3e 23 1d 1e 3e 46 a5 2a 3e c9 d6 0a 3e
       0.15513471 0.15440802 0.1666461 0.13558497
000360 13 2a 08 3e a0 ae fb bd 22 2b 8e 3d 22 33 85 bc
       0.132973 -0.122891665 0.06941821 -0.016259734
000370 49 9a a0 3d b0 08 cf 3d 78 88 90 bc dc fc 7b bc
       0.078419276 0.10109079 -0.017643198 -0.015380111
000380 a1 21 ae bd 15 02 30 3e 02 c3 50 be cd a3 a9 3d
       -0.08502508 0.17188294 -0.2038689 0.08283196
000390 10 26 2b 3e 49 9e 89 3d cf 1f f1 3d 22 2f d6 bd
       0.16713738 0.067196436 0.11773645 -0.104582086
0003a0 b5 ab 1e 3d 37 6d df 3c 07 12 7c 3d 4e 83 b3 3c
       0.03873797 0.027273757 0.06154063 0.021913197
0003b0 b5 ec 04 bd aa 56 dd bc 18 6f 02 3e c4 a4 80 3d
       -0.032452304 -0.027018864 0.12737691 0.062814265
0003c0 3c de ad 3d 71 43 97 3c 0d 55 40 be 81 1c 62 3d
       0.084896535 0.018464776 -0.18782444 0.055202965
0003d0 29 9f 04 bd 5a ae 01 be 9b 49 3d 3e e9 13 44 3e
       -0.03237835 -0.12664166 0.1848511 0.1914822
0003e0 18 12 43 bc cb 1b ad 3d 00 35 ea bd 76 b7 66 bd
       -0.011906169 0.08452567 -0.1143589 -0.056327306
0003f0 ce 2e f9 3d 9a bd cd 3c f2 8a a5 3d ba 17 ef 3c
       0.121671304 0.025114823 0.08083142 0.029186118

fc2.bias f4 [128]
000000 2a 38 d9 3a b4 a2 d3 3d 83 aa 0e 3d 81 77 a8 3d
       0.0016572524 0.103337675 0.03483058 0.082259186
000010 9a 6c 3c bd db bd 01 3e f6 3b 78 3c fa 2b 04 bd
       -0.046002008 0.1267008 0.015151015 -0.0322685
000020 1a 91 ce 3d ef a7 fd 3d 67 8e a6 3c ed 47 ea 3d
       0.1008627 0.123855464 0.020331575 0.114395
000030 b0 16 a9 3d 20 28 c0 3c 15 82 e2 3d 8f 63 45 3d
       0.082562804 0.023456633 0.110599674 0.04819065
000040 6b ff ac 3c 13 a3 f8 3c a3 c3 94 3d d1 f5 0f bd
       0.021117887 0.030351197 0.07263877 -0.03514654
000050 e4 da 0a 3e 3f d5 f2 3c 9b 3d 40 bd da 67 a9 bd
       0.13560063 0.0296427 -0.04693375 -0.08271761
000060 79 0a 9e 3d 55 a3 4b bd 3a 57 b3 bd fb be e1 3d
       0.07716841 -0.049716312 -0.087568715 0.11022755
000070 f3 45 92 3d 23 08 44 bc 8f 33 c0 3d af 15 23 39
       0.07142248 -0.011964831 0.09384834 0.00015552969
000080 ef 3e c2 3d d8 66 20 3c 54 54 bf 3d ba a1 39 3d
       0.0948466 0.009790145 0.09342256 0.04532025
000090 70 cc fa ba fc c9 42 3c 3a 4b c2 3d 6c 0c 72 3c
       -0.0019134413 0.011888977 0.094870046 0.014773469
0000a0 d6 1d 0f bd b8 d8 82 bd 84 cb b2 3d dc 4d b5 bc
       -0.034940563 -0.06388992 0.08730224 -0.022131853
0000b0 f8 cc 0a bd a0 9d 01 3e be 9d ec 3c 94 cc ac bd
       -0.03388688 0.12657785 0.028883811 -0.08437458
0000c0 61 a2 bb 3d 55 5f 12 bd 42 53 fd 3c 9c ed 05 3e
       0.09161831 -0.035735447 0.03092349 0.13078922
0000d0 bf f9 0f 3b a9 48 72 3d 43 fa d3 3d 62 ed f3 3c
       0.0021968929 0.059151325 0.10350468 0.029776279
0000e0 24 2a a8 3c 2d dd 28 3c 7f 33 a0 bd 33 22 10 3e
       0.020527907 0.010306639 -0.07822322 0.14075546
0000f0 44 91 4b 3d 6d f5 cc 3d 8c d0 ab 3d 0f 9e 08 bd
       0.049699083 0.10007749 0.083893865 -0.03335386
000100 7a 89 be bd b5 a6 2d 3c 5f 59 88 bd f9 cd 60 bd
       -0.09303565 0.010598828 -0.06657671 -0.05488393
000110 30 0a 16 3d 56 0c 09 3d ce 9e 24 3e 32 0f 70 bc
       0.03663081 0.03345903 0.16076204 -0.01465206
000120 79 47 ad 3d 51 76 15 3e 27 f7 c1 3d 2a 83 d8 3c
       0.08460898 0.14595915 0.09470969 0.026429731
000130 db 02 95 3d b6 fb 05 ba 68 15 c2 3d 72 db 44 bd
       0.07275935 -0.0005111055 0.09476739 -0.04806084
000140 7a 32 9a 3d 79 e8 1c bc 4b 45 13 3e c4 0c 71 3d
       0.07529159 -0.00957691 0.14381902 0.058850065
000150 c2 6b 8f bd 40 18 1f 3e 95 86 32 bc 6e 7c de bc
       -0.07002975 0.15536594 -0.010896345 -0.027158942
000160 9f c2 e6 3d f7 cc f5 3d 7b 89 9b 3d 42 85 13 bd
       0.1126759 0.120019846 0.07594582 -0.036015756
000170 9e 00 96 bd 9e 38 18 bc 6d fd a7 3d 52 aa 85 3c
       -0.073243365 -0.009290842 0.08202634 0.016316567
000180 bd 0b 02 bc 8b 70 1f 3e 48 58 4e 3d 5c 77 47 3d
       -0.007937369 0.15570275 0.05037716 0.048697814
000190 87 1d cc 3d 48 71 37 3d bc c2 06 bd b2 ef ba 3d
       0.099665694 0.044785768 -0.032900557 0.091277495
0001a0 33 f2 cd bc 60 98 b1 bc e0 b3 30 3c cb 19 c9 3d
       -0.025139904 -0.021679103 0.010785073 0.09819373
0001b0 50 05 5d 3d f1 0d ee 3d b1 64 86 3d 86 17 01 3e
       0.053960145 0.11623753 0.06562174 0.1260663
0001c0 fb 15 c2 3c 8e e5 84 3d ea f9 7c 3d ee bd 75 bd
       0.023692122 0.064890966 0.061761774 -0.059995584
0001d0 00 ce 9f bd e4 74 27 bd f8 6d aa 3d 51 24 63 3b
       -0.07802963 -0.04088296 0.08321756 0.0034659097
0001e0 8c 0b bb 3c 72 7d 78 bd ad ff 52 bd bb d2 2e 3d
       0.022832654 -0.06066651 -0.051513363 0.042681437
0001f0 b4 ad 7f 3d d4 0f 15 3d cd e1 af 3d bb 12 b3 bd
       0.062421516 0.036392048 0.0858799 -0.08743807

fc3.weight f4 [4, 128]
000000 a4 fe ac bd e2 83 07 3e 13 45 e8 3d 80 b3 17 3e
       -0.08447006 0.13233903 0.113413 0.14814568
000010 74 7b 77 bd 12 b9 2c bd 5a 70 7e 3b 85 0f 0e bd
       -0.06042047 -0.042168684 0.003882429 -0.03468277
000020 a6 f4 cc 3d 62 aa 8c 3b 74 4a c6 3d 4f 74 b0 3d
       0.100076005 0.004292772 0.096821696 0.08615934
000030 82 4a ca 3c 00 dd 15 3e 50 d3 df 3d b7 27 9b 3c
       0.024693731 0.14635086 0.109289765 0.018939836
000040 9e 70 ea 3d 6e 18 5e 3d 2a 61 c8 3d 69 8a e5 3c
       0.11447261 0.054222517 0.097841576 0.0280201
000050 d0 73 47 bb 2c 4b ac 3d f2 2a ba bd 29 ef c9 ba
       -0.003043402 0.084127754 -0.090902224 -0.0015406358
000060 4a fd f0 3d 7e 6f 78 bd 48 61 05 bd 81 e7 12 3e
       0.11767061 -0.060653202 -0.032563478 0.14346124
000070 2f 44 1f 3d 16 bd 9a bc 55 a0 67 bc 9a a4 fb 3d
       0.038883384 -0.018888991 -0.014137347 0.12287255
000080 4c 24 3b 3d b4 54 b9 bd 72 f3 56 bd 55 41 57 bd
       0.045688912 -0.09049359 -0.05247826 -0.05255254
000090 ff b0 63 bd 24 f4 00 be 10 f5 ff 3d c9 3d 3e 3e
       -0.05558872 -0.12593132 0.12497914 0.18578257
0000a0 5d c3 1a 3d 39 f7 cc bd 24 ce b5 3d 20 a8 7f 3d
       0.03778397 -0.100080915 0.08877209 0.062416196
0000b0 5a 39 a3 3c 28 6f fc 3d 26 39 8c 3d 88 84 ab 3d
       0.019924808 0.12325889 0.06846838 0.08374888
0000c0 f3 2b a3 3d 1b 87 3e 3d a1 50 e4 bc b6 3a ae 3d
       0.07967367 0.046515565 -0.027870478 0.08507292
0000d0 ce 4a 97 bd d8 70 a2 3d 2d 61 98 bb ee 0e 58 bc
       -0.07387315 0.079316795 -0.004650256 -0.013187153
0000e0 b5 16 aa bd 76 19 c2 bb 8f 8b 90 3d 05 6e 0a 3e
       -0.08305112 -0.0059234453 0.07057869 0.13518532
0000f0 32 9b d0 3d eb 35 3a 3d 51 25 8b bd 3e 9d 28 3d
       0.10185851 0.045461576 -0.06794227 0.041165583
000100 1f b3 a8 3d 39 4a 2c 3c a6 e6 d7 bc 6e c5 da bc
       0.0823729 0.010515743 -0.026355099 -0.02670547
000110 a6 e4 7b 3c f8 3a eb 3b d5 59 4e bd 12 59 88 bd
       0.015374338 0.0071786605 -0.05037864 -0.06657614
000120 5c a5 c7 bd 0b 0e 79 bd de ee e0 3d 38 b3 27 bd
       -0.09748337 -0.060804408 0.1098306 -0.0409424
000130 56 71 6e 3d 2a c3 4e bb a2 e6 88 3d 38 0e 89 bc
       0.058213554 -0.0031549432 0.06684615 -0.016730413
000140 aa 8a 37 bc 5f 35 f8 bc a4 0a 09 3e 23 8f ec 3c
       -0.011202494 -0.030298887 0.13382965 0.028876847
000150 fe 5c 55 3c 14 03 68 3b 5b c7 de 3d a4 f1 05 bd
       0.013022659 0.0035402225 0.10877868 -0.03270115
000160 dd 9a 1d 3c 54 69 3c 3b 02 ca 6d 3d c5 48 70 bd
       0.009619442 0.0028749304 0.058053978 -0.05866315
000170 36 cc 33 3d 66 39 a9 3d 0a b0 b4 bd 6d 95 27 3e
       0.043895923 0.08262901 -0.08822639 0.16365595
000180 95 6d ea 3c e1 ac 00 3e 69 47 ad bd e6 ee c8 3d
       0.028616706 0.12565948 -0.08460886 0.09811191
000190 64 c1 04 3e 58 37 86 3d e6 85 50 bd a8 d3 dc bd
       0.12964398 0.06553525 -0.050908946 -0.10782558
0001a0 5c 40 91 3b d1 4a 17 bd e0 cb 92 3d 9e bf 95 3d
       0.004432721 -0.036936585 0.07167792 0.07311939
0001b0 98 53 17 3e 02 f6 e1 3b 63 11 98 3d 82 54 8a 3c
       0.14777982 0.0068957815 0.07425191 0.016886
0001c0 18 73 0a 3e 95 0d c9 bc 52 5a 80 3c 7f eb ae bd
       0.13520467 -0.02454261 0.015668068 -0.08541011
0001d0 22 20 72 bd 02 93 9d 3d b4 e9 27 bc 48 a8 a9 3d
       -0.059112675 0.07694055 -0.01024859 0.0828405
0001e0 ea f9 91 3d 9c 4f 6d bc f7 8f 7a bd 49 ca 10 3e
       0.071277454 -0.014484312 -0.06117245 0.14139666
0001f0 84 84 57 bd df 79 22 3e 10 0c 6b 3d cb 48 45 bd
       -0.05261661 0.15866803 0.05738455 -0.048165124
000200 61 77 40 bc 58 23 fa 3d cf 19 01 3e 1c 6b 44 3e
       -0.011747212 0.122137725 0.12607501 0.19181484
000210 cb ba 49 bc 50 ba d4 3d 8b d1 14 3d 1f 2e 4d 3d
       -0.012312601 0.10387099 0.03633265 0.050092813
000220 c9 ea 10 3e e9 1b 43 3e 65 a8 46 3e 78 e3 3d 3e
       0.14152063 0.19053616 0.19400175 0.18543804
000230 21 60 61 bd e0 b3 5b 3e 80 23 4c 3e 44 a2 bd 3d
       -0.055023316 0.21455336 0.19935417 0.09259465
000240 7e ff 28 3e 48 19 6c bb d0 d9 3d 3e dc 9e e7 bd
       0.16503713 -0.003602581 0.1854012 -0.11309597
000250 7d 97 25 3e 58 09 32 be 18 c2 eb bd 94 df 5f bc
       0.1617107 -0.17386377 -0.1151163 -0.013664145
000260 dd 79 31 3e 05 1b 99 3c 20 b5 a5 3d 28 b5 2b 3e
       0.17331643 0.018689642 0.080911875 0.16768324
000270 ac 79 df 3d f5 2c 32 3d 56 a0 e5 bd f9 35 c4 3d
       0.10911879 0.043499906 -0.11212222 0.09580607
000280 1e b7 d9 3b 93 2e 66 bd 36 32 1f 3e 93 36 e1 3d
       0.0066441437 -0.05619676 0.15546498 0.10996737
000290 07 be af bd db bc c2 bd 94 ad 13 3e 53 f2 28 3e
       -0.08581167 -0.095086776 0.14421684 0.1649869
0002a0 cf 8b 2c be b4 13 13 3d d5 4f b8 3d 70 09 3c be
       -0.16850208 0.035907462 0.08999602 -0.18362975
0002b0 81 85 25 be 8a 76 2f 3e 89 4e 26 3e 20 1b a9 3d
       -0.16164209 0.17135063 0.16240896 0.08257127
0002c0 0c 0a 44 3e 1f f5 f9 3d b9 42 63 bd 22 8f 87 3d
       0.19144458 0.12204956 -0.055483554 0.06619097
0002d0 e4 7d 20 be 74 c6 30 3e 4e c3 20 3e 83 ec 03 be
       -0.15673023 0.17263204 0.15699503 -0.12883191
0002e0 c4 26 96 bd bf 5e 7e bb 9a 6c 3a 3d e6 96 44 3e
       -0.07331613 -0.0038813797 0.045513727 0.19198188
0002f0 5e 91 dc 3d 7c 70 a2 3d 68 4d 37 3e 8d 14 fa bd
       0.10769914 0.07931611 0.17900622 -0.12210951
000300 02 92 43 3d 3d d0 06 be 24 2f a6 bd b3 61 2e be
       0.047746666 -0.13165374 -0.0811446 -0.17029457
000310 cd bb 4b be 0d c8 b5 bd e2 42 24 3e 55 7e 0f be
       -0.19895859 -0.08876047 0.16041139 -0.14013036
000320 b7 f5 4d bd dc dd 04 3e d7 c0 c7 3d 37 85 e0 bd
       -0.05028316 0.12975258 0.09753578 -0.10962909
000330 60 59 b6 bd 4f 9b 3d be 98 9d 23 bc 19 37 b0 3d
       -0.08903766 -0.18516277 -0.009986304 0.08604259
000340 bd 2f 03 3e 49 80 9f bd 90 58 3e 3e d2 74 aa bd
       0.1281118 -0.0778814 0.18588471 -0.08323063
000350 83 f1 a6 3d e0 1c dd 3d 11 9f d9 bd 6f 45 2c be
       0.081515335 0.10796523 -0.10626043 -0.16823362
000360 fd dd 29 3e 4f bb 18 3e 94 75 4f 3e f1 43 20 be
       0.16588588 0.14915203 0.20259696 -0.15650918
000370 f1 02 15 bd f3 08 df 3d 9a ca 80 bd 74 09 42 3e
       -0.03637976 0.10890379 -0.06288643 0.18948919
000380 d5 ea 72 bd 32 fb 5b 3e d4 b7 f8 bd 61 72 10 be
       -0.059305985 0.21482542 -0.121444374 -0.14106132
000390 d2 78 e3 bd f6 b2 9e bc c6 5e 9f 3d 93 2a ec bd
       -0.11107029 -0.019372445 0.077817485 -0.11531558
0003a0 23 d8 2f be 72 91 fc 3d d0 ef ad bd 13 7a 29 3e
       -0.17172293 0.12332429 -0.08493006 0.16550474
0003b0 74 f5 8a 3d 7a ee 63 3d 14 f5 df 3d d3 49 e8 3c
       0.06785098 0.05564735 0.10935417 0.028355515
0003c0 fb c4 4b 3e 36 99 4b 3c 67 88 e9 3d be c6 00 3d
       0.19899361 0.012426665 0.1140297 0.031439535
0003d0 65 9a 07 be 66 32 c5 bc f7 27 e9 3d 88 82 26 bd
       -0.1324249 -0.024071883 0.11384576 -0.040651828
0003e0 13 6d 1a 3e 7d e2 32 3c a7 02 5f bd 0d 88 49 3e
       0.15080671 0.010918257 -0.05444589 0.19680806
0003f0 71 cf c6 bd c0 cd 14 3e 5b 94 54 3e 51 36 7c 3c
       -0.09707535 0.14531612 0.20759718 0.015393809

fc3.bias f4 [4]
000000 f3 14 cc 3d b7 cb fe 3d 92 70 3f bd f8 24 09 3d
       0.09964933 0.12441199 -0.046738215 0.03348252
