checkpoints/cats_actor_critic/policy_final.pth (torch, 84433 bytes, 6 tensors)

fc1.weight f4 [128, 25]
00000000: ba41 f0bd 873c 10be 4a68 62be c8ac d23d
00000010: e286 293e 6cf2 89bd 116a e7bd a46d 233e
00000020: 6bec f1bd d0fe 85bd 5e56 b1bd 67da 79bb
00000030: fa2e ad3d 7037 16be 7a20 75be 01f1 1f3e
00000040: 46f1 fbbc 5721 d0bd bfa4 18be fb99 b83c
00000050: 816e 21be f477 d6bc c8c3 8bbd 8469 943d
00000060: 33c2 97bd 44a1 49bd c5d8 bc3d 58fb c0bd
00000070: ca80 8bbc 9135 6b3e a9f8 4ebe b001 403d
00000080: d461 f8bc 4a33 07bd 288b 8f3e d9cb 6c3e
00000090: a300 e63d e7bf 3abe 7a81 9cbd 14a1 5d3e
000000a0: 5a3b 3f3d c413 133e 97f6 b4bd a9b9 083d
000000b0: 8a20 293d 5f05 cfbb c9c5 72be 1708 aebd
000000c0: bac7 b7bd 491f 79bc 80c5 20be 83b8 87be
000000d0: bf9c cebd 65a0 423e 34fa cb3d 1721 4cbd
000000e0: 96bd 27bd 9261 1f3d e4a9 11be 5c9a 21be
000000f0: 3cc0 b83e da14 c0bc 8a49 3dbe 6532 28be
00000100: d67f 88be d540 f53d d5e9 903d ef20 483e
00000110: 2337 65be f94d 53be 0c3f a63d c30e 0bbe
00000120: 190e 8c3e ab75 a83c ecc8 9bbd 20ae 273e
00000130: 5a12 03be 7484 1dbe eda1 423e 8bc3 99bd
00000140: add8 10be 0a7f 5c3e ee2d 543e 658a 213e
00000150: 3963 63be fb66 b33d c7a9 613d cdcd 163e
00000160: 9d54 b03d 0a1a 25be 5d3f 873b c0d1 ebbc
00000170: e79b e7bc 41db 913d 3f34 1d3d 6012 8abd
00000180: fb09 2b3e 8a5d 90bc 1321 c1bd 3999 4e3a
00000190: a218 6b3e e9b9 5dbc 9d14 ddbd ff05 273e
000001a0: eef1 24be d504 adbd 227b 0c3e 973f 11be
000001b0: 24c1 183e 5bf1 4dbd 569c a4be 3367 ce3d
000001c0: 30d9 873d aaa5 c5bd a3f4 523e 3fb6 443d
000001d0: 8a40 9abc 2779 85bd 88b7 ab3d 6cd2 033e
000001e0: f278 5fbc 60a6 14be 5a38 1c3e d712 7bbd
000001f0: f8e4 dbbd c5c4 c93d 8f65 a03c af39 5ebe
00000200: 5eca 7ebd 1b3b 5abe 6b1f ab3d 3496 28be
00000210: e354 77bd 9d1f 823c 6d93 fe3d 1b2d f0bd
00000220: 4008 59bd a31e c13d e208 203e a55c c03d
00000230: 7e58 12be 6a27 ab3d aa33 d9bd 70ab edbd
00000240: d20b f83d 21e4 2fbe 5442 be3d 6ec8 583d
00000250: 26de d13b 6f7c ad3c ed0e 0ebe 1a57 9dbd
00000260: 6aec c3bd 85d2 8b3b 0998 6d3d f850 043e
00000270: 4170 02be 3f7d 02bc fa8b 82bd af34 82bb
00000280: ef7d 51bd b018 d63d f0ab d93d ca98 013e
00000290: 2fd3 203d 7dea 673e 9e29 923e aa04 01be
000002a0: f8ff e03d 598c 8b3d 1071 273e 0005 4c3e
000002b0: f625 203e 684a 593e 100c 0e3e 7648 183e
000002c0: 14d6 10be 2710 80be f136 72bc 098d c83d
000002d0: 8f95 1f3e 0104 2e3e 7c68 ae3d ec5d 9a3d
000002e0: 294f b73d 6b56 0cbe 60ea 9bbd db58 123e
000002f0: 7b2a 49be 42d4 babd fbf7 e23d f5ca 28be
00000300: 27eb fbbc d20d 45be 8dcc 52be c6b5 99bd
00000310: 91c2 003e 8750 333e 8423 cc3d 6e6c 133e
00000320: f3af 33be fcfa 61bd 2bd9 2b3e c9f6 75bd
00000330: 65c7 af3d bbe1 03be 8761 b1bd bc56 efbd
00000340: 7e37 0c3e 1acf 6b3e 442d 41be 80e9 c2bd
00000350: a81d 05be cda5 cfbd 3505 f53d f7dc 1c3e
00000360: 669b 3fbd c034 003d 779f 2a3e f524 813e
00000370: d514 383e 442e 43be 2e2a a83c 32b5 81be
00000380: 1369 ecbd 378d 15bd f376 df3c 7ca9 acbd
00000390: a491 2bbe b490 823c c656 17be 5a82 1c3e
000003a0: 3366 28be 8e0e 9fbd 1b1d c93d c32e 3b3e
000003b0: edb6 5a3d 102f e2bd 5050 4c3e ad78 163e
000003c0: d463 f43d 266d 1dbe 3808 393e 7be3 83b9
000003d0: af9b 323d a02b 86bd 5b8d 8a3c cf02 2ebc
000003e0: fc2b 98bd 35f8 1cbe c291 a63c 71aa bc3c
000003f0: 4df7 bfbc 0b96 823d 5ae2 bcbd 6488 2abc
-0.11731286 -0.1408559 -0.22110096 0.10286862 0.1655536 -0.067356914 -0.112995274 0.15959793
-0.11812671 -0.06542742 -0.08659051 -0.0038124563 0.08456226 -0.14669585 -0.2393817 0.1561928
-0.030754697 -0.10162609 -0.14906596 0.022534361 -0.1576481 -0.026180245 -0.06824452 0.07246688
-0.074100874 -0.04922606 0.09221033 -0.0942294 -0.017029185 0.22969653 -0.20212044 0.04687661
-0.030320086 -0.033007897 0.28035855 0.23124637 0.1123059 -0.18237267 -0.07641883 0.21643478
0.04668746 0.14363009 -0.08836096 0.033380184 0.041290797 -0.006317779 -0.23708262 -0.08497637
-0.08973642 -0.015205213 -0.1570034 -0.2650796 -0.10088491 0.19006498 0.09959832 -0.049836244
-0.040952288 0.03891141 -0.14224964 -0.1578154 0.36084163 -0.023447443 -0.18485084 -0.16425474
-0.2666003 0.11975256 0.0707585 0.19543813 -0.22384314 -0.20635213 0.08117494 -0.1357985
0.27354506 0.020563921 -0.07606682 0.16375017 -0.1279997 -0.15382558 0.19007082 -0.07508
-0.14145155 0.21532837 0.20720646 0.1577545 -0.22205819 0.08759876 0.055093553 0.14726944
0.08609889 -0.16123214 0.0041274265 -0.02878654 -0.028272582 0.071218975 0.038379904 -0.06741786
0.16703026 -0.017622728 -0.094301365 0.00078811083 0.22958615 -0.013533094 -0.10794947 0.16310881
-0.16107914 -0.08448187 0.13718846 -0.14184414 0.14917427 -0.050279003 -0.32150525 0.100782774
0.06633222 -0.096507385 0.20601134 0.048025366 -0.018829603 -0.065172486 0.08384615 0.12873238
-0.013639675 -0.14516592 0.15255871 -0.061297264 -0.10737032 0.09851984 0.019579677 -0.21701692
-0.06220471 -0.2131161 0.08355602 -0.16463548 -0.06038369 0.015884215 0.12430463 -0.11727353
-0.052986383 0.094296716 0.15628389 0.093926705 -0.1429157 0.08357127 -0.10605557 -0.11604965
0.121116295 -0.17176868 0.09289995 0.05292552 0.006404656 0.021177499 -0.13872881 -0.07682629
-0.09566577 0.0042670392 0.05800632 0.12921512 -0.12738134 -0.007964431 -0.06374355 -0.0039735655
-0.05114549 0.104539275 0.106284976 0.1265594 0.0392639 0.22648044 0.28547376 -0.12599435
0.10986322 0.068138786 0.16351724 0.19923782 0.15639481 0.2121979 0.13871789 0.14871392
-0.14144164 -0.25012323 -0.014783607 0.09792525 0.15584396 0.16993715 0.085160226 0.075374454
0.089506455 -0.13704841 -0.07613063 0.14291708 -0.19645111 -0.09122516 0.11082455 -0.16483672
-0.030751778 -0.19243553 -0.20585842 -0.07505374 0.12574221 0.17511187 0.099677116 0.14396831
-0.17547588 -0.055170998 0.16782062 -0.060049806 0.08582953 -0.12879078 -0.0866118 -0.11686465
0.13693044 0.23028222 -0.18864924 -0.09517193 -0.12999594 -0.10139046 0.11963884 0.15318666
-0.04677906 0.031300306 0.16662394 0.25223508 0.17976697 -0.19060618 0.020527925 -0.25333554
-0.11543479 -0.036511626 0.0272784 -0.08430764 -0.16754776 0.01593814 -0.14779195 0.152841
-0.16445236 -0.07766448 0.098200046 0.18279557 0.053397108 -0.11044133 0.19952512 0.14694472
0.11933103 -0.15373668 0.18069541 -0.00025155753 0.043605503 -0.065512896 0.016913107 -0.010620787
-0.07430264 -0.15329058 0.020333175 0.023030492 -0.023433352 0.06376275 -0.09222861 -0.010408495

fc1.bias f4 [128]
00000000: cfda de3d d0b7 2abd ccaf 543c 4542 c23d
00000010: eb14 29be 80d5 013e 00b3 25be b5b4 c73d
00000020: 14b7 c7bd a0be 23bc a028 f3bd 39c7 90bd
00000030: 5e0a c8bd e04b b7bd 1267 0dbe 4345 70bd
00000040: 62a2 f13d db9f e0bc f443 fa3b 2043 b1bd
00000050: fe5b 153d ca3e 4a3d fe25 30be f236 9e3c
00000060: 652a 1b3e 7506 22be 4517 15ba e961 babc
00000070: b361 3bbd 52e8 04be 04cf f23c 3685 603d
00000080: 382a e43d 595b 243e a6f9 f5bd 9b55 803c
00000090: 8d50 c6bb 3090 97bc 3652 eebb bb4b 19be
000000a0: c372 b63d 5a29 66bc 7063 823d 2ab1 7fbd
000000b0: b864 183c f858 b93c 15ae c63d cf3a 85bd
000000c0: 06bd 88bd 5b21 c7bd 85f7 50bd 0c0a 2f3e
000000d0: 3f85 28bd a068 df3d 7185 0bbe 11c3 b63d
000000e0: 3981 b1bd ef58 293d 72f7 693c 9dff c63d
000000f0: 04f0 17bd 8014 05be ca4b c83c 7132 5e3d
00000100: cd8e 1cbe eeda 32bd e359 cb3d 393b 37bd
00000110: cbb6 22bc e9f7 9b3d 381d 7abd 7767 48bd
00000120: cbe7 e33d c23b 103e c52e 6d3b dd1e e1bc
00000130: d5c3 43be cec7 473c ddd7 ca3d b882 093e
00000140: c0d6 ddbd eb8b e03c 7e1c 0abd f6ad 2b3d
00000150: 58a2 163e 6cec a93d 3b1b ec3d bfe2 97bd
00000160: 74f8 5f3a 1fc0 56be d730 223e 2760 383e
00000170: 2291 a23d cf8d 93bd 4dfa 183e cb93 0dbe
00000180: 19fc c93d 64df b2bd c641 15be 9a78 a2bd
00000190: 20ba ca3d 19b2 7f3b 052d 05bd 4f7c 12be
000001a0: 9a01 ef3d f812 ccbd dc5c 49be 657e 133e
000001b0: 3501 af3d 40ff 243e f53e 4ebe 9a91 e7bd
000001c0: 1f8a 05be 1e12 6b3d d19a 6dbc 8b43 94bc
000001d0: c879 7bbd 4e35 f4bd 1798 d93d 1ba9 8b3d
000001e0: 98c4 9c3d 8642 01be d5a4 94bc 1818 10bd
000001f0: f0e7 8ebd 33cd 013e 0d3d d6bd d39a 95bd
0.10881578 -0.041679204 0.012981366 0.09485296 -0.16511886 0.126791 -0.16181564 0.09751264
-0.09751716 -0.009994179 -0.11872983 -0.07069249 -0.097676024 -0.08950019 -0.1380885 -0.058659803
0.1179855 -0.027419975 0.007637495 -0.08655381 0.036464684 0.049376287 -0.17201993 0.01931331
0.15152891 -0.15822776 -0.00056873664 -0.022751765 -0.04574747 -0.12979248 0.029639728 0.05481454
0.11140865 0.16050471 -0.12010507 0.01566582 -0.006052083 -0.018501371 -0.007272984 -0.14970295
0.08908608 -0.014047945 0.063666224 -0.062424816 0.009301357 0.022625431 0.09701172 -0.065053575
-0.06676678 -0.09723159 -0.051017303 0.17093676 -0.0411427 0.109086275 -0.13625123 0.08923925
-0.086672254 0.04134458 0.014280187 0.09716723 -0.03709413 -0.12996101 0.024450202 0.054247323
-0.15288849 -0.04366582 0.09929254 -0.044734214 -0.009931277 0.076156445 -0.06106302 -0.048926797
0.111281954 0.14085296 0.0036191207 -0.027480537 -0.19117673 0.012193633 0.09904454 0.13428771
-0.10831976 0.027410468 -0.03371858 0.04191395 0.14710367 0.08297047 0.11528631 -0.07416295
0.00085437973 -0.20971726 0.15838943 0.18005429 0.07937838 -0.07204782 0.14939232 -0.1382591
0.09862537 -0.08734015 -0.14575872 -0.07933159 0.09898782 0.0039016067 -0.032513637 -0.14305232
0.11670227 -0.099645555 -0.1966433 0.14403684 0.08545152 0.16112995 -0.20141204 -0.11307068
-0.1304097 0.057390325 -0.014502243 -0.018098613 -0.061395437 -0.119242296 0.10624712 0.06819364
0.07654685 -0.12623033 -0.018145004 -0.035179228 -0.06977832 0.12675934 -0.10460863 -0.07304921

fc2.weight f4 [128, 128]
00000000: ffd6 45bd a31e 063e 5ac5 b93d 31c4 16bd
00000010: 94db 9f3d 995d 9abd 6574 cd3c 126e 48be
00000020: 2a35 a93d df62 093e 8134 af3d 1d81 cfbc
00000030: d42a 1c3e 7b9e 323d eddc e93d e422 6cbd
00000040: 877c 37bd 502e 68bd 2d8b 2bbe 6918 1d3e
00000050: c9db 963d 91c5 97bd 4d28 10bc dee3 34be
00000060: 458b bebd 5252 2c3d 7760 c93d f098 2e3d
00000070: 1618 a6bd f637 133d e40b 5f3e 2731 213e
00000080: 12ad e9bd d5c7 4a3d a5eb 1fbc 3eb7 f93c
00000090: 5b66 06be d022 e8bd 3f20 0bbc 4b61 67bb
000000a0: fa3c 70bd d52d 12be 55de 16bc f357 4dbd
000000b0: 8fe6 d5bd 8908 2abd a0ec b1bd 02fc 243c
000000c0: 25cb 783d 9dc4 22bd bd21 683d 8f62 3fbd
000000d0: c770 253e 22fc afbd ee4d ffbd 959b 093e
000000e0: 4884 8a3d 3d9f 7b3d 723e fe3c eb5f 70bd
000000f0: 7639 873d 5eb9 a83d 4a40 143e cfdb 75bd
00000100: 8272 353d 585e 19bb dabc 043e 1664 a23d
00000110: f7e6 c93d d2a0 f33d 9dc5 ea3d 21d7 dc3d
00000120: a8eb 83bc 296c 1dbe 5079 033d 1eeb ab3c
00000130: b0dc a6bd bfd1 cc3d f683 e83d 66a8 13be
00000140: 5b81 7a3d 8da1 debc 28b5 36be 543d 853c
00000150: 0239 9dbc 2807 cc3c 4578 d9bd cd4d 7fbd
00000160: 516e a33c 13c1 983d a778 c1bd 84c9 2c3e
00000170: 7a65 62be 415d 7f3b 28a2 15be d278 0cbe
00000180: 669d 0abd 45c9 8ebd 020a 70bc 8ee2 7f3d
00000190: 8cea debc 805b 283d f9ca 6e3c fbe1 8bbd
000001a0: 7852 663b 5df9 ebbc da03 c73c 28d0 25bd
000001b0: 6c51 e23b 18bc 1ebe 2635 db3b 5c20 a83d
000001c0: 77af acbd 4045 0fbd f8a6 d2bd ed18 403d
000001d0: a36f 02be fc74 513d cfad be3d 5fef 1ebe
000001e0: 8933 03be 1321 d83d 4cdf 073e 8306 db3d
000001f0: 3677 0abe 0a31 d4bd 70ba 393c 5237 163e
00000200: 5f76 89bd a5f9 72bb 61cf 88bd 3d7f 02be
00000210: eadd 2dbd 24c1 54bd 8a05 dbbd 9bac 25bd
00000220: 4682 f83d 496d d53d be03 36bd 7623 88bd
00000230: 46d7 343c 5e3f a6bc d5eb 233e 2c73 7f3d
00000240: 14e9 923c aaa4 01bd 0d0c 303d 707a 0a3d
00000250: a797 363e b083 70be e930 e8bc 1a7d 6dbd
00000260: b732 98bd 864c 993d 6390 633d def6 453c
00000270: a3d3 bdbd be08 38bd 2a8f cd3c d016 04bd
00000280: 2630 bc3c a357 b8bb a033 d83d 59e1 453d
00000290: 58da f0bd f216 dbbc 8fc4 0d3e fffd 073d
000002a0: 9255 03bd 5743 5cbd 7720 4f3c 0d8b f33c
000002b0: 0a0b 7dbd 2b29 bd3d 4fdf be3d 9004 9a3c
000002c0: c39d 943c 425b 42be de71 b1bd 0945 243e
000002d0: 4a1d 853d 7ec9 2d3d 47b3 cebd 112b 8bbd
000002e0: 53a8 84bd 0412 8ebd cdf3 323d ab03 a8bd
000002f0: 2b24 023d 9200 58bc 8bb5 263e 8a4e 14be
00000300: bde1 a7bd ad15 ca3c 8299 4b3d b21a 863d
00000310: 33f9 99bb 5d66 9f3c fe59 23bd d8c9 44bd
00000320: 6b7f 70bc 2cfd 98bd 6df5 da3d 4f02 af3d
00000330: 1b53 07be 2898 ec3d cdcd f93c 9ffb 563c
00000340: 06eb 8dbc 62c8 9d3c c611 25be 1849 883c
00000350: 53de 463c 9b2e 003e c151 a0bc 0173 253c
00000360: 57ea 9ebc 7b65 753d 6b08 9fbd e584 263e
00000370: 32c3 3dbe b219 c1bd 235f 43be f868 90bd
00000380: 4305 3bbd da20 14bd 49ac 76bc ed00 87bc
00000390: afcb b63c d354 0e3d 1888 9f3c 446e 033b
000003a0: 30db 89bd 8c6e cebd 64d8 11bd 64b7 623d
000003b0: b017 a33d 0537 fbbd 34ae e53d 3aa9 57bc
000003c0: a563 dbbc f80f 9f3d dce1 dcbd e9a0 573d
000003d0: 2e9c 243c b3f2 b73c 5035 1e3e 351b 6fbd
000003e0: 6f69 28be d6bc 863d 90a6 873e f914 f2bc
000003f0: dd62 e5bd ccf9 dd3d dab6 8abd 38c8 1e3e
-0.04830074 0.13097624 0.09070845 -0.036808196 0.07805553 -0.075373836 0.025079915 -0.19573238
0.08262093 0.13416623 0.08554936 -0.02533012 0.15250713 0.04360817 0.114190914 -0.05765046
-0.044796493 -0.056684792 -0.1675231 0.15341343 0.073661394 -0.0741073 -0.008798671 -0.1766505
-0.09303907 0.042070694 0.09832852 0.04262632 -0.08110063 0.03594204 0.2178188 0.15741406
-0.11409964 0.04950698 -0.009760772 0.030482884 -0.13124983 -0.11334765 -0.008491575 -0.0035305794
-0.0586519 -0.14275296 -0.0092082815 -0.050132703 -0.10444366 -0.041512046 -0.08687711 0.010069849
0.06074061 -0.039738286 0.0566728 -0.046724852 0.16156302 -0.085930124 -0.12466036 0.13438256
0.06763512 0.06143116 0.031035636 -0.058685225 0.06602757 0.08238481 0.1447765 -0.06002408
0.044298656 -0.002340218 0.12962666 0.07929246 0.09858506 0.118959084 0.11463473 0.1078322
-0.01610358 -0.15373291 0.032098114 0.020986136 -0.081475616 0.100009434 0.113532946 -0.14419708
0.06115852 -0.027176643 -0.17842543 0.016264595 -0.019192223 0.024905756 -0.10618643 -0.062330056
0.019950064 0.07458701 -0.09446841 0.16873747 -0.22109023 0.0038965496 -0.14612639 -0.13717964
-0.033841513 -0.06971983 -0.014650824 0.06247192 -0.02721145 0.041102886 0.01457476 -0.06830212
0.003514437 -0.02880543 0.024293829 -0.040481716 0.006906679 -0.1550144 0.0066896854 0.08209297
-0.08431905 -0.03497815 -0.10285753 0.04689877 -0.12737899 0.051136956 0.09310495 -0.15521
-0.12812628 0.105531834 0.13268775 0.106946014 -0.13522038 -0.10360916 0.011335954 0.1466954
-0.067120306 -0.003707507 -0.066801794 -0.1274385 -0.042447962 -0.051942006 -0.10694416 -0.040447813
0.12134223 0.10421235 -0.044437163 -0.06647389 0.011037653 -0.020293888 0.16007932 0.062365696
0.017933406 -0.031651177 0.042980243 0.03380817 0.17831288 -0.23487735 -0.028343635 -0.057980634
-0.07431548 0.07485299 0.05555762 0.0120827835 -0.09268882 -0.044930212 0.02509268 -0.03224832
0.022972178 -0.0056256815 0.10556722 0.04831061 -0.11760396 -0.02674434 0.13844512 0.033201214
-0.032064028 -0.053775158 0.012642018 0.02972939 -0.061778106 0.09236368 0.093199365 0.018801004
0.018141633 -0.18980125 -0.086642966 0.1604196 0.06499727 0.042428486 -0.10092788 -0.06795324
-0.06477418 -0.0693703 0.043689538 -0.082038246 0.031772774 -0.01318373 0.1628019 -0.14483085
-0.08197353 0.024668539 0.049706943 0.065480605 -0.0046988963 0.01945799 -0.039880745 -0.048044056
-0.014678816 -0.07470164 0.106913425 0.08545362 -0.13215296 0.11552459 0.030493641 0.013121515
-0.017323982 0.019260589 -0.16120061 0.016636416 0.012137967 0.12517779 -0.019570233 0.01009822
-0.019398851 0.059911232 -0.077652775 0.16261633 -0.18531492 -0.09428729 -0.1907926 -0.07051271
-0.045659315 -0.036164142 -0.015055724 -0.016479934 0.02231392 0.034748863 0.019474074 0.0020054737
-0.0673126 -0.10079679 -0.035606757 0.055350676 0.079635024 -0.122663535 0.11214867 -0.013162905
-0.026780913 0.07766718 -0.10785267 0.05264369 0.010047002 0.022454595 0.15450025 -0.058375556
-0.1644647 0.06578986 0.26494265 -0.029551016 -0.11200497 0.108386606 -0.067731574 0.15506065

fc2.bias f4 [128]
00000000: 4723 ebbc 6b1e a83d b39b 75bd 7cee 9e3c
00000010: 2d0e 77bd 2921 983d c8b0 03bd f56c cf3d
00000020: 06e0 a73d 2365 703d 64b1 96bc 9eb3 a83d
00000030: 88ab 1d3d 91a0 96bd effb 5c3d 5b56 c43c
00000040: c17f 94bd 604c c0bd 0eb3 6dbd 1030 d0bd
00000050: a59b 893d 5710 7cbd 0c35 bebc 690f 01bc
00000060: 1983 e8bc 7bfa 603b f7ca 75bd 5a5b 84bd
00000070: b749 f53b 1378 d93d 6148 8d3d 6c62 823d
00000080: 524d 213d e270 c83c e58d c4bc 8aaf 9b3d
00000090: 6479 c9bc f8cd f73a 4a43 2b3d 4603 9b3d
000000a0: abcb 46bd c77a 7fbd 8250 7cbd ea0d ba3c
000000b0: 8302 483d 9793 37bd ff9b 333c e811 c0ba
000000c0: 00c6 0abd 5f41 d33c c683 783d 5f75 16bd
000000d0: 2520 3ebd d31d 89bd e4d9 ee3c 2961 acbd
000000e0: cbbe ba3d 46f6 3bbd 2fbb d03a b16a 2a3c
000000f0: 865e ae3c da16 19bd ca97 5abd 6884 8fbd
00000100: 6e94 0bbc 7c30 d5bc ba02 42bd d099 13bc
00000110: 668a ab3b d655 ddbd 1338 07bd 5ffd 90bd
00000120: 9a48 41bd ef4a 473d 663c 77bc ee8b 2bbd
00000130: 951f 823c 2f36 333c 1b67 7ebc a88e 843d
00000140: 8f68 103d 3966 083d ffca 20bc 74e5 e73c
00000150: 0523 383d 3236 35bd 3b9a 6c3d af57 273d
00000160: 2392 70bc 09e6 dabd af53 893d 9e13 3c3c
00000170: 93b5 933d f65b 81bd 9d5c 91ba 8e67 7b3c
00000180: ee9c b5bd e40f 3d3d 95c8 f23c 539d 17bd
00000190: c51b 88bd b9c5 3a3d cc72 3ebd 6b7f 77bd
000001a0: efd6 adbb 1ddf b33d 9b71 20bd 2c88 99b9
000001b0: 23c8 dabb 6490 9dbc dedb 2c3d 42ac a13d
000001c0: b46d b6bc ca2a 6abd a77d 95bd da5e b3bc
000001d0: d2b2 8a3c f795 043b 4826 933c b960 883d
000001e0: e56f 11bd ab90 843d 3685 abbc 6b57 743d
000001f0: 228d 47bd 8adc f43c 872a 1d3d 0cf2 7f3d
-0.028703345 0.08208927 -0.05996294 0.019400828 -0.060316253 0.074282 -0.032151014 0.10128204
0.08197026 0.0586902 -0.018395133 0.08237384 0.038493663 -0.07354844 0.0539512 0.023966959
-0.072509296 -0.093895674 -0.058032088 -0.10165417 0.0671914 -0.06153902 -0.023218654 -0.007877209
-0.028382825 0.0034328985 -0.060008015 -0.064627364 0.007485594 0.106186055 0.06898571 0.06366429
0.03938038 0.02446789 -0.023993442 0.07601841 -0.024594016 0.0018905988 0.04181222 0.07568984
-0.048534077 -0.06237295 -0.061600216 0.022711713 0.04883052 -0.044818487 0.010962485 -0.0014653774
-0.033880234 0.025788007 0.060672544 -0.036733028 -0.046417374 -0.06695142 0.029156633 -0.08416969
0.09118422 -0.04588916 0.0015924926 0.010401414 0.021285307 -0.03737531 -0.053367414 -0.07007676
-0.008519275 -0.026024096 -0.04736588 -0.00900884 0.0052350042 -0.108073875 -0.03301246 -0.07079577
-0.04718838 0.048655447 -0.015090084 -0.041881494 0.0158842 0.010938211 -0.015527512 0.06472522
0.035255965 0.033300612 -0.009814023 0.028307654 0.044955272 -0.044241138 0.057764273 0.040855106
-0.014683279 -0.10688407 0.067054145 0.0114792865 0.07212367 -0.06316368 -0.0011090223 0.015344514
-0.088678226 0.046157733 0.02963666 -0.03701527 -0.066459216 0.04559872 -0.046496198 -0.06042425
-0.005305163 0.0878279 -0.039170843 -0.0002928389 -0.00667669 -0.01923389 0.04220187 0.07894184
-0.022269107 -0.057169713 -0.07299357 -0.021895815 0.016930971 0.0020230988 0.01796259 0.066590734
-0.0355071 0.06472906 -0.020937543 0.05965368 -0.04871858 0.029890317 0.038370635 0.062486693

fc3.weight f4 [4, 128]
00000000: d432 1e3e 95bb f03d 47c0 123e e9e9 c93d
00000010: edbb 2a3e e3bc 683e f3f0 a5bd 5954 a33c
00000020: 4fce 74bd 4686 acbd 2949 963d 79b9 883d
00000030: 9932 313e b6ae bb3d 6be1 a03d ff4d 39be
00000040: 537b 023e ee58 e8bc cbc7 813c c33c 02be
00000050: a2ff b9bd fd28 14be 9097 11be 67e0 983d
00000060: 8f56 8fbd d31c e9bd be9a 003e 843c b4bd
00000070: b17c de3d 9477 133e 8e2c ce3d a125 ba3d
00000080: 0f01 553e 1425 f6bd 7576 debd dada a5bc
00000090: bcf5 8bbd 989e 42bd fe21 073e b346 923d
000000a0: d9c5 10be 15f4 003e d3d7 d7bd 89b9 11be
000000b0: 2e96 18be 0df3 2bba 4687 283e e9de d0bc
000000c0: 889f 043c b873 f63d 0f00 5bbe e51e bebd
000000d0: 38a5 1ebe 1b6b 48be 2384 1a3e 474e 1a3e
000000e0: 30cd 5b3c 4443 203e 4ec8 8e3c ef6d 193e
000000f0: bb6c 633d 2d96 5bbd 9da4 1dbe a013 3d3e
00000100: b79a edbd 2a23 6bbe ad7d 483e 5f57 20be
00000110: aefc 213e 605f 0abe 07c5 43be 7536 a0bd
00000120: 510e 07be e2cb bebc cff5 c23c c774 6bbd
00000130: 9f46 a9bd 38a6 eb3c de37 5d3e 4805 40be
00000140: 0363 0abe f76d 023e e640 963d 0711 503d
00000150: c0af 2b3e fae3 fd3d f227 243e 8019 173e
00000160: fa0c 02bd 97b4 623d 6bb6 1d3d 6153 403e
00000170: 1b06 abbd 0b1e 153e 9ace 153e caa1 82bd
00000180: f7dd 5dbe 048a c13d 4cda 083d 90f8 3b3e
00000190: fb24 273e 1941 05be 9e4f 10be bfce a0bd
000001a0: 1ddf 44be 5d33 113e 5b36 b93d 281f 713c
000001b0: 6056 48b7 dbf3 983d 0732 c9bd 1120 44bd
000001c0: 2631 4f3e 5287 333e 80e9 033e 70c2 cebd
000001d0: cf06 f3bd 857f d73d a367 0a3e a2fe 34be
000001e0: d065 d0bd 184f 19be f402 4fbe 966c f2bd
000001f0: ef43 ad3d c3ef 3cbe a16b 2b3e b327 64bd
00000200: 63e2 e73d 9095 1f3e 809f 1dbe 4771 00be
00000210: 61d9 5c3e 92ba 10be 915a a63b 0f01 4b3d
00000220: e228 eb3c e0ac 15be d36e 203e 3be1 ccbd
00000230: 146f 823c 8a06 11be 7a60 d2bc ceb7 d03d
00000240: 310a 49bc 759a b9bd 3d91 223e bf35 463e
00000250: a5f5 173c 5fd4 3cbe 7fee e13d 51dd 22bd
00000260: 82a4 3f3e 2628 b63c 5921 693d dcac 2e3e
00000270: 8ad1 a43d 8ad6 50be 28e7 3fbe 6607 293e
00000280: 0be8 16be d2b0 cf3d bc37 4abe e8b0 343e
00000290: df0a ba3d 24d6 3abe a168 d5bd 37d6 b4bd
000002a0: 7247 a1bd 4a43 c2bd 8958 cd3d 3145 363e
000002b0: bf3f b13c 4739 233e ce0d 0d3e a500 283e
000002c0: cc9d 6c3e 548e 22be 06c4 33be 51b4 f43d
000002d0: 9b74 323d 3208 a7bd 3ede 40be a6ca b8bd
000002e0: 04ef 133e 8caa 7fbc b98b 65bd aa02 41ba
000002f0: 1f76 dd3d 3d62 3a3e fb1d 3c3e d715 98bd
00000300: 3e04 053e a2c9 1f3e cd64 32be ffc3 173e
00000310: 095e d2bd 0db1 83bc 2455 013e 132b 913d
00000320: c694 303e 9071 063e 2abc 323e 84b5 59be
00000330: 23c1 de3d ef40 18be 0f5d 23be f14f b63c
00000340: b083 023d 1df2 83bd e0e2 0c3e 19ff 56bd
00000350: 08b0 60be f034 143e 8b30 473e 3d6f d6bd
00000360: b610 9abd 141b debd d15a a43d bd53 f8bd
00000370: 82b5 123d c9fd 2ebe 13cd b03b 0dea 333e
00000380: 3dec 053e 2b1b e53c f4f0 5c3e 2e3d 57bd
00000390: 6898 863d 0fa6 1d3e c731 5c3e 84d8 e93a
000003a0: 55d4 1e3e 3ba0 153e 1094 553d e9f8 d2bd
000003b0: 75fb 64be 1098 3cbc 4f32 d53d 7db2 04be
000003c0: cd33 1fbe 0911 b73d 1a38 25be d077 3b3e
000003d0: a218 0f3e 4eab b3bd 466c 32be c786 273e
000003e0: cc6f 4d3e e97a af3c 1a38 203e 77ed 1d3e
000003f0: 1271 8e3d a79c 16be 62dc 153e bc12 163d
0.15449077 0.117545284 0.1433116 0.09859068 0.1667325 0.22728305 -0.08102598 0.019937681
-0.059767064 -0.08424048 0.07338173 0.06676001 0.17304458 0.09164183 0.07855495 -0.1809616
0.12742357 -0.028362717 0.015842339 -0.12718491 -0.09081961 -0.14468761 -0.14217973 0.07464676
-0.069989316 -0.11382451 0.1255903 -0.08800605 0.10863627 0.14401084 0.10067092 0.090892084
0.20801185 -0.12018791 -0.10862438 -0.020245958 -0.068339795 -0.047514528 0.1319656 0.07142391
-0.14137973 0.1259311 -0.10539212 -0.14230932 -0.14901039 -0.000655935 0.16457853 -0.025496917
0.008094676 0.1203379 -0.21386741 -0.092832364 -0.15492713 -0.19572107 0.15089469 0.15068923
0.01341562 0.1565066 0.017429497 0.14983343 0.055523615 -0.053610016 -0.15394826 0.18464518
-0.11601775 -0.22962633 0.19579192 -0.1565833 0.15819046 -0.13512945 -0.19118129 -0.07822887
-0.13189055 -0.023290578 0.023798851 -0.057484414 -0.08265423 0.028765783 0.21603343 -0.18752015
-0.13514332 0.12737261 0.07336597 0.05079749 0.16766262 0.12396999 0.16030863 0.14755821
-0.031750657 0.055348005 0.038504045 0.18781807 -0.08350774 0.14562242 0.14629593 -0.06378515
-0.21666704 0.094501525 0.03341131 0.18356538 0.163227 -0.13013114 -0.14092872 -0.07851934
-0.19225736 0.1417975 0.090435706 0.014716901 -1.194104e-05 0.07468387 -0.09823995 -0.047882143
0.20233592 0.1753209 0.12882042 -0.1009568 -0.11866533 0.10522369 0.13516097 -0.1767526
-0.10175669 -0.14971578 -0.2021597 -0.118371174 0.08460223 -0.18450837 0.16740276 -0.055701923
0.11322477 0.15584397 -0.15392876 -0.12543212 0.21567298 -0.14133671 0.0050767143 0.049561556
0.028706018 -0.14616728 0.15667276 -0.10003897 0.015922107 -0.1416265 -0.02568077 0.10191308
-0.012270496 -0.090626635 0.15875717 0.1935644 0.009274875 -0.18440388 0.11031818 -0.039761845
0.18715099 0.022235941 0.05691657 0.17058128 0.08047779 -0.2039434 -0.18740523 0.16506729
-0.14736955 0.10141148 -0.19747823 0.1764561 0.09084105 -0.1824575 -0.10420347 -0.08829921
-0.07874955 -0.094854906 0.10026652 0.17799832 0.021636842 0.15939818 0.13774797 0.16406496
0.2310707 -0.15874606 -0.17555246 0.11948455 0.043568235 -0.0815586 -0.18834779 -0.09023027
0.14446646 -0.015604626 -0.056041453 -0.00073627627 0.108135454 0.18201537 0.18370812 -0.074260406
0.129899 0.1560426 -0.17421265 0.1482086 -0.10271842 -0.016075635 0.12630135 0.07088294
0.17244253 0.13129258 0.17454591 -0.21260649 0.10876682 -0.1486852 -0.15953468 0.022254916
0.03186387 -0.06442664 0.13758421 -0.052489374 -0.2194215 0.14473319 0.19452111 -0.10470436
-0.075227186 -0.108450085 0.08025134 -0.12125347 0.03581763 -0.17088999 0.0053955405 0.17569752
0.13078399 0.027967056 0.21576291 -0.05254858 0.06572038 0.15395378 0.21503364 0.0017841016
0.15510686 0.14611904 0.052143157 -0.10301382 -0.22361548 -0.011510864 0.10409986 -0.12958713
-0.15547104 0.08938796 -0.16134682 0.18307424 0.1397424 -0.08772908 -0.17424116 0.16360007
0.20062178 0.021420913 0.15646401 0.15422617 0.0695516 -0.14708196 0.1463485 0.03663896

fc3.bias f4 [4]
00000000: afaf 423c 61d8 253d 4670 e1bc f45c b6bc
0.011882707 0.040489558 -0.027519356 -0.02226112
