checkpoints/cats_actor_critic/value_final.pth (torch, 82885 bytes, 5 tensors)

fc1.weight f4 [128, 25]
0	0x3e0d36cd	0.13790436
1	0xbe5cf5d1	-0.21578147
2	0x3dd4bd36	0.103876516
3	0xbe36dd53	-0.17857866
4	0x3d7ed90b	0.062218707
5	0xbd11d2fd	-0.035601605
6	0xbdabb4b2	-0.08384074
7	0xbc11c658	-0.0088973865
8	0xbe23fd8c	-0.16014689
9	0x3e67426b	0.2258393
10	0xbd64234c	-0.055697724
11	0xbd27f167	-0.041001704
12	0xbd9444a0	-0.07239652
13	0x3d9e5e0a	0.0773278
14	0xbe1a9a39	-0.15097894
15	0xbe1b7109	-0.15179838
16	0x3e10dd06	0.14146814
17	0xbd27befa	-0.040953614
18	0xbca3d514	-0.019999065
19	0x3d721db3	0.059110355
20	0x3d9fe1af	0.078067176
21	0x3e615d27	0.22008191
22	0x3dd0f6a7	0.10203295
23	0x3db84c3b	0.08998915
24	0xbd529e90	-0.05142075
25	0x3def16b0	0.11674249
26	0x3e02f608	0.12789166
27	0xbd57b1f1	-0.052659933
28	0xbdd0faa9	-0.1020406
29	0xbc50d705	-0.012746577
30	0xbd8178b1	-0.06321848
31	0x3d1cd719	0.03829107
32	0xbd27f44d	-0.041004468
33	0x3db5e585	0.08881668
34	0x3ddc06b2	0.107434645
35	0x3dee9e39	0.11651272
36	0x3e003750	0.125211
37	0xbd3494b3	-0.044087123
38	0x3e20d553	0.15706377
39	0xbe00c884	-0.1257649
40	0xbe26df27	-0.16296063
41	0x3e243432	0.16035536
42	0x3d24359a	0.04009018
43	0x3e725010	0.23663354
44	0x3dc25d9c	0.09490511
45	0xbe47849c	-0.1948418
46	0x3e52913e	0.20563218
47	0x3ddebba9	0.10875637
48	0x3e66684f	0.22500728
49	0xbeacdd1a	-0.33762437
50	0xbdbf020a	-0.09326561
51	0x3df4d3d0	0.119544625
52	0x3dc19934	0.09453049
53	0x3d7c04ad	0.061527897
54	0x3e34db4b	0.17661779
55	0x3e3102ac	0.17286175
56	0xbd92e765	-0.07173041
57	0x3dabc9d4	0.08388105
58	0xbd13e545	-0.03610732
59	0xbe22d4ce	-0.15901491
60	0x3d79a13d	0.060944784
61	0xbe4b8d8d	-0.19878216
62	0xbd81308a	-0.06308086
63	0xbe4ab763	-0.19796519
64	0xbe838305	-0.25685897
65	0x3e514e7b	0.20440094
66	0x3e7a66b8	0.24453247
67	0xbd4799ad	-0.04873054
68	0x3c2d5c89	0.010581144
69	0xbe81effa	-0.253784
70	0x3e3e30c3	0.18573289
71	0xbd4901b1	-0.04907388
72	0xbe57dba7	-0.21079884
73	0xbe5163d8	-0.20448244
74	0x3e3f6e4c	0.18694419
75	0xbe35a565	-0.17738874
76	0x3d251cd1	0.040310685
77	0xbe382cbe	-0.17985818
78	0xbe12d4f5	-0.14339049
79	0x3dd3f6e3	0.10349824
80	0xbdeb3b26	-0.11485891
81	0x3db1fa19	0.086902805
82	0x3e080151	0.13281752
83	0xbe2c4dae	-0.16826507
84	0xbe0b6ca0	-0.13615656
85	0x3d7ebd51	0.062192265
86	0xbc800ab3	-0.015630102
87	0xbdcf7cc3	-0.10131218
88	0x3e10aaf8	0.1412772
89	0xbc7eccd8	-0.015551768
90	0xbe40e0e6	-0.18835792
91	0xbe2ddbe0	-0.16978407
92	0xbd88fe03	-0.06689074
93	0xbdbc0fbf	-0.09182691
94	0x3e8c10a9	0.2735646
95	0xbde1fd88	-0.110346854
96	0xbbef6862	-0.0073061446
97	0x3db6c73a	0.08924718
98	0x3e957cbf	0.29196736
99	0xbdb454c8	-0.08805233
100	0xbdee55b8	-0.11637443
101	0xbdc0b806	-0.094101
102	0xbe174ea7	-0.14776097
103	0xbd972378	-0.07379812
104	0xbe1dbd7f	-0.15404318
105	0xbd44be67	-0.048033144
106	0x3e149df6	0.14513382
107	0x3d9689b5	0.07350484
108	0xbdeb3c58	-0.11486119
109	0xbd9dead7	-0.07710808
110	0xbe62b39e	-0.22138831
111	0xbc53e31a	-0.012932563
112	0x3e32020b	0.17383592
113	0x3e1e4cca	0.1545898
114	0xbb2a1d49	-0.0025957397
115	0xbcff1510	-0.031137973
116	0xbcbcb959	-0.0230376
117	0xbdcc0090	-0.09961045
118	0xbd9c0cc6	-0.07619624
119	0x3dfc44bb	0.12317797
120	0x3daea263	0.085270666
121	0x3e3fa9ca	0.18717113
122	0x3e4cc72a	0.1999785
123	0x3e65ed42	0.22453788
124	0x3dd0d1d2	0.1019627
125	0xbdf24f36	-0.118315145
126	0xbd5bf30f	-0.053698596
127	0xbd08efec	-0.033431932
128	0x3b98a0e2	0.0046578506
129	0xbd5baeb5	-0.05363341
130	0x3e14b3d4	0.14521724
131	0xbd02d75f	-0.031943675
132	0xbcf07a23	-0.029355114
133	0xbcabb9da	-0.020962644
134	0x3dd30a00	0.10304642
135	0xbe083ea4	-0.13305146
136	0x3dfa7923	0.12230136
137	0x3d7a52a0	0.061113954
138	0xbe00f2cf	-0.12592624
139	0xbdcdd06d	-0.1004952
140	0xbd8eb39a	-0.0696785
141	0xbe135830	-0.1438911
142	0xbde073e0	-0.109596014
143	0x3e8524bb	0.26004586
144	0x3e6321a5	0.22180803
145	0xbe42b833	-0.19015579
146	0x3bd14615	0.0063865283
147	0xbcd378e9	-0.02581449
148	0x3e9a816e	0.30176872
149	0x3d899e27	0.06719618
150	0xbd9affbc	-0.07568309
151	0xbde4dbe7	-0.111747555
152	0x3df386d6	0.11890952
153	0x3dad6318	0.08466166
154	0x3e3f5634	0.18685228
155	0xbe2201c3	-0.15820985
156	0xbdf5be34	-0.11999169
157	0x3d8c7ef7	0.06860154
158	0xbdfbb3ac	-0.12290129
159	0xbe32aadf	-0.17447995
160	0x3db7561d	0.08951972
161	0xbd929020	-0.07156396
162	0xbdf3315d	-0.1187465
163	0xbcd64e00	-0.02616024
164	0x3de68d65	0.112574376
165	0x3ded4303	0.11585047
166	0x3e0da4e4	0.13832432
167	0x3dad8f6d	0.08474622
168	0x3e195404	0.14973456
169	0x3d98d42a	0.07462342
170	0xbc398f06	-0.011325603
171	0x3e2f7f2e	0.17138359
172	0x3c19c93a	0.009386355
173	0x3e2f2cd5	0.17106946
174	0xbe64a7af	-0.22329591
175	0x3dc48efb	0.09597584
176	0xbe7be979	-0.24600782
177	0xbdbc384d	-0.09190426
178	0xbd166dbc	-0.036725745
179	0xbd4974d3	-0.049183678
180	0xbe2e2a55	-0.17008336
181	0x3e05fb92	0.13084248
182	0xbdeebf3c	-0.11657569
183	0xbdeb3d57	-0.11486309
184	0xbdf837d1	-0.12120021
185	0x3daecfa8	0.08535701
186	0x3e47bae8	0.19504893
187	0xbe384947	-0.17996703
188	0x3e3bafd0	0.18328786
189	0xbde00e6a	-0.10940249
190	0xbd9478d1	-0.072496064
191	0xbe0017de	-0.12509105
192	0x3d9beb60	0.076132536
193	0x3db9cda9	0.0907243
194	0x3e6d02a0	0.23145533
195	0xbe303378	-0.17207134
196	0xbc5fed8f	-0.013667478
197	0xbd992178	-0.07477087
198	0x3cb40c93	0.021978652
199	0x3e331abd	0.17490669
200	0x3e152c6a	0.14567724
201	0xbd448bd7	-0.047984924
202	0x3d66002f	0.05615252
203	0xbe2e4075	-0.17016776
204	0xbe47cd9f	-0.19512032
205	0xbce31a83	-0.027722603
206	0xbe042e0c	-0.1290819
207	0x3db7bb69	0.089712925
208	0xbe253ab2	-0.16135672
209	0xbe0e37d6	-0.13888487
210	0x3e58736a	0.21137777
211	0x3d657213	0.056016993
212	0x3d84f987	0.06492906
213	0xbdb47f13	-0.088133
214	0x3ddeeb4f	0.10884725
215	0x3e4c78d9	0.19967975
216	0x3e53b935	0.2067612
217	0x3dfca12a	0.12335427
218	0x3c261a7b	0.010138149
219	0xbe0b5a9a	-0.1360878
220	0x3e6ca37e	0.23109242
221	0x3e28bb2d	0.16477652
222	0xbe341763	-0.17587046
223	0xbe0a6465	-0.1351486
224	0x3cc2a34c	0.023759507
225	0xbe08316d	-0.13300104
226	0xbceedc37	-0.029157741
227	0xbe438e0c	-0.19097155
228	0x3ce3eed6	0.027823847
229	0xbd4a36de	-0.04936873
230	0xbdd36450	-0.103218675
231	0x3df10bd3	0.117698334
232	0x3dcbfa72	0.09959878
233	0xbe456320	-0.19276094
234	0x3e577fa6	0.21044788
235	0xbd49d97a	-0.049279667
236	0x3e25a1f0	0.16175056
237	0x3d690253	0.056886982
238	0x3df58613	0.11988463
239	0x3e26d84a	0.16293445
240	0xbe81ca85	-0.25349823
241	0xbe746979	-0.2386836
242	0x3db93380	0.09043026
243	0x3e28ef84	0.16497618
244	0xbdada53f	-0.08478784
245	0x3d11b672	0.035574384
246	0x3d70b7e0	0.058769107
247	0x3daf8b78	0.085715234
248	0x3e823ad0	0.25435495
249	0xbdee05c1	-0.11622191
250	0x3dcfea68	0.10152131
251	0xbe6b23ec	-0.22962922
252	0x3e1d07df	0.15335034
253	0xbe19e46c	-0.15028542
254	0x3e3328cc	0.17496032
255	0xbe33c26c	-0.17554635

fc1.bias f4 [128]
0	0x3e42cc0b	0.19023149
1	0x3def4261	0.11682583
2	0x3cb96f43	0.022636062
3	0xbdc76dc2	-0.097377315
4	0x3e81e0b4	0.25366747
5	0x3e3e9564	0.18611676
6	0xbd6f7a52	-0.058466263
7	0xbdd8ee42	-0.10592319
8	0xbe09431c	-0.13404506
9	0x3e0f9158	0.14020288
10	0x3deeb63f	0.116558544
11	0xbd454819	-0.04816446
12	0x3d10f89c	0.035393342
13	0xbdc0c550	-0.094126344
14	0xbd455844	-0.04817988
15	0x3b48752d	0.003058742
16	0xbe23b592	-0.15987232
17	0x3d1a90f4	0.037735894
18	0xbe781623	-0.24227194
19	0xbd357438	-0.044300288
20	0x3e37eff6	0.17962632
21	0xbe31844d	-0.17335625
22	0x3d683fe2	0.05670155
23	0xbe08636f	-0.13319181
24	0xbe3aa0fe	-0.18225476
25	0xbe07bcb1	-0.13255574
26	0x3c98e364	0.018663116
27	0xbcae133c	-0.021249406
28	0xbd7f54fd	-0.06233691
29	0x3e2d1e3f	0.16906069
30	0xbdb6268d	-0.08894072
31	0x3d312917	0.043252077
32	0xbe100891	-0.14065768
33	0xbdf5bcee	-0.11998926
34	0xbc9c64ef	-0.019091098
35	0x3e3fa7ce	0.18716356
36	0xbe72a2a1	-0.2369485
37	0xbe1eb02d	-0.15496893
38	0x3e24ebda	0.16105595
39	0x3da6ede9	0.081508465
40	0x3d2209a7	0.039559986
41	0xbe2f0048	-0.17089951
42	0xbc4bb81b	-0.012434031
43	0x3cba94e2	0.022776071
44	0x3e62c187	0.22144137
45	0x3b84fea0	0.004058674
46	0x3ddba2ef	0.107244365
47	0x3e28a7e4	0.16470295
48	0x3df169c5	0.11787752
49	0xbda9a9de	-0.08284353
50	0xbdb3abf6	-0.08773033
51	0x3e88af66	0.26696318
52	0x3dfbd001	0.12295533
53	0xbdb15b2a	-0.08659966
54	0xbb82491e	-0.0039760014
55	0xbcc7f4d0	-0.024408728
56	0xbdc11a06	-0.09428792
57	0xbe4c7226	-0.19965419
58	0x3cd7126e	0.026253905
59	0xbdd35666	-0.103192136
60	0x3db9f15e	0.0907924
61	0x3e18c065	0.14917143
62	0x3e189a55	0.14902623
63	0x3ce6a10c	0.028152965
64	0x3e24cdbf	0.16094111
65	0x3d4ebb3d	0.050471533
66	0xbd96948b	-0.07352551
67	0xbde48e1c	-0.11159918
68	0x3dbe0424	0.092781335
69	0x3e54e6d0	0.20791173
70	0x3e252025	0.16125543
71	0x3dd93e26	0.10607557
72	0xbd42e66b	-0.047583025
73	0x3e18f0e2	0.1493564
74	0xbd8ed7d2	-0.06974758
75	0xbe40a95b	-0.18814604
76	0x3e0ca681	0.13735391
77	0xbe1cc5bf	-0.15309809
78	0x3e0d7bd0	0.13816762
79	0xbdc84f88	-0.097807944
80	0xbd8b8439	-0.06812329
81	0xbe6ccd7f	-0.23125266
82	0xbe6db6ee	-0.23214313
83	0x3ce80b08	0.028325573
84	0xbe263e13	-0.16234617
85	0x3e5359de	0.2063975
86	0x3b9d3974	0.0047981087
87	0x3d6419b5	0.05568858
88	0xbe27142c	-0.16316289
89	0x3da8b872	0.08238305
90	0xbdd5bf2e	-0.10436855
91	0x3e506636	0.2035149
92	0xbd187b3a	-0.037226893
93	0xbd26bda7	-0.04070821
94	0x3da264d3	0.07929387
95	0x3de9bbce	0.11412774
96	0x3caab35c	0.020837478
97	0x3d00b2a8	0.03142038
98	0xbe62c568	-0.22145617
99	0x3dc3de09	0.09563834
100	0xbe4f1367	-0.20222245
101	0xbe627016	-0.2211307
102	0x3e3ad2a6	0.18244419
103	0xbd71cb9a	-0.05903206
104	0x3dac4036	0.08410685
105	0xbe585e8d	-0.21129818
106	0x3d9b538c	0.07584295
107	0xbe4c22ea	-0.19935194
108	0xbe3362c9	-0.17518152
109	0xbda9c5d0	-0.08289683
110	0x3d564445	0.0523112
111	0x3e8061af	0.25074527
112	0xbe77cafc	-0.24198526
113	0x3e2b3c66	0.16722259
114	0x3e3082e0	0.17237425
115	0xbdfa0bff	-0.12209319
116	0x3c8d50fa	0.017250527
117	0xbd018d9b	-0.031629186
118	0x3e459091	0.19293429
119	0xbe1906f9	-0.14944066
120	0xbd5fb017	-0.05461129
121	0xbd849770	-0.06474197
122	0x3e069104	0.13141257
123	0xbe1e1849	-0.15438952
124	0xbd1b834e	-0.03796702
125	0x3e1c2d49	0.1525165
126	0xbc959dac	-0.01826366
127	0x3e2c3bc3	0.16819672

fc2.weight f4 [128, 128]
0	0x3d9c637b	0.07636162
1	0x3cfcfc31	0.030881973
2	0xbe1f846e	-0.15577862
3	0x3d4acb25	0.04951014
4	0x3d894dd9	0.067043014
5	0x3d897eef	0.06713664
6	0xbd0428ce	-0.032265477
7	0xbc0f9e16	-0.008765718
8	0xbd894789	-0.067030974
9	0x3dd12ff9	0.10214228
10	0x3ca8b0f6	0.020592194
11	0xbdc35d2e	-0.09539257
12	0xbd341aa0	-0.043970704
13	0xbd463925	-0.04839434
14	0xbd65fdc6	-0.05615022
15	0x3d63969e	0.05556356
16	0xbd02db2a	-0.031947292
17	0x3d66dd33	0.056363296
18	0xbd12552a	-0.03572575
19	0xbc8b774a	-0.017024655
20	0x3d42919c	0.047502145
21	0xbd74bb3c	-0.059748873
22	0xbc22cca6	-0.009936487
23	0x3aa497c9	0.0012557443
24	0xbe141088	-0.14459431
25	0xbd62e9ed	-0.05539887
26	0xbd5ea208	-0.054353744
27	0xbdeac556	-0.1146342
28	0x3dcd8d4d	0.100367166
29	0xbc496bb6	-0.012293747
30	0xbdbfd143	-0.093660854
31	0xbdc7f6b1	-0.097638495
32	0x3ce52ef3	0.027976489
33	0xbe18af8c	-0.14910716
34	0xba7835f6	-0.000946849
35	0xbcbb29ba	-0.022847045
36	0xbda21e4a	-0.079159334
37	0xbd6b4b6c	-0.057444975
38	0x3dee5551	0.116373666
39	0x3d5214a5	0.05128922
40	0x3c2f811b	0.0107119335
41	0x3c968c84	0.01837755
42	0x3e196a54	0.14981967
43	0xbd9bf8ad	-0.076157905
44	0x3db6b72d	0.08921657
45	0x3dfd440d	0.12366495
46	0xbda94f16	-0.082670376
47	0x3dc7caf3	0.09755506
48	0xbd861e84	-0.06548789
49	0xbc1a896c	-0.009432178
50	0xbc48efbf	-0.012264191
51	0xbc5a1b50	-0.013312176
52	0x3c248e07	0.010043628
53	0x3c13f218	0.009029888
54	0xbdba8f37	-0.09109347
55	0x3bb2c2cd	0.005455351
56	0x3c81cf49	0.015845912
57	0xbc6dc440	-0.014512122
58	0x3e149e5a	0.14513531
59	0x3c02ffdb	0.007995571
60	0xbd84a32a	-0.064764336
61	0x3e01734b	0.12641637
62	0x3d0739e7	0.033014204
63	0x3d3d4b70	0.04621452
64	0x3e0e5fab	0.13903682
65	0xbd94bc2e	-0.07262455
66	0xbc3ebc4d	-0.011641574
67	0x3cd686f1	0.026187392
68	0x3d226dfe	0.039655678
69	0xbd1ad19e	-0.037797563
70	0x3ca69efe	0.020339485
71	0x3e0a825d	0.13526292
72	0x3db3c41a	0.08777638
73	0x3dd3559f	0.10319065
74	0xbd610cc0	-0.0549438
75	0x3d3d7c24	0.046260968
76	0x3d893141	0.066988476
77	0x3c30a0d0	0.010780528
78	0x3d9fa157	0.07794445
79	0xbe026dff	-0.12737273
80	0xbd8726b7	-0.06599181
81	0x3d369fbe	0.044585936
82	0xbca209a9	-0.019779997
83	0xbe0a55a1	-0.13509227
84	0xbd2909f4	-0.041269258
85	0x3c9ba2b0	0.018998474
86	0x3cd61743	0.026134139
87	0xbd640e9d	-0.055678
88	0xbd30968a	-0.043112315
89	0x3d7924ec	0.060826227
90	0x3b3c7165	0.0028754112
91	0x3d55729c	0.052111253
92	0xbccd4faf	-0.02506241
93	0xbe1be711	-0.15224864
94	0xbd7d5f82	-0.06185866
95	0xbd04c382	-0.032413013
96	0xbdf8cd58	-0.12148541
97	0x3d9ce5f7	0.0766105
98	0xbde590fb	-0.112092935
99	0x3d8e3011	0.06942762
100	0xbdc56b99	-0.09639663
101	0xbb882b58	-0.0041555576
102	0x3cbdd9a9	0.023175078
103	0xbd171102	-0.036881454
104	0x3dc4ac83	0.096032165
105	0xbbcb2213	-0.0061991303
106	0xbcd6c3f5	-0.026216486
107	0xbdd0821d	-0.10181067
108	0xbe03455b	-0.12819426
109	0x3ced45cc	0.028963946
110	0xbd8e8a15	-0.06959931
111	0x3d934b78	0.07192129
112	0xbdfb4668	-0.12269288
113	0xbd577135	-0.052598197
114	0xbc399e85	-0.011329298
115	0x3d8a379f	0.0674889
116	0x3dd8cc86	0.10585885
117	0x3ddc1bbf	0.1074748
118	0x3db663e9	0.08905775
119	0xbdfb7c15	-0.12279526
120	0xbc4d1125	-0.012516295
121	0xbd11382d	-0.035453964
122	0xbdba74a8	-0.09104282
123	0xbbcc283e	-0.006230383
124	0xbde365a1	-0.111033686
125	0x3db8c0ba	0.09021135
126	0x3b5e1194	0.003388499
127	0x3a58d8d4	0.0008272056
128	0xbd21383b	-0.039360266
129	0xbbf54800	-0.0074853897
130	0x3e16f1dd	0.14740701
131	0xbcfbfcd7	-0.030760212
132	0x3ccea2e9	0.025224166
133	0xbdc2d5b6	-0.095134184
134	0x3cfd675f	0.03093308
135	0xbd5e162d	-0.054220367
136	0x3d0652f3	0.03279395
137	0xbd994a89	-0.074849196
138	0xbd9195de	-0.07108663
139	0x3d6660f2	0.056244798
140	0x3da35818	0.07975787
141	0x3dbe31e3	0.09286859
142	0x3c81a987	0.015827907
143	0x3dc5dcb2	0.09661235
144	0xbced66f5	-0.028979758
145	0xbe1c5868	-0.152681
146	0x3d2e9b03	0.0426283
147	0x3d263b94	0.040584162
148	0xbdc7b855	-0.097519554
149	0x3e098dc6	0.13432989
150	0x3da57de0	0.080806494
151	0x3cb67597	0.022272868
152	0x3dd51954	0.104052216
153	0x3d9a21cc	0.075259775
154	0x3c8d0fc6	0.017219435
155	0x3db587d8	0.08863801
156	0xbdba3790	-0.09092629
157	0xbd8a6e2e	-0.06759296
158	0x3db1a3ca	0.086738184
159	0x3dc944ea	0.098275974
160	0x3e1177f0	0.14205909
161	0x3def96ad	0.11698661
162	0xbcfe7819	-0.031063126
163	0xbd9ce4a7	-0.076607995
164	0x3dad1924	0.08452061
165	0x3e0ba9b3	0.13638954
166	0x3b56c9e4	0.0032774145
167	0xbe100425	-0.14064081
168	0xbe0b3092	-0.13592747
169	0x3c5f60c8	0.013633914
170	0xbca044d0	-0.019564062
171	0x3d157794	0.03649099
172	0xbdcf24a9	-0.10114414
173	0xbd844f21	-0.06460405
174	0xbd5c4b92	-0.053783007
175	0xbe2b5f02	-0.16735461
176	0xbb82d911	-0.0039931615
177	0x3d809de4	0.06280115
178	0x3e16d657	0.14730202
179	0xbcb570dd	-0.022148544
180	0xbd9b6357	-0.07587307
181	0xbd9da5e7	-0.07697659
182	0x3cb1b50e	0.021692779
183	0x3dc12780	0.09431362
184	0x3d856d8e	0.065150365
185	0x3e166777	0.14687906
186	0xbe31d202	-0.17365268
187	0x3dc13839	0.09434552
188	0x3db3ebd5	0.08785216
189	0xbcd7a5df	-0.02632421
190	0xbdc6d27e	-0.09708117
191	0xbdbb7bfd	-0.09154508
192	0xbd4c2c94	-0.0498472
193	0x3e07c3c1	0.13258268
194	0x3db98957	0.090593986
195	0xbdaf5db8	-0.08562797
196	0xbde657ae	-0.11247192
197	0xbcfb2a75	-0.030659894
198	0xbc2f676b	-0.010705809
199	0xbd3c3fb8	-0.045959204
200	0xbd7408a0	-0.059578538
201	0x3b50ec19	0.0031879006
202	0xbd8e7147	-0.069552
203	0x3d56eac0	0.05246997
204	0xbd57721c	-0.052599058
205	0xbd421428	-0.047382504
206	0xbe078136	-0.13232884
207	0x3e208c39	0.1567849
208	0x3dc0ab65	0.09407691
209	0x3d37b80e	0.044853263
210	0x3ca96e3f	0.020682452
211	0x3d5ac5b3	0.053411197
212	0x3df73848	0.12071282
213	0x3ceefa78	0.029172167
214	0xbe252359	-0.16126765
215	0x3d3b19fd	0.04567908
216	0x3dbb2a6a	0.09138949
217	0xbc5c2c0d	-0.013438237
218	0x3da0bd2f	0.07848584
219	0xbdd74505	-0.10511211
220	0xbc9ec9cb	-0.019383332
221	0x3de73e18	0.1129114
222	0xbd8f6ae8	-0.070028126
223	0x3c3ad41f	0.011403113
224	0x3d7494ed	0.05971234
225	0x3d21071f	0.03931343
226	0x3d902a41	0.07039309
227	0xbd9244ec	-0.07142052
228	0x3c0b6fa5	0.008510505
229	0x3e34558b	0.17610757
230	0xbdf6b7da	-0.12046786
231	0x3e3ae8c9	0.18252863
232	0xbcf5531e	-0.02994686
233	0x3cbe550c	0.023233913
234	0x3d83f573	0.064433
235	0x3db9ad2a	0.090662315
236	0x3e01f3c1	0.12690641
237	0x3cf02c00	0.029317856
238	0x3e0f92bc	0.14020818
239	0xbd40aee3	-0.047041785
240	0x3d18bdb8	0.037290305
241	0x3d3b34b3	0.045704555
242	0xbe04c66a	-0.12966314
243	0x3b7232a1	0.0036956447
244	0xbd95af44	-0.0730882
245	0xbdd7cd00	-0.105371475
246	0xbe0daf9d	-0.13836522
247	0x3de922c1	0.11383582
248	0xbd3930e5	-0.045212645
249	0x3cd48976	0.025944453
250	0x3c09e123	0.008415493
251	0x3d1f50c1	0.038895372
252	0x3caa71ac	0.020806156
253	0x3d1cfd14	0.03832729
254	0x3c80fc35	0.015745262
255	0xbd4706c5	-0.04859044

fc2.bias f4 [128]
0	0x3d848c66	0.064720914
1	0xbde0d2ce	-0.10977708
2	0xbdc7b70a	-0.09751709
3	0xbd1a1471	-0.03761715
4	0x3d95648a	0.07294567
5	0x3c9c315e	0.019066509
6	0x3d64538e	0.055743746
7	0xbcba6506	-0.02275325
8	0x3d38615a	0.045014717
9	0xbc729c5d	-0.014807788
10	0x3caa92d2	0.020821963
11	0xbd591b1e	-0.053004377
12	0x3d1abbdb	0.03777681
13	0xbd72f792	-0.059318133
14	0xbd183166	-0.037156485
15	0x3d832f1e	0.06405471
16	0x3b836f0d	0.004011041
17	0xbc129946	-0.008947676
18	0x3dd0ca4f	0.10194837
19	0xbb0555c1	-0.0020345303
20	0xbcdc760b	-0.026911756
21	0xbba881ae	-0.005142412
22	0xbdc9ac24	-0.09847286
23	0xbde357da	-0.11100741
24	0xbd06f99b	-0.032952886
25	0xbde5e468	-0.11225206
26	0xbdb3203d	-0.08746383
27	0xbbc78a44	-0.0060894806
28	0xbdcc553b	-0.09977194
29	0x3cff4a89	0.03116347
30	0xbdba1b79	-0.09087271
31	0xbd982579	-0.07429022
32	0xbdd3ee9c	-0.103482455
33	0xbd2f0f67	-0.0427393
34	0xbdf2050a	-0.118173674
35	0x3d9da0eb	0.07696708
36	0x3bebd60a	0.0071971463
37	0x3cc23bc5	0.023710141
38	0x3cf7977d	0.030223602
39	0x3b039aff	0.0020081399
40	0x3ba652cf	0.0050757895
41	0x3dea48b5	0.11439649
42	0xbcc5b57e	-0.024134394
43	0x3cd60151	0.026123675
44	0xbd880bd8	-0.06642884
45	0xbdaacdd6	-0.08340041
46	0xbc5682ac	-0.013092678
47	0x3d14f782	0.036368854
48	0x3da9a3bb	0.08283182
49	0x3c3c6427	0.011498488
50	0xbcb0b1dd	-0.021569187
51	0xbd93863f	-0.0720334
52	0x3de4f051	0.11178649
53	0xbca7c15d	-0.020477945
54	0xbcef8299	-0.029237079
55	0x3c7a08ac	0.015260857
56	0x3cb36998	0.021900937
57	0xbdc85527	-0.097818665
58	0xbdee8342	-0.11646129
59	0xbd32a354	-0.043612793
60	0x3ca0109f	0.019539176
61	0x3cb1eb1b	0.021718552
62	0x3de0713e	0.10959099
63	0xbb8d4472	-0.004311138
64	0x3d89eb52	0.06734337
65	0x3d8237b2	0.06358279
66	0x3bff7358	0.0077957325
67	0x3c85c0d3	0.016327297
68	0xbde506a1	-0.11182905
69	0xbca24865	-0.019809911
70	0x3db05af5	0.08611099
71	0x3ce87a17	0.02837853
72	0xbd741505	-0.05959036
73	0x3d489822	0.04897321
74	0x3cb5bc8b	0.02218463
75	0xbce7927d	-0.028268093
76	0x3d646dc4	0.055768743
77	0xbb5ca9e2	-0.0033670594
78	0x3c896844	0.01677335
79	0xbbfb5651	-0.007670202
80	0x3bf34700	0.0074242353
81	0xbdedd600	-0.11613083
82	0xbd9f20b8	-0.077699125
83	0xbe04d53e	-0.1297197
84	0x3dc9e490	0.09858048
85	0xbdc4a196	-0.096011326
86	0xbcc991b4	-0.02460561
87	0x3ccaad0a	0.024740715
88	0x3de39524	0.11112431
89	0xbc8dcc08	-0.017309204
90	0xbdaf9be1	-0.085746534
91	0xbd13713b	-0.035996657
92	0x3b8b0dfb	0.00424361
93	0x3e004cf0	0.1252935
94	0x3df6d3ef	0.12052142
95	0x3ce6f0ed	0.028191054
96	0x3df92275	0.12164775
97	0x3d059d06	0.032620452
98	0xbcc8a657	-0.02449338
99	0xbd8e0c21	-0.06935907
100	0xbb954b1a	-0.004556072
101	0xbccb6fd7	-0.024833603
102	0xbdf551f4	-0.11978522
103	0x3d310452	0.04321701
104	0xbde7c55a	-0.11316939
105	0x3c11dde8	0.008903004
106	0x3ddebb31	0.10875548
107	0x3d27488e	0.040840678
108	0xbd266d56	-0.040631615
109	0x3d4832f3	0.048876714
110	0xbd163afc	-0.036677346
111	0x3d889c4a	0.06670435
112	0x3d98ebb6	0.07466833
113	0xbd0dd260	-0.034624457
114	0xbd8e9f51	-0.06963981
115	0x3dce5139	0.10074086
116	0x3deb5834	0.11491433
117	0xbca4788a	-0.020077009
118	0xbd815414	-0.06314865
119	0xbceacc6f	-0.028661935
120	0xba6dba37	-0.00090685807
121	0xbd4086ca	-0.047003545
122	0xbaa0f16f	-0.0012278984
123	0xbde4f811	-0.111801274
124	0x3d982a59	0.07429952
125	0x3c133e96	0.00898709
126	0xbe0a0b6b	-0.13480918
127	0xbc039844	-0.008031908

fc3.weight f4 [1, 128]
0	0x3e46d53c	0.1941728
1	0xbe047972	-0.12936953
2	0xbe01b85b	-0.12667982
3	0xbe3a5737	-0.18197332
4	0x3e491b37	0.19639288
5	0xbe325bf1	-0.17417885
6	0x3e3362aa	0.17518106
7	0x3e10d58b	0.1414396
8	0xbe21e703	-0.1581078
9	0x3df608b8	0.12013382
10	0xbdf52fc7	-0.119720034
11	0xbe0e7641	-0.13912298
12	0xbe0e7fdc	-0.13915962
13	0xbdd58eaa	-0.10427602
14	0x3e15ced4	0.1462968
15	0x3e1b8963	0.15189128
16	0xbe34bf7f	-0.17651175
17	0xbe0c062e	-0.13674232
18	0x3e25b814	0.16183501
19	0x3e068391	0.13136126
20	0xbe44295d	-0.19156404
21	0x3df3f36c	0.119116634
22	0xbe07683c	-0.13223356
23	0xbe5c5993	-0.21518545
24	0x3e1e1085	0.15435989
25	0xbe21d4b8	-0.15803802
26	0xbe0f3415	-0.13984711
27	0x3e626b70	0.22111297
28	0xbe164ecd	-0.14678498
29	0xbe3759e3	-0.17905383
30	0xbe31717d	-0.17328449
31	0xbe1b57eb	-0.15170257
32	0xbe5521d7	-0.2081369
33	0xbdfa7064	-0.12228468
34	0xbe0a1882	-0.13485911
35	0x3e265662	0.1624389
36	0xbe0ea1db	-0.1392893
37	0x3e19c56f	0.15016721
38	0x3e3a5ad4	0.1819871
39	0xbe3e4ba7	-0.18583547
40	0xbe3c82b2	-0.18409231
41	0x3e3ba355	0.18324025
42	0x3e2ab01c	0.16668743
43	0x3e2a212b	0.16614215
44	0xbe313da0	-0.17308664
45	0xbdf62586	-0.12018876
46	0x3e512119	0.20422782
47	0xbe0c6d26	-0.13713512
48	0x3dbf8ddc	0.093532294
49	0x3dd7114e	0.105013475
50	0x3e491bd5	0.19639523
51	0xbe0bff62	-0.1367164
52	0x3e2f2b31	0.1710632
53	0xbddbdcab	-0.107354484
54	0x3de3bea3	0.111203454
55	0xbe5aef7c	-0.21380419
56	0x3dfdc921	0.12391878
57	0xbe266917	-0.16251026
58	0xbe2c7ca9	-0.16844429
59	0x3e1d4fef	0.15362523
60	0xbdfcdb92	-0.12346567
61	0xbe0e749c	-0.1391167
62	0x3df832f3	0.12119093
63	0x3dd21220	0.10257363
64	0x3e196ec4	0.1498366
65	0x3e3b7e19	0.18309821
66	0xbe1c6821	-0.15274097
67	0xbe429e0e	-0.19005606
68	0xbe44f24e	-0.19233057
69	0x3e30f8d6	0.17282423
70	0x3e162779	0.14663495
71	0xbe21de34	-0.1580742
72	0xbe36dbaa	-0.17857233
73	0x3e1c3f84	0.15258604
74	0x3e18fc67	0.14940034
75	0x3e53b0ea	0.20672956
76	0x3e4b13ed	0.1983182
77	0xbe19cc86	-0.15019426
78	0xbe45d743	-0.19320397
79	0xbdeb560d	-0.11491022
80	0xbdd371ae	-0.10324417
81	0xbd9a9080	-0.075470924
82	0xbdf7da0e	-0.121021375
83	0xbdfa02ce	-0.12207566
84	0x3dff759b	0.12473603
85	0xbe2927f1	-0.16519143
86	0xbe0d60bd	-0.13806434
87	0x3e001e9b	0.12511675
88	0x3e162b28	0.146649
89	0x3df8e13f	0.12152337
90	0xbe1be957	-0.15225731
91	0x3e2cea6d	0.16886301
92	0xbe5466bb	-0.20742314
93	0x3dcb32fd	0.099218346
94	0x3dff8029	0.124756165
95	0xbe0ea698	-0.13930738
96	0x3e3ccfaa	0.18438593
97	0x3e0f9f06	0.14025506
98	0x3e443101	0.19159319
99	0xbe4c2de1	-0.19939376
100	0xbe0801e8	-0.13281977
101	0xbe1a5b72	-0.15073946
102	0xbe44a09f	-0.19201897
103	0x3e0f8e80	0.14019203
104	0xbe0d1d57	-0.13780724
105	0x3e491100	0.19635391
106	0x3dfd1bbc	0.123588055
107	0xbe170d71	-0.14751221
108	0xbe13ae30	-0.14421916
109	0xbe2f9325	-0.17145975
110	0xbe05f218	-0.13080633
111	0x3e4a3880	0.19748116
112	0x3e35be44	0.17748362
113	0x3e44c70b	0.19216554
114	0xbe360da8	-0.17778647
115	0x3e16133c	0.14655775
116	0x3e082d9d	0.1329865
117	0x3e0d6e93	0.13811712
118	0xbe36945f	-0.17830037
119	0x3e18e3a9	0.14930595
120	0xbe425a53	-0.18979768
121	0xbde71211	-0.11282743
122	0x3e382cdc	0.17985862
123	0xbe19d623	-0.15023093
124	0x3de096f9	0.10966296
125	0xbe2218a5	-0.15829714
126	0xbe07f239	-0.13275994
127	0xbe4df7fd	-0.20114131
