checkpoints/policy_final.pth (torch, 72785 bytes, 6 tensors)

net.0.weight f4 [128, 4]
000000 55 de c1 3e ea c6 74 be 42 60 ed 3d cf 5e 3a 3f
       0.37864938 -0.23904005 0.11590625 0.72800916
000010 b6 dc 0b 3f 3a d5 28 3f 8f 9d ed bd c4 0d 38 be
       0.54633653 0.6595036 -0.116023175 -0.17974001
000020 bb 1d aa be 42 0d 92 3b dd b0 24 ba df 26 db 3d
       -0.33225808 0.004457147 -0.0006282458 0.107007734
000030 ef 68 4a be 4e 01 3e 3e 0d fd 32 3f bf ea d5 3e
       -0.19766591 0.18555185 0.69917375 0.4178066
000040 5e 06 0d 3e 22 d4 92 be b5 45 d6 3e 9e 3d 99 3e
       0.1377196 -0.2867747 0.41850057 0.29929823
000050 a9 7c 52 3e c5 7d c9 3c 79 f6 08 3f 2c da f0 3c
       0.20555367 0.024596104 0.5350109 0.029400907
000060 f4 ff b7 3e 7b 8b e6 3d 4d 95 ca bd ee 52 06 3f
       0.35937464 0.112570725 -0.09891758 0.5247029
000070 bb 32 1a 3f 69 7c 4e 3e b0 c3 21 bf f3 03 97 bf
       0.6023366 0.20164646 -0.6318922 -1.179808
000080 65 30 1d 3f 55 4e 8d be f3 48 16 bf ae 67 6d bf
       0.6140197 -0.27598825 -0.5870506 -0.9273633
000090 26 06 97 bd 27 f6 86 3e 79 14 09 3f 45 b4 66 3f
       -0.073742196 0.26359674 0.53546864 0.9011882
0000a0 60 df 88 bd cc d0 bb be ae d8 80 3e 40 9f 59 3e
       -0.066832304 -0.36682737 0.25165313 0.21252155
0000b0 68 52 f4 3e 12 f5 d9 be ff d7 37 3e 10 e0 a9 3f
       0.4771912 -0.42569786 0.1795349 1.3271503
0000c0 29 09 19 3f 9f 01 0e bd 5c 28 21 3f e6 1a 33 3f
       0.597796 -0.034669515 0.6295221 0.6996292
0000d0 e7 e4 90 be 83 71 36 bf 9f 1f 24 bf 1f 66 56 be
       -0.2829964 -0.71266955 -0.6411075 -0.20937394
0000e0 bd 9d 01 3f 8c 62 8e bd d6 29 3b 3e 78 f7 ac 3f
       0.50631315 -0.0695239 0.18277678 1.3513021
0000f0 7d a8 36 3e 1a 76 ef be bb d2 a8 be e7 c3 28 3f
       0.1783771 -0.46769792 -0.32973275 0.65923923
000100 f8 e1 c3 3e 70 46 55 3f 51 2e 34 3e 40 20 95 bd
       0.38258338 0.83310604 0.17595793 -0.07281542
000110 7d 16 82 be 27 d8 e6 bd f4 0a 30 bf 93 1c 00 bf
       -0.25407782 -0.112716965 -0.68766713 -0.500436
000120 e8 7d 31 3f f8 a1 95 bd 21 f5 25 bf 26 02 81 bf
       0.6933274 -0.07306284 -0.6482716 -1.0078781
000130 e8 28 b8 be 38 97 86 be 10 ad 09 bd d8 ee 80 3e
       -0.3596871 -0.26287246 -0.03361231 0.25182223
000140 55 f4 93 3e d7 e9 fc 3e 88 9b d7 3e 84 ed 2e 3f
       0.28897348 0.49397156 0.42110848 0.6833117
000150 f6 db d6 3d 90 1c ef be 0d a2 d4 bc ba 98 69 bf
       0.10491173 -0.4670148 -0.025956178 -0.9124867
000160 c2 0b 26 3f 2b 70 6e 3f b1 1e c1 3d 71 4e 32 3e
       0.6486169 0.93139905 0.09429682 0.17412736
000170 6e 6d 34 3f ff e9 6b bd 98 59 2f bf b0 ec 4e bf
       0.70479476 -0.057596203 -0.68496084 -0.80829906
000180 a3 f1 95 be 38 e5 a0 3e d7 20 0c bf 78 84 6d be
       -0.29285917 0.3142488 -0.5473761 -0.23195064
000190 9d 21 69 3e f1 4e 78 3b 11 35 f7 bd 33 d8 58 3f
       0.22766729 0.003788885 -0.120706685 0.84704894
0001a0 d5 4d 51 3e 25 35 16 bf 38 8c b2 3d f4 c4 8a be
       0.20439847 -0.5867484 0.08718151 -0.27103388
0001b0 8f 5b ca be 02 83 6e be b3 ac dc bd a5 20 29 be
       -0.3952298 -0.23292163 -0.10775127 -0.16516359
0001c0 a7 3f f7 3e 85 1e 55 be d2 6f 02 3e 35 e4 72 3f
       0.4829075 -0.20812424 0.12737969 0.94879466
0001d0 9a 4b 17 3f 44 36 4c bd 77 20 1d bf e6 8a ab bf
       0.59099734 -0.04985644 -0.6137766 -1.3401763
0001e0 0b d0 bb be 6e 2e 00 bf d9 6f 3e bf b0 f7 5b bf
       -0.36682162 -0.50070846 -0.74389416 -0.85924816
0001f0 08 5b 0c 3f 7a d8 f6 bd 34 94 23 3e 20 97 a0 3f
       0.548264 -0.120530084 0.15974504 1.254612
000200 43 3f aa be 36 63 bc 3e 00 62 27 3e 98 c9 f7 3e
       -0.3325139 0.36794442 0.16345978 0.4839599
000210 a8 2b 8a 3e 86 95 40 bf c2 63 93 3c c3 c7 a3 3c
       0.26986432 -0.75228155 0.017991904 0.019992715
000220 93 c2 0a 3f 7b 6c 35 3f af d9 9f bc c7 5b d4 be
       0.54203147 0.70868653 -0.01951298 -0.4147627
000230 a2 7a 7d be fa 78 88 3e 28 7c 1c 3f 02 c8 9c 3e
       -0.24753812 0.26654798 0.6112695 0.30621344
000240 65 e6 84 be e2 c5 79 bf d5 42 68 bf 92 39 9a bd
       -0.25957027 -0.9756757 -0.9072698 -0.07530512
000250 7b 51 02 be 23 3a f5 3c a7 6c 31 3f a9 b5 ef 3e
       -0.12726395 0.029934948 0.69306415 0.46818283
000260 46 a8 24 bf e5 5e c9 3e 1b 92 b7 3c c2 a7 d5 bf
       -0.64319265 0.3933021 0.022408536 -1.6691821
000270 ad 4e fd bd 63 29 2c be dc 35 82 be 22 e6 9d be
       -0.12368522 -0.16812663 -0.25431716 -0.3083964
000280 4a 6c 09 be 5d 77 3a 3f 3f 01 ad 3e 75 ac 9d 3e
       -0.13420215 0.72838384 0.33790013 0.30795637
000290 f4 1e bc be 7d c3 be be cf 90 2b bf a4 9b 80 be
       -0.36742365 -0.3725852 -0.67017835 -0.25118744
0002a0 35 37 31 be 4a fd 4c bd 15 07 14 3f 1a 40 89 3f
       -0.17306216 -0.050046243 0.57823306 1.0722687
0002b0 80 a8 28 bc b4 53 3a be d2 b4 83 be 38 5b c8 bd
       -0.01029408 -0.18195993 -0.25723892 -0.097830236
0002c0 7b 6f 14 bf 84 55 04 3e 65 ad 52 bf 69 79 84 bf
       -0.57982606 0.12923247 -0.8229583 -1.0349551
0002d0 65 7c 4e be be 96 11 bf 91 b5 ff be db 43 56 3e
       -0.2016464 -0.5687064 -0.49943212 0.20924322
0002e0 3e 2c d1 3e 4b 80 be 3e 5c dc 51 be 42 44 41 be
       0.40854067 0.37207255 -0.20494217 -0.18873695
0002f0 28 1f 48 be a0 db 70 3d 9c 72 5b 3e ba dc f2 be
       -0.19543135 0.0588032 0.21430439 -0.47434026
000300 d1 a3 c2 be eb 9f 4c bf 57 df 0a bf f2 ac 89 bf
       -0.38015607 -0.79931515 -0.5424704 -1.0755904
000310 08 ad 2d bd cb d5 98 3e dc 85 0e be 8e 91 01 3f
       -0.042401344 0.2985061 -0.13918251 0.50612724
000320 9d 6d e3 3e c5 e2 62 3f 15 21 c8 bb 92 63 97 3d
       0.44419566 0.8862727 -0.0061074593 0.073920384
000330 06 2c fa 3e a6 9a 84 be 90 3b 9e 3d 64 4f 84 3f
       0.48861712 -0.25899237 0.077262044 1.0336728
000340 fe 9f 7e 3e d6 ae 66 be 93 3e d1 be 81 3e 5b bf
       0.2486572 -0.22527632 -0.40868053 -0.8564225
000350 08 4b d5 3e 7e 8f c4 be b8 a6 23 bf 5f d4 16 bf
       0.41658807 -0.38390726 -0.6392627 -0.589178
000360 f9 2c e3 be ed 6d a7 3e 74 f8 1d be 8e fc cd bf
       -0.4437025 0.32701054 -0.15426809 -1.6092699
000370 e2 ef 0f bf 65 1a 58 3d 6f da 51 bf b7 1f 26 bf
       -0.5622541 0.052759547 -0.8197393 -0.64892143
000380 4a a7 7b be ee 36 44 3e a0 0e 72 3e 20 49 32 3f
       -0.24575534 0.19161579 0.23638391 0.6964283
000390 15 a4 43 3f 98 36 8f 3e 7e fa bc 3e a8 bd 53 3f
       0.76422244 0.2797134 0.3690986 0.8271127
0003a0 8a 8a 3b 3f a1 04 bc be e2 b2 54 3f f9 ae bc 3e
       0.7325827 -0.36722282 0.83085454 0.36852244
0003b0 2c 8d 1b 3e 6f 2f 29 3e af 4b ef 3b 9b f9 82 bd
       0.15190572 0.16522 0.0073027234 -0.06395265
0003c0 09 29 9c 3d 1b 1b 6f 3e d7 7c 02 be 58 ad 44 bf
       0.07625014 0.23350184 -0.12742935 -0.76827
0003d0 0c 1f 1a 3e 84 b4 21 be 80 35 ef bc 38 5b 7a 3e
       0.15050906 -0.15791517 -0.029200315 0.2444886
0003e0 4f 20 56 3e ae 5c ed be ce f2 7d 3d 2f ad 29 bf
       0.20910762 -0.4635977 0.061999135 -0.6627988
0003f0 8b 9e ee 3e a8 bf 26 bd e6 b6 2f 3e 69 d4 8f 3f
       0.46605334 -0.04071012 0.17159614 1.1236697

net.0.bias f4 [128]
000000 a3 47 db 3d 34 54 a2 be 62 b7 ae be 12 8d 45 3e
       0.10707023 -0.31704867 -0.34124285 0.19292095
000010 73 4f d4 3e 16 2a a1 3d 0e f9 d1 3e 28 1b 70 3e
       0.41466865 0.078693554 0.41010326 0.2344786
000020 80 4f dc 3e 23 77 cd 3d f4 03 e2 be a0 80 9c 3e
       0.43029404 0.10032489 -0.4414364 0.30566883
000030 ed a5 f6 be f2 c1 69 3e 90 12 ce 3e 52 4b 82 be
       -0.48173466 0.2282789 0.40248537 -0.2544809
000040 37 9c c6 3d 7b e9 30 3e d0 b1 79 3e 50 7f f7 be
       0.09697764 0.17276566 0.24384236 -0.4833932
000050 b5 ce 89 3d 8d 88 9b 3e 2c 28 39 3e 07 c8 d2 3e
       0.06728879 0.30377617 0.1808173 0.41168234
000060 2a 7e 69 be 58 ad 0f 3e f4 6a 00 3f 8b b9 c8 be
       -0.22802034 0.14030969 0.501632 -0.39204058
000070 af f9 ae 3e 7f 45 c2 3e 43 98 87 3e c7 46 dc 3e
       0.34174868 0.37943646 0.26483354 0.4302275
000080 60 20 df 3e 1b 2b e0 3e 05 66 96 be ad a7 0d 3f
       0.43579388 0.43782887 -0.2937471 0.5533398
000090 89 4b 6e 3e 44 eb 16 3e 4a 54 2f 3f 1a d6 09 be
       0.23271002 0.14738184 0.6848799 -0.1346058
0000a0 61 d3 db 3e f9 48 8d 3e 47 a2 28 3e d8 74 ba be
       0.42934707 0.27594736 0.16468154 -0.3641727
0000b0 01 1c a9 3e 33 c7 ab be f3 53 79 be 34 61 d0 be
       0.33029178 -0.33550414 -0.2434843 -0.4069916
0000c0 a6 e9 99 3e 0e ce 0b be 29 10 bb 3d 73 68 a9 3e
       0.30061072 -0.13652822 0.09133942 0.330875
0000d0 73 7d 01 3f ac ba 4d 3e d0 51 08 3f f6 f5 9e 3e
       0.50582045 0.20090741 0.53249836 0.31047028
0000e0 21 20 f2 3e ce d8 96 3e e1 4f 1f bf 0a 39 57 be
       0.47290137 0.29462284 -0.6223126 -0.21017852
0000f0 04 90 c5 3e 94 42 a0 be 95 4a f9 3e a7 ec aa 3e
       0.38586438 -0.31300795 0.48689714 0.33383676
000100 ca 27 bd 3d b5 21 fb be 16 7c 75 be 48 14 7c be
       0.09236105 -0.49049154 -0.23973116 -0.24617112
000110 90 5c a2 be ad 76 a3 3e 8b 46 d7 3e f0 c2 f0 be
       -0.31711245 0.3192648 0.42046008 -0.47023726
000120 ba 15 e3 3e a2 e2 8c 3e b5 2f cb be ae a4 c6 3e
       0.44352514 0.27516657 -0.39684835 0.38797516
000130 0d 9f a9 3e d8 49 b6 be 52 29 9a 3e 3d 21 96 be
       0.3312916 -0.35603213 0.3010965 -0.29322234
000140 b4 16 d1 3e 93 16 24 3f 9d eb a6 3e 85 09 c8 3e
       0.40837634 0.64096946 0.32601634 0.39069763
000150 86 1a 8b 3c 64 95 f5 be 12 30 60 3e 53 70 a9 3e
       0.01698042 -0.47965539 0.21893337 0.3309351
000160 bb 5a cf 3e 1d 7f f1 be 62 13 9a be 29 19 c6 3e
       0.4049891 -0.47167292 -0.30092913 0.3869107
000170 9d 8c 02 3f d3 a6 ba 3d b9 39 aa bd ae e6 e6 be
       0.5099581 0.091138504 -0.08311791 -0.4509787
000180 c7 50 0e 3f 31 03 cd be 96 49 81 3e a9 1e 83 be
       0.55592006 -0.40041497 0.25251454 -0.2560933
000190 d6 90 c9 be a8 42 fe 3e 90 62 7c 3e 2b 5e cb be
       -0.39368314 0.4966023 0.24646974 -0.39720282
0001a0 15 fa ec 3e 7f 57 47 3e 28 17 e2 3e 23 01 8d 3e
       0.46284547 0.19466971 0.44158292 0.2753993
0001b0 3e dd 4d be da 01 17 3f f7 fb 7b be 13 78 e2 3e
       -0.20103928 0.589872 -0.24607836 0.44232234
0001c0 87 ce ea 3e 68 05 89 be 88 14 cd 3e 6b 86 9d 3e
       0.45860693 -0.26761937 0.40054727 0.30766615
0001d0 98 ae bd be f6 11 9f 3e f0 7e 8e 3e f0 5c 14 3f
       -0.37047267 0.3106839 0.2783122 0.5795431
0001e0 b9 a4 18 3e e8 c1 9d be 3c df a8 3d 7a 7b 08 3e
       0.14906587 -0.30812 0.082457036 0.13328353
0001f0 c6 00 06 3f 10 95 b2 be f8 bb 70 be 23 7c bd be
       0.5234493 -0.3487935 -0.23509204 -0.3700877

net.2.weight f4 [128, 128]
000000 ed 61 76 bd dc f5 a3 b9 27 de 89 3d 5a dc ea ba
       -0.060151983 -0.00031272962 0.06731825 -0.0017918453
000010 36 30 d0 3a 53 fe 9c bd 8c e9 7b bd 5e 5b bc 3b
       0.0015883509 -0.07665696 -0.061502025 0.0057481965
000020 8f 53 a4 bd 0b 4d 96 3d bf 15 52 bd 3d b5 c7 bd
       -0.0802375 0.073389135 -0.05129027 -0.09751365
000030 18 0f e3 3c c5 80 4f 3d c6 66 3a 3d 90 72 cf bc
       0.027717158 0.050659914 0.04550817 -0.025323182
000040 0f 21 10 3d b5 ba 23 3d f6 b8 85 bd 26 55 fb bc
       0.035187777 0.03997298 -0.06529419 -0.03068025
000050 dc 8f 97 bd 8d 11 97 bd 26 9b 6b 3d ae 87 9b 3d
       -0.07400486 -0.073763944 0.057521008 0.07594238
000060 69 b7 4a 3d f7 d2 a2 bd f5 2c 65 bd 93 6a 37 3d
       0.04949132 -0.079503946 -0.055951077 0.04477937
000070 df 87 50 3d ce 6d a6 bd 5d d8 12 bd d9 3d fb 3c
       0.050910827 -0.08126412 -0.03585087 0.03066914
000080 4d 10 83 3d 23 d7 8e 3d f5 52 75 3d 3b fa c3 bd
       0.063995935 0.06974628 0.059893567 -0.09569212
000090 d4 a3 7c 3c 17 a6 89 bd 55 dd 3f 3d 40 d7 4a bd
       0.015419919 -0.06721132 0.046841938 -0.049521685
0000a0 54 05 34 bd fe 03 41 bd 87 c9 96 3d 21 8b 6f bb
       -0.043950394 -0.047122948 0.07362657 -0.0036551433
0000b0 38 76 9d bc d8 3c ee bc 18 87 c0 3d d6 59 13 3d
       -0.01922141 -0.029081747 0.09400767 0.035974346
0000c0 c7 45 29 3d 0e 15 7b bd 84 e8 59 3d 71 fd 81 3d
       0.04132631 -0.061299376 0.05320026 0.06347168
0000d0 2f 62 c0 3c a7 1a b8 bd 1f a3 8c bc 1f 7a a2 bd
       0.023484318 -0.089894585 -0.017167626 -0.07933449
0000e0 3a 7c dc bb c3 4d 03 bd e4 fa e7 3b 92 a9 f2 bc
       -0.006728676 -0.03205658 0.007079469 -0.029621873
0000f0 31 9d 97 bd 3a d3 78 bc 8f c6 df bc 1f 73 b4 bd
       -0.07403029 -0.015187079 -0.02731636 -0.0881102
000100 0a bc 46 bd bd 5d 58 3d bb 32 2b bd 55 d1 b4 3c
       -0.04851917 0.05282377 -0.041796427 0.022072474
000110 3b 37 cc 3c 0c 83 5a 3d a8 e5 48 bd d3 b2 43 bc
       0.02492868 0.053347632 -0.049047142 -0.0119444905
000120 ac 06 42 3c 6c f2 b3 3c 86 5c 25 3d ca 84 a3 3c
       0.011842411 0.021966182 0.04037144 0.01996078
000130 4e 38 f0 bc eb 17 6a 3d 24 f4 9e bd 40 6c 00 bb
       -0.029323723 0.057151716 -0.0776141 -0.0019595772
000140 7d 3e 79 bd 72 63 1c 3d 35 78 88 bd 2c 37 83 3d
       -0.06085061 0.038180776 -0.06663553 0.064070076
000150 07 5a 9b 3d 9a ff 36 3d 98 78 27 bd 2c 84 0b 3d
       0.07585531 0.044677354 -0.04088649 0.034061596
000160 b6 68 92 3d 00 0e 83 bd ea 5e 27 bc 5a 40 92 bd
       0.07148878 -0.06399155 -0.0102155 -0.0714118
000170 38 1d 07 3d 4c 6d 41 3d 57 6e 38 3c 83 11 af 3d
       0.03298685 0.047223374 0.011256776 0.08548262
000180 b4 10 11 bd 9c 3b c7 3c 32 77 bd 3c f3 80 a3 bd
       -0.03541632 0.024320416 0.023128126 -0.079835795
000190 d9 e3 1b bd 06 cb b7 3c df 80 64 3c 45 a5 bc 3a
       -0.03805909 0.022435676 0.013946741 0.0014392516
0001a0 af 62 a0 bd a0 0c a5 bd 90 6c 9f bc db 2c 6e 3d
       -0.078313224 -0.08059049 -0.019460946 0.058148246
0001b0 47 4d 9a 3c c6 31 c3 bd f8 21 a0 3d 66 1a 8a 3d
       0.018835677 -0.09530978 0.07818979 0.06743316
0001c0 2b c7 9f bd 91 b8 02 bd 16 f9 19 3d d9 40 4e bd
       -0.0780166 -0.031914297 0.037591062 -0.050354812
0001d0 58 ae b1 3c ef 9d 2f 3c 14 a6 1b 3d 7b f6 a7 bd
       0.021689579 0.010718807 0.03800018 -0.08201309
0001e0 e4 28 bd bd b8 18 af 3d ec 17 c0 bd ec e3 f7 3c
       -0.09236315 0.085496366 -0.09379563 0.030260049
0001f0 5b c7 3a 3d cf 8e cf 3c 89 07 9e 3d c6 2b 84 bd
       0.045600276 0.025336651 0.07716281 -0.064536616
000200 12 16 0f bd 6b e9 1f bb 90 cb 7e 3d 5c 7c da 3c
       -0.034933157 -0.0024400603 0.06220585 0.026670627
000210 77 d8 76 bb 5d 58 b0 bd ca 90 c3 bd 4d 52 f0 bc
       -0.0037665644 -0.08610604 -0.09549101 -0.02933612
000220 d3 3b 93 bd 7a 6e b5 bd 04 19 df bc 5f 05 c4 bc
       -0.07189145 -0.08858962 -0.027233608 -0.023928342
000230 de 1a 2a bd f7 73 c1 bb e8 c8 42 bd 59 64 92 bc
       -0.04152953 -0.0059037167 -0.04755488 -0.017870115
000240 50 f3 db bc b5 c8 b8 bc 5c 9a ac bd 27 4b 93 3d
       -0.026849419 -0.022556642 -0.08427879 0.071920685
000250 c7 70 fa 3c ba d0 48 bd 92 6b ff bd 44 ae 34 3d
       0.030571355 -0.049027182 -0.12471689 0.044111505
000260 ff 2a dd 3c 8b 09 1d 3d 76 2e 04 bd 80 a7 86 bc
       0.026998041 0.03833918 -0.03227087 -0.016437292
000270 2f 55 f7 3c 9a 9d 46 bd a5 0c 02 bd f5 1f c6 bd
       0.030191986 -0.048490144 -0.03175034 -0.09674064
000280 8e 6a d1 bc 39 9d c7 bd c2 9c 22 3d 80 3b 11 be
       -0.025563505 -0.09746785 0.039700277 -0.14182854
000290 f7 58 32 bd 3e 12 61 bd a7 a7 75 3b 03 d5 0a bd
       -0.043541875 -0.054949038 0.0037483962 -0.03389455
0002a0 31 0b 31 3d bb 22 b4 bd 89 21 9b 3c f4 d8 04 bd
       0.043223564 -0.08795687 0.01893689 -0.032433465
0002b0 03 45 a2 3c c6 6d bd 3d 85 c6 85 3c 8e 68 56 bd
       0.019808298 0.09249453 0.016330013 -0.052345805
0002c0 ea 70 0f bd fa 19 7e 3d f2 6b 39 3d b8 6b 99 bd
       -0.035019793 0.062036492 0.04526896 -0.07491249
0002d0 64 e7 08 3d 58 5e 8c bd 82 91 0e 3c 3e 2b 1b bd
       0.033423796 -0.06853932 0.008701684 -0.037883036
0002e0 53 33 09 be 3d b1 ce 3c ea 5c 82 bc 34 3b a3 3c
       -0.13398485 0.025230998 -0.015913446 0.019925691
0002f0 00 d3 8d 3d c4 fa 31 bd 1b b9 1d 3d 5d 93 be bc
       0.06925011 -0.04345204 0.03850661 -0.023263628
000300 be 1e cc bd a2 e0 b0 bd a1 29 04 3c 49 b6 3c 3d
       -0.09966801 -0.08636595 0.008066566 0.04607228
000310 44 69 06 3c cb 12 e6 3b 9d 00 29 3d 0f c9 7d bc
       0.008203808 0.0070212833 0.04126035 -0.015489831
000320 0e bd 72 bd 52 b4 bf 3c 90 16 61 3c b3 0a 06 3d
       -0.059262328 0.023401413 0.0137382895 0.032725047
000330 6e e0 5f bd 89 d0 ae 3d aa 1f ed bd b3 d5 a9 3d
       -0.054657392 0.08535869 -0.11578305 0.08292713
000340 5d 0a 6c bd 70 cf bf 3c 64 51 a6 3d be a6 92 bd
       -0.05762707 0.023414344 0.08120993 -0.0716071
000350 6f cc bb 3d b0 cd 05 3d 1d 45 10 bd e8 4b 02 bd
       0.09169852 0.032666862 -0.03522216 -0.03181067
000360 1d e6 32 3c 52 16 9c bd 67 2e 6f bc 5c 81 9b 3c
       0.010919121 -0.07621445 -0.0145984655 0.018982582
000370 76 5a 8e bc f9 69 84 3d c5 90 4c 3d cd 6e c9 bc
       -0.01737712 0.06465525 0.04994275 -0.024588967
000380 f5 d5 55 3d db 6a 1b bd 85 39 6b 3d c9 47 98 bd
       0.052206 -0.037943702 0.0574279 -0.07435567
000390 eb 3c 9d 3c 76 dd ec bc 34 58 68 3c 91 60 2c 3d
       0.019194087 -0.028914195 0.0141811855 0.04208428
0003a0 78 98 ec bd 36 40 33 3d cc d2 62 3b 1f 77 75 3d
       -0.115525186 0.04376241 0.0034610508 0.059928056
0003b0 bd 03 ac 3d 40 2a f8 bd d3 a8 3f 3d 14 30 fb bc
       0.083991505 -0.121174335 0.046791863 -0.030662574
0003c0 d9 6b 0c 3c 33 7f 9c 3d ee 85 1f 3d 6b 8d 92 bd
       0.008570635 0.07641449 0.038946085 -0.071558796
0003d0 5a 6b ca bc 53 1e a2 3b 65 e0 8e 3d cd d3 9f 3b
       -0.024709392 0.0049474626 0.069763936 0.0048775435
0003e0 51 81 de bd ef 5f 05 3d 12 08 e0 bc 05 df b2 3d
       -0.10864509 0.032562193 -0.027347598 0.08733944
0003f0 71 15 9c 3d 05 61 6d bc ae 83 47 3d ac 59 9f 3c
       0.07621277 -0.014488463 0.048709564 0.019451939

net.2.bias f4 [128]
000000 c3 10 93 3d a8 b3 b1 3c e5 85 bc 3b 08 d2 7c 3d
       0.071809314 0.021692112 0.005753266 0.06172374
000010 d2 16 98 bd e0 a9 68 3d 23 64 43 bd ad 97 ad bd
       -0.07426228 0.05680263 -0.04770292 -0.084761955
000020 db c1 84 bd 9e dd 0d 3c 33 35 9b bc 14 61 d9 bc
       -0.064822875 0.008658795 -0.018946266 -0.026535548
000030 f6 1c 87 3d ef d9 d1 3c 20 98 33 bd 16 22 2b 3e
       0.06597321 0.025616614 -0.04384625 0.16712222
000040 68 dd 6f 3d 21 14 9d 3c b7 4c 9c bd f6 20 ed 3c
       0.05856076 0.019174637 -0.0763182 0.028946381
000050 94 62 6f 3d f8 55 80 3d 8e 9d d5 bc 72 d5 9e 3d
       0.05844362 0.06266397 -0.026076104 0.07755555
000060 df 98 45 bc bb 92 4b 3c 6b 91 15 3d 87 dc 18 bd
       -0.012060373 0.01242512 0.036515635 -0.037319686
000070 73 b8 4a bd ff 4f 4d 3d a5 5c 7f 3d fd 92 dc bb
       -0.04949231 0.05012512 0.062344212 -0.0067313896
000080 8c 0e 33 bd a0 3d 70 bd d1 eb c2 3c 8e 0b 00 3d
       -0.043715045 -0.05865252 0.023794087 0.03126102
000090 17 24 ad bd da c4 bb bd 55 e8 03 3d 90 a2 87 3d
       -0.08454149 -0.09168406 0.03220399 0.06622803
0000a0 f5 7c 03 3e 30 c2 83 bd 28 21 ad bd f5 bd 5f 3c
       0.12840636 -0.06433523 -0.0845359 0.013656129
0000b0 40 00 89 3d 08 18 80 3d 1a 1e 56 3d 48 0d d6 3b
       0.06689501 0.062545836 0.0522748 0.006532345
0000c0 33 b8 1f bd a1 25 cc 3c a1 be 77 3c 9e 1f 6c bd
       -0.038994025 0.024920287 0.015121133 -0.05764734
0000d0 da a6 b3 3d 9d cc 13 3d 14 f1 ad 3c 92 09 28 3b
       0.08772059 0.036083806 0.02123312 0.002564047
0000e0 29 21 3a 3e 23 20 9a 3d 15 51 c2 3a 93 e6 9d 3c
       0.18176712 0.07525661 0.001482519 0.019274985
0000f0 15 de 84 bd 17 26 c5 3d 27 72 ae bb e4 3c bf bc
       -0.06487671 0.09626406 -0.0053236666 -0.023344465
000100 f7 dc 83 3d 02 fc 4c 3d 38 e4 e5 3b 9b 17 9a bb
       0.0643863 0.05004502 0.007015731 -0.004702521
000110 8a 36 df 3d 90 96 cc bc 3f 1b 15 bd 17 20 08 3e
       0.108990744 -0.024974138 -0.036402937 0.13293491
000120 58 81 7d bd ab d6 38 3d 18 cf 1e 3e 4f b9 bd bc
       -0.06189093 0.0451266 0.15508687 -0.023159651
000130 8e 23 17 3e f5 eb af bd d5 c5 06 3c 89 a4 09 bd
       0.14759657 -0.08589927 0.008225878 -0.03360418
000140 c4 c2 4e bd a0 18 fc 3c 49 66 39 3d d8 7f 62 bd
       -0.05047871 0.03077346 0.045263562 -0.055297703
000150 12 7d 66 3d c9 8d e0 3c ea 76 a6 bd bc 8c 25 3c
       0.05627162 0.027411358 -0.0812815 0.0101043545
000160 38 94 75 3d b9 5a da 3d fa a9 e4 3b 15 a9 b0 3c
       0.059955806 0.10661835 0.0069782706 0.021565
000170 f1 c3 81 bd a1 83 ba bd 86 33 0a bd 53 2c 87 3c
       -0.06336201 -0.091071375 -0.033740543 0.016500628
000180 37 b4 5e bd d9 2a 18 3e 89 9d 3f 3d be 95 23 bd
       -0.054371085 0.14860095 0.046781097 -0.039937727
000190 44 18 f7 3c e9 9b de 3d ae c3 6a 3d dc 49 19 3e
       0.030162938 0.10869581 0.05731552 0.14969581
0001a0 89 0e 7c bd da 5b bc bd 6e e4 48 bd b0 83 6d 3d
       -0.0615373 -0.09197207 -0.049045973 0.057986915
0001b0 43 2f 87 bd 1a 30 3a 3d 50 8c 2e 3d c9 39 b4 3d
       -0.06600811 0.04545603 0.04261428 0.08800084
0001c0 1b 82 7d 3d b5 f1 b9 bd cd 58 3c 3d d8 7c 49 3e
       0.061891656 -0.09079305 0.045983125 0.1967653
0001d0 51 74 6d bd 01 d0 f3 3c b9 18 21 bb 6a 36 05 3e
       -0.057972256 0.02976227 -0.0024581386 0.13009039
0001e0 63 67 6e bd f8 a4 75 bd dd 58 82 3d 4b 7e bf bd
       -0.058204066 -0.05997178 0.063646056 -0.0935026
0001f0 cf 15 a4 bc 58 6e 19 3c 22 64 cb bd 42 5d 32 bd
       -0.02002993 0.009364687 -0.09931208 -0.04354597

net.4.weight f4 [2, 128]
000000 f0 81 01 3c fc 9a df 3c 35 11 8b 3d c1 b0 4e bd
       0.007904515 0.027295582 0.06790391 -0.050461534
000010 32 4b 6f bc 8b 00 97 bc d1 b6 c2 3c b8 a2 a1 bc
       -0.01460533 -0.018432876 0.023768814 -0.01973091
000020 60 7f 27 bd 14 db 22 bd 87 c0 87 3d 41 38 3b 3d
       -0.04089296 -0.03975971 0.066285186 0.045707945
000030 88 1a 14 bd eb 88 7c be 78 a3 cd bc e8 bf 38 bf
       -0.036158115 -0.24661605 -0.025102362 -0.72167826
000040 31 1b 7f 3d d9 51 30 3e 60 ce 2e 3d 14 f6 9d bd
       0.06228179 0.17218722 0.042677283 -0.07712951
000050 39 ed 47 3d e4 24 38 3d c7 c9 67 bd ae 97 45 bd
       0.048810218 0.044957057 -0.056588914 -0.048240356
000060 d0 50 1f bd c0 e4 3a 3d d5 f2 fd bc d3 e9 c1 3c
       -0.03889543 0.04562831 -0.03099958 0.023671066
000070 67 c5 9f bd 09 17 4b 3d 73 91 7a bd df 2d de bb
       -0.078013234 0.049582515 -0.061173867 -0.0067803706
000080 66 46 63 3b 18 77 23 3d 2e 62 1e bd 6e 26 63 3d
       0.0034679412 0.0399085 -0.03866785 0.05545657
000090 35 a3 86 bc 00 47 4b bd 86 85 5d 3e 29 ac 8c 3e
       -0.016435245 -0.049628258 0.21632966 0.27475098
0000a0 f8 14 35 3e b9 7c 4d 3d 2b 21 4a bd dc fe 85 bd
       0.1768378 0.050167773 -0.049348038 -0.06542751
0000b0 d5 07 14 bf b4 a5 8a bd db bf 7e 3d 8b 04 3e 3d
       -0.5782445 -0.067698866 0.062194686 0.04639105
0000c0 05 f0 e7 bc 55 3b 47 3c 59 de 80 bd 1e ce 29 bd
       -0.028312692 0.012160142 -0.062924094 -0.041456334
0000d0 12 37 89 be 13 5d 90 bd 5c d6 74 3e 81 fb 1d 3d
       -0.26799828 -0.070490025 0.23909897 0.03856993
0000e0 cd 00 4c bf 31 5b 09 3e d3 22 a0 3d 6f 3b f1 3b
       -0.7968872 0.13413693 0.07819142 0.0073618214
0000f0 09 c2 a5 bd 87 da 25 bf 31 77 10 3d 8d 44 89 bd
       -0.0809365 -0.6478657 0.03526992 -0.06702528
000100 3c fd 28 bf 8a 9b 6f 3d 4e be 2b 3c 9c a1 15 bd
       -0.66011405 0.058497943 0.010482384 -0.036531076
000110 8a 79 2e 3e 2d 38 6a bd 5a df 90 3d ed 6d 2d bf
       0.17038551 -0.05718248 0.07073851 -0.6774586
000120 45 a3 14 bd 61 93 10 bd 29 6e 82 3e a7 72 ac 3d
       -0.03628852 -0.0352968 0.2547467 0.08420306
000130 16 23 15 3e 87 61 89 bd 27 3c 11 bd b9 00 d6 be
       0.14564165 -0.06708055 -0.035457756 -0.41797426
000140 16 e6 b5 bc cb fc 9e bd f9 39 76 3a 0c ca 8f 3b
       -0.02220444 -0.0776306 0.0009392794 0.0043880995
000150 b9 67 c8 bc 3d c4 35 bf 4c 8f 9b 3a 87 f8 7f bd
       -0.024463521 -0.7100256 0.0011868267 -0.062492874
000160 b0 2f 89 3c 46 cc 7f 3e aa cd 9b 3c dd 4f fb 3c
       0.016746372 0.24980268 0.019018967 0.03067773
000170 dc c6 bd bc 97 5d 49 bd b4 b8 87 3d e2 ba c0 be
       -0.023166113 -0.04916152 0.06627026 -0.3764258
000180 0a c3 64 bd 81 ea 77 3e 21 6b a0 3d 99 fc b0 bc
       -0.055850066 0.2421055 0.07832933 -0.021604823
000190 ee 07 a8 3c af 95 00 3e 0f 5d 5b 3c b1 aa 80 3e
       0.020511594 0.125571 0.013388886 0.25130227
0001a0 0f 8a 58 bd 29 b1 f7 bc 29 81 1a 3d e7 ec 4a bd
       -0.052866038 -0.030235844 0.037720833 -0.049542334
0001b0 a2 13 aa 3b 2d 98 03 3c b3 39 99 3d b8 85 9e be
       0.0051903287 0.008031887 0.074817084 -0.30961394
0001c0 e2 8e f4 be 77 9f 95 3d 01 d6 25 3d e9 38 61 be
       -0.4776526 0.07305806 0.040487293 -0.21994366
0001d0 d7 18 78 3d f4 8d 4a bc ad 77 fe be e0 21 38 bf
       0.060570564 -0.012362946 -0.4970068 -0.7192669
0001e0 2f 6e b6 bc e2 88 06 bd 58 3f 11 3d 1d 78 ca 3b
       -0.022269337 -0.032845385 0.0354608 0.0061788694
0001f0 0a 07 35 bd 1d 35 8b bd 09 27 ca 3c 27 fb 85 3d
       -0.044196166 -0.0679724 0.024676817 0.06542044
000200 f0 58 40 3d 45 36 a9 bc c6 65 a3 bd 6c 8a f0 bc
       0.046959817 -0.02065576 -0.07978396 -0.02936288
000210 3b af 35 3d bf e8 3a 3c c7 0b b9 bc e6 c4 b0 bd
       0.044356566 0.01140803 -0.022588624 -0.086313054
000220 35 b7 46 3d 7a d2 d3 3c 6e 17 2c 3c 6b 79 5c 3d
       0.048514564 0.025857199 0.010503633 0.05382673
000230 82 fa e6 3c 4c 76 eb 3d 75 02 25 bd 1a ab 1c 3f
       0.028195623 0.11497173 -0.040285546 0.6119858
000240 a1 c2 13 bd f5 c5 70 be e2 15 0b bd 1a 89 91 3b
       -0.036074284 -0.23513015 -0.033956416 0.0044413926
000250 53 eb 50 3d 64 f1 c0 bc 01 c7 26 bc 1a 18 b9 3c
       0.051005673 -0.023552604 -0.010179282 0.0225945
000260 57 75 a3 bc 16 8c 55 3d 43 92 2b bd eb 6b ab bd
       -0.019953413 0.05213555 -0.041887533 -0.08370193
000270 c3 a6 74 3d b9 f4 29 3d 03 e6 47 bd 76 19 8f 3d
       0.05972935 0.04149315 -0.04880334 0.06987278
000280 c1 84 90 3d c2 1c 04 3d 1c 5d 4e 3d f5 d9 df bc
       0.07056571 0.032253988 0.050381765 -0.02732561
000290 90 8c 96 bc b6 61 9c 3d 03 fe 3a be 37 21 8d be
       -0.018377572 0.076358244 -0.1826096 -0.27564403
0002a0 40 83 6c be 4c cc 64 3d 71 cc 4e 3d a4 1d 99 bd
       -0.23096943 0.055858895 0.05048794 -0.074763566
0002b0 c4 47 17 3f 80 d3 89 bd 4c b0 7c 3c 1d 02 6b 3d
       0.5909388 -0.067297935 0.015422892 0.057375062
0002c0 d7 63 23 bd 2e 7c d7 bc ab 49 96 bd 3b fa 1b 3d
       -0.039890137 -0.02630433 -0.0733827 0.038080435
0002d0 7b a0 ba 3e f7 9e 8c bd 7e 53 6d be 90 74 48 bd
       0.36450562 -0.06866258 -0.23176381 -0.048939288
0002e0 1e 60 65 3f f7 bc 8e be d9 07 79 3d f2 21 9b b9
       0.8959979 -0.27878544 0.0607985 -0.00029589195
0002f0 71 c3 9d 3d 35 ea 13 3f 56 dd b4 bc f1 c3 54 bd
       0.07703293 0.57779247 -0.022078197 -0.051944677
000300 cc dc 1c 3f f1 22 5e bd 9f b0 d4 3c 8b 74 1d bd
       0.6127441 -0.05423254 0.025963126 -0.038441222
000310 de d4 93 be 61 c9 99 bd 41 57 b3 bd 29 a0 1e 3f
       -0.28873342 -0.07509113 -0.08756877 0.61963135
000320 dd 95 52 bc cd 3a 69 bd 20 94 81 be c7 e0 16 3c
       -0.012853113 -0.056940842 -0.25308323 0.0092088645
000330 26 fd 0a be ee 37 d2 3b 5c 67 4e bd a1 58 d6 3e
       -0.13573131 0.0064153587 -0.05039154 0.41864493
000340 46 5c a4 bc 98 e9 81 3d 4a 6b b5 3c d3 6c 53 3d
       -0.02006353 0.063433826 0.022145886 0.051617455
000350 37 66 c5 3c db d9 1d 3f 67 82 01 3c bb 50 52 3d
       0.024096591 0.61660546 0.0079046255 0.05134652
000360 64 cd 04 3d 30 7f 54 be b0 a1 6c bd 5b ee 81 bd
       0.03242244 -0.20751643 -0.057771385 -0.06344291
000370 79 92 33 bd 4a 3d 2e bd fd 9a 1c 3c 8a 69 d8 3e
       -0.04384086 -0.04253892 0.009558436 0.4226802
000380 68 71 0d 3d 19 14 4f be a8 28 cb 3c 10 e1 65 bb
       0.03453198 -0.2022251 0.02479966 -0.0035076775
000390 ae 74 98 bc 4e 7b 85 be 7e ba 26 ba 1a d6 6b be
       -0.018610325 -0.26070637 -0.0006360187 -0.23030892
0003a0 5a 10 1b bd bf 89 83 3d 2c f4 fe 3b 47 a3 57 bd
       -0.03785739 0.06422757 0.0077805724 -0.052645948
0003b0 f9 cc ca 3c 75 40 5c 3d 7a 2c 24 bd 24 11 d1 3e
       0.024755942 0.05377241 -0.04008148 0.4083339
0003c0 14 91 c3 3e b0 f1 84 3d 6c 10 5b bd 30 44 98 3e
       0.38196623 0.06491411 -0.053482458 0.29739523
0003d0 71 ba 9f 3d 50 9e 86 bd 79 cd 08 3f 28 65 29 3f
       0.07799233 -0.065731645 0.53438526 0.6616998
0003e0 0a 63 28 bd 89 13 9c 3d 7a 39 4f 3d 4c b3 9c 3c
       -0.041110076 0.076209135 0.050591923 0.019128464
0003f0 da de ac bc b6 9c 09 3d 67 79 39 3c 5c bb 30 3d
       -0.021102358 0.033596717 0.0113204485 0.04314743

net.4.bias f4 [2]
000000 e3 39 ee 3d ad 00 e9 3c
       0.11632135 0.028442705
