checkpoints/policy_final.pth (torch, 72657 bytes, 6 tensors)

fc1.weight f4 [128, 4]
000000 be 3a 8d be 67 7a ae 3e 03 f6 06 be c6 01 bc 3e
       -0.2758388 0.3407776 -0.13179784 0.36720103
000010 c6 f4 0e 3f bf ad 98 be 77 d7 0b 3f 63 85 97 3f
       0.55842245 -0.29820058 0.5462565 1.1837581
000020 cf 8d 28 be 16 fa 23 3e 41 cc 1e 3f a6 d1 af 3f
       -0.16460346 0.16013369 0.62030417 1.3735855
000030 7f ce f2 be bc a8 2f 3e d3 65 02 bf a9 76 b8 bf
       -0.4742317 0.17154211 -0.5093662 -1.4411212
000040 f4 92 8f bd 1a 2a eb be a1 c2 b5 3c 3e 79 5e bf
       -0.07010451 -0.45930558 0.022187533 -0.8690375
000050 2b 32 37 3f 90 86 0c 3f a4 74 fa 3e 64 e2 71 3f
       0.71560925 0.54892826 0.48917115 0.9448607
000060 d9 46 df bc ad 26 d3 be 3e 62 3d bf 06 00 af bf
       -0.027255462 -0.41240445 -0.7397803 -1.3671882
000070 90 99 51 be 57 ac 5f bf 04 bc 81 be 31 46 d7 be
       -0.20468736 -0.87372345 -0.25338757 -0.4204574
000080 df c5 72 3e e2 51 13 3f 18 7d fc 3d b2 d8 bd be
       0.23708294 0.5754682 0.12328547 -0.37079388
000090 46 c0 20 bf 92 4f 60 be a4 6e 1c be 52 ee 13 bf
       -0.62793386 -0.21905354 -0.15276581 -0.5778552
0000a0 22 ff db be 0d 65 21 3e 53 4c b3 be 52 e2 9b bf
       -0.42968088 0.15761204 -0.35019168 -1.2178442
0000b0 e3 18 00 3e d5 1f 93 be 8b 79 dc 3e 0a 29 84 3f
       0.12509494 -0.28735223 0.4306148 1.0325024
0000c0 b1 41 e4 bd d1 b0 31 bf 5b 46 06 be 7c 64 5a bd
       -0.11145342 -0.69410425 -0.13112776 -0.053318486
0000d0 51 07 46 3c d2 0f bc bd 65 61 db 3e 13 a6 0e bf
       0.012086705 -0.09182705 0.42847744 -0.5572216
0000e0 bb 36 a7 be 9a f9 72 3e 73 ea 6f be a0 60 c6 bf
       -0.32658944 0.23728028 -0.23429279 -1.5498238
0000f0 0a 3b 34 3f bf 73 d1 bd ed c0 f4 3e 65 89 8a 3f
       0.70402586 -0.10227155 0.4780344 1.082318
000100 a4 0c 29 bd e3 81 1c bf d9 6a 38 bf 5e fb c1 bf
       -0.04127182 -0.6113569 -0.72038037 -1.5154836
000110 ec 6a 45 bb 85 e7 92 bd 5c 80 3c 3f 4a 22 75 3f
       -0.0030123545 -0.07173065 0.7363336 0.95755446
000120 57 44 13 3e eb 29 16 3f d1 0b 3d 3e e9 c0 b1 bd
       0.14381538 0.5865771 0.18461539 -0.08679373
000130 f3 a2 9a bd 7e b0 66 3e 7a 82 0f 3e 1d 84 95 be
       -0.07550611 0.22528264 0.14014617 -0.29202357
000140 f1 61 db be c4 6e fb bc 6a c1 ee be 0b fd c6 bf
       -0.4284816 -0.030692466 -0.46631938 -1.5545973
000150 a9 aa 50 bf f5 76 2c bf fe 73 54 bf a6 9b a4 bf
       -0.81510407 -0.67369014 -0.8298949 -1.286
000160 1a 43 3a be 09 bc 4c 3c b3 c4 b0 3e 0e 94 00 bf
       -0.1818966 0.012496003 0.3452507 -0.50225914
000170 c6 3e 8c be eb f9 31 be aa 57 f2 3e 97 bf 05 3f
       -0.27391642 -0.17380492 0.47332507 0.5224547
000180 dd 6b f7 3d f0 40 01 3f 60 74 ed 3e e0 53 a5 3f
       0.1208112 0.5048971 0.4637785 1.2916222
000190 a8 9a 57 bd 3e a6 fb 3e 3f d2 0f be 8f dc 29 bf
       -0.052637726 0.4915027 -0.14045046 -0.6635217
0001a0 79 f2 23 bf 2d b8 c9 bd fe df 04 bf 02 58 ca bf
       -0.6404186 -0.09849582 -0.51904285 -1.5808108
0001b0 9d 4f 25 3f 52 d9 52 be 8b 24 00 3f 0f e4 6d 3f
       0.64574605 -0.20590714 0.5005576 0.92926115
0001c0 15 69 b4 3d 33 34 80 3e e4 37 09 be 19 b9 5c 3f
       0.08809105 0.25039825 -0.13400227 0.86219937
0001d0 ec 50 c7 be 02 83 51 bf 81 bc 0c bf 8c 48 ec be
       -0.38928926 -0.8184053 -0.54975134 -0.461491
0001e0 05 46 de be 49 e2 dd be c5 67 c8 3d 5f 0f 10 bf
       -0.43412796 -0.43336704 0.097854175 -0.56273454
0001f0 f8 ac 90 3d a6 dc 20 3f c9 b4 1c bd 54 cd ca 3e
       0.07064241 0.6283668 -0.038258348 0.39609778
000200 5b f0 5b be 7b 52 0a bf 56 58 9f be 57 f9 97 bf
       -0.21478407 -0.54032105 -0.31122082 -1.1872967
000210 37 33 28 be 1b 08 2c bf 0a 11 56 3e 7b 22 29 3d
       -0.16425787 -0.6719987 0.20904937 0.04129265
000220 32 1b 00 be 9e 87 cf 3e fb 46 2e 3f e7 3a 90 3f
       -0.12510374 0.40533155 0.6807706 1.1267976
000230 f3 f0 96 3d 76 a8 a1 be a1 2d a5 3e 48 d0 a2 3f
       0.07370176 -0.31573838 0.32261375 1.2719812
000240 64 1c 87 3d 30 d4 b9 3e 00 83 e7 bc 7b 1c 06 3f
       0.06597212 0.362947 -0.028260708 0.5238721
000250 9d c3 20 3e 92 12 4f 3f cf a4 0b bd 1d aa af 3e
       0.1569962 0.8088771 -0.03409272 0.34309474
000260 ad 0f d1 be 9e c8 9a bd 4b f3 6d bd e1 b0 1c 3d
       -0.40832272 -0.07557796 -0.05809335 0.038254622
000270 57 ec 0e 3f 07 05 bb 3e a8 53 cc bd 0c dd d9 3e
       0.55829376 0.36527273 -0.09976894 0.42551458
000280 3d b5 fb be 53 4e d0 bd a8 7f 34 bf 54 75 d6 bf
       -0.4916171 -0.10171189 -0.7050729 -1.6754556
000290 bf 14 75 bd d1 a9 30 3e 74 88 a0 be 19 83 37 bf
       -0.05983424 0.1725228 -0.31354105 -0.71684414
0002a0 9b dc 0c bf 9f 2a 8e bc b2 e3 0f bf 09 ee 71 bf
       -0.5502412 -0.017354308 -0.5620681 -0.9450384
0002b0 fa a3 9a be 2f 21 82 3e d8 50 21 bf d0 7b ac bf
       -0.3020323 0.25415942 -0.6301398 -1.3475285
0002c0 6f 3f 08 3c 10 80 44 be a4 6a a5 be 58 b0 ad bf
       0.008315905 -0.19189477 -0.32307923 -1.3569441
0002d0 75 d5 06 3f 4c 60 17 3f 75 b3 58 3f 3a 69 b8 3f
       0.5266946 0.5913131 0.8464883 1.4407113
0002e0 26 52 7a be 5c 28 17 be d0 81 ac be ef 51 a3 bf
       -0.244454 -0.1476149 -0.3369279 -1.2759379
0002f0 3c bf c6 be 8d ae 3f 3e 0a ad 6b 3e 95 27 4c be
       -0.38817775 0.1871893 0.23015228 -0.19936974
000300 95 f9 3c 3e 32 d3 b4 be bf a9 32 3f 07 62 c1 3f
       0.18454583 -0.3531738 0.6979026 1.510804
000310 1d 7e 2e bd af 16 be 3e f1 4b 1f 3e c7 1d e8 3a
       -0.04260074 0.3712668 0.15556313 0.001770907
000320 b1 31 9b be 06 5c 45 3f 84 c9 c0 be 6b 49 97 bf
       -0.3031135 0.7709354 -0.37653744 -1.181928
000330 85 7a 9b 3e 59 99 0d be 9a 79 68 be 9f 52 7c 3d
       0.30366912 -0.13828029 -0.22702637 0.06160223
000340 73 91 33 be 89 5f 32 bf 91 ef dd be 83 10 8d bf
       -0.17535953 -0.69677025 -0.43346837 -1.1020664
000350 d3 cf a1 3d 3a 17 34 bc e8 2a d8 be a5 b9 93 bf
       0.079009674 -0.010991866 -0.42220235 -1.1541029
000360 4f 87 a1 3e f2 be b6 bc de 1b 48 be a3 96 b6 be
       0.31548545 -0.022307847 -0.1954188 -0.35661802
000370 75 f2 d6 be 3f 30 32 bf ff 29 40 be fe 97 a2 be
       -0.41981855 -0.6960487 -0.1876602 -0.31756586
000380 63 0c bd be 0f d9 e7 3e f4 b4 6e be 65 96 79 bc
       -0.36923513 0.4528279 -0.23311216 -0.015233611
000390 63 b4 dd 3b 20 d6 6c 3d c6 51 ab be 85 5c ca 3d
       0.0067658885 0.057821393 -0.33460826 0.09880928
0003a0 d6 3a ce bd 48 39 ea 3c 36 06 08 bf e4 09 9e bf
       -0.10069816 0.028591767 -0.5313448 -1.2346768
0003b0 f0 39 37 3f 1a ed bd 3e 90 0c e6 3e 88 89 ac 3f
       0.7157278 0.37094957 0.4493146 1.3479471
0003c0 03 1c 74 be 8c 45 2d bf 95 fe aa 3e 0f a7 2b bf
       -0.2383881 -0.67684245 0.33397356 -0.67051786
0003d0 a7 48 32 bf 8e 5f 59 be f7 2f 57 bf ed 1f 90 bf
       -0.6964211 -0.21227857 -0.84057564 -1.1259743
0003e0 53 a5 bf 3e 75 f8 c1 bd 35 b9 f3 3e 2d 75 b3 3f
       0.3743082 -0.094712175 0.4760224 1.4020134
0003f0 a4 0c 2b bf 3e 65 18 bf 4c 60 1e bf 5a a7 9d bf
       -0.66816163 -0.59529483 -0.6186569 -1.2316697

fc1.bias f4 [128]
000000 ee 9e 8b 3e 0f db c6 3e 2c ca 43 3e 97 94 9f 3e
       0.2726969 0.38839003 0.19120091 0.31168053
000010 67 4c 9a be f3 5c 8a be 9a 2f bb be d1 56 b2 be
       -0.30136415 -0.2702404 -0.36559755 -0.3483186
000020 1e 50 a1 3e 61 1a b6 3d 7d 25 7f be 13 0b fc bd
       0.31506437 0.0889175 -0.24916644 -0.123068
000030 68 cd 45 bd 98 32 57 be 16 e5 6f bd 03 23 42 3d
       -0.048291594 -0.21015394 -0.058568083 0.04739667
000040 f4 56 b5 3e 15 5b 2b 3e 43 39 18 3d 64 b6 8b 3d
       0.35417902 0.16733964 0.037163984 0.068218976
000050 91 bd fb be b8 78 69 bd 80 cc 6f 3d 4f ab fa be
       -0.49168065 -0.056999892 0.058544636 -0.48958823
000060 41 69 84 3e a3 7f 0f 3e 2a 25 13 bd 70 3e 9c be
       0.25861552 0.14013533 -0.035924114 -0.30516386
000070 14 a4 a8 3e 56 58 2e be c2 78 ac be 33 4b 90 3d
       0.32937682 -0.17025885 -0.3368588 0.07045593
000080 34 5a 92 be b3 be 67 be dc 94 ad 3e d2 7e bf 3e
       -0.28584445 -0.2263134 0.33902633 0.37401444
000090 91 90 12 3e 12 aa 06 3e 0c bd 9c be e0 fc b2 bd
       0.1431296 0.13150814 -0.3061298 -0.08739638
0000a0 62 4f dc 3c 99 50 93 be 2e 03 54 be 7a ad 7b be
       0.026893321 -0.2877243 -0.20704338 -0.24577895
0000b0 85 f6 47 3e 9c 8b 1a 3e 1d a9 71 bc 14 30 89 be
       0.19527633 0.15092319 -0.014749792 -0.26794493
0000c0 9c 22 60 bd ba cf ed 3d f0 aa 4b 3d 5c 1c 9b be
       -0.054720506 0.11611886 0.049723566 -0.30295074
0000d0 34 99 56 be 24 6e af 3e 8b 51 eb bd 11 5b aa be
       -0.2095688 0.34263718 -0.114901625 -0.33272603
0000e0 a8 ca 7a 3e f2 3b 66 3e b0 b6 83 3e 1e b1 8c 3d
       0.2449137 0.22483805 0.25725317 0.0686972
0000f0 44 93 88 be 58 2c 9d 3d 46 cb af 3e 25 3a 1d 3e
       -0.26674855 0.076744735 0.34334773 0.15354212
000100 62 09 ee bb 9b da 05 3d 18 77 06 3d f3 82 16 3c
       -0.007264302 0.03267918 0.03282842 0.009186494
000110 c3 d9 52 3e f7 68 ce bd 74 ac 10 3e 93 82 86 bd
       0.20590882 -0.10078614 0.14128286 -0.06567874
000120 71 0b 86 3d 28 0d 8c be 8e 78 c0 be 1f 4a 8d be
       0.06545151 -0.27353787 -0.37591976 -0.27595612
000130 9b 3b e3 b9 da 9a 3d 3e 03 39 c3 3d c5 f5 77 3d
       -0.00043341223 0.18516102 0.095323585 0.06053712
000140 17 c4 53 3e 83 a7 11 3e 15 e9 60 be a2 20 d6 3d
       0.20680271 0.14224057 -0.21963914 0.10455443
000150 cd b3 60 be 77 3c d6 3e 0e e5 cf be 9e 4f 9a be
       -0.21943589 0.41843006 -0.40604442 -0.30138868
000160 90 37 ed bd 31 b8 8e 3e 23 c3 8f 3e 0f b2 8c 3d
       -0.11582863 0.27874902 0.28078565 0.068698995
000170 4f c1 92 be 32 9d 81 be a9 16 c3 3d 97 82 0f bd
       -0.28663108 -0.25315243 0.095258065 -0.03503665
000180 47 a3 b6 3e 3b 03 0f be d5 8c d6 be 6b 99 6f be
       0.35671446 -0.13966076 -0.4190432 -0.23398368
000190 67 be d0 be 9f 75 7f 3e da bb b2 3c 04 a6 a6 bc
       -0.40770265 0.24947213 0.02181809 -0.020342834
0001a0 13 0f ad be 8e 7a 35 be 62 93 76 be 91 f8 1d be
       -0.33800563 -0.17722532 -0.2407966 -0.15426852
0001b0 11 46 85 3e ad 01 8c bd 2f 12 dd bd 7c 0c 71 be
       0.2603002 -0.06836257 -0.10794484 -0.23539919
0001c0 f6 90 12 3e b0 72 b8 be 55 2a c9 3d 74 cd 12 3e
       0.1431311 -0.36025 0.09822527 0.14336187
0001d0 e4 17 82 be 17 74 18 3e b9 cd 5b 3e 2b d1 ea 3c
       -0.25408852 0.14888035 0.21465196 0.028664192
0001e0 2d 33 34 be 2a c8 17 be 4f 18 cb 3d 80 e4 8c 3d
       -0.17597647 -0.1482245 0.09916746 0.068795204
0001f0 65 a4 b0 3e 6d 22 30 be a1 04 8a be dc cc af bd
       0.34500423 -0.17200632 -0.26956657 -0.08583996

fc2.weight f4 [128, 128]
000000 d4 1d 14 3d 5e 32 7b 3e e2 c9 11 3e c1 6a cc bd
       0.03616126 0.24530932 0.14237168 -0.09981299
000010 32 a4 ca bd e5 17 ed 3d 32 24 c4 be e0 a6 3f be
       -0.09894599 0.11576823 -0.38308865 -0.18716002
000020 d6 c4 80 3e 5d f1 2a be c3 20 81 be d0 75 82 3d
       0.25150174 -0.16693635 -0.25220308 0.06370127
000030 69 49 e5 be 35 e4 b4 3d bd 19 07 bf 2d de 04 3f
       -0.4478257 0.088325895 -0.5277365 0.51901513
000040 94 4c f5 bd a4 84 a2 3e 98 5f 13 3e f4 40 c0 3e
       -0.11977497 0.31741822 0.14391935 0.37549555
000050 85 d6 61 be 45 fd 4e bf b2 cb 80 3d 86 47 43 bd
       -0.22054489 -0.8085521 0.06288852 -0.047675632
000060 bf 87 d5 3e 9a 9c 5c 3e e0 74 13 bf c3 65 43 3e
       0.4170513 0.21544114 -0.5760021 0.19081788
000070 2a 56 d6 bd 43 ec 68 bf 8e b2 39 be e7 c1 eb 3e
       -0.10465653 -0.90985507 -0.1813452 0.46046373
000080 cb 3e 3d be 0c 3d c6 bd dd 7e 45 3e 39 8d 62 bc
       -0.18480985 -0.096796125 0.19286676 -0.013827615
000090 9a 50 47 3b 0b 59 90 3e 7a f5 0e be 80 85 3a 3e
       0.0030413033 0.28192934 -0.1396083 0.18214989
0000a0 a5 58 16 bf dd 15 20 bd 9c 74 4a bf b1 b5 c6 be
       -0.5872901 -0.03908335 -0.7908418 -0.38810495
0000b0 f1 f1 a1 3c 3a ff 9f 3f 2e 40 8f bf 90 1b b3 bd
       0.019768687 1.2499764 -1.1191461 -0.087454915
0000c0 0f 6e 23 3f 04 35 8d 3e 1e a0 21 bd ac 5a 2b bd
       0.6383981 0.2757951 -0.03945934 -0.04183452
0000d0 9e cf ba be 8e 08 df bc 3f af 4d 3e 9d 28 91 be
       -0.36486524 -0.027225759 0.20086382 -0.28351298
0000e0 48 c7 e1 bd 3b 40 cb bc 65 c0 00 be 2f 71 30 3f
       -0.11024338 -0.0248109 -0.12573393 0.68922704
0000f0 9c c4 90 bd 75 78 ce be 85 a0 42 3e 17 ed 56 be
       -0.0706875 -0.40326276 0.19006546 -0.2098888
000100 00 53 a2 be f5 80 05 bf 99 e5 06 bf 5e b6 b3 3d
       -0.3170395 -0.521499 -0.5269409 0.08775018
000110 0e 70 90 3f d9 8c c2 3d a6 0a 7d be 2d 96 b4 3d
       1.1284196 0.09499521 -0.24711093 0.08817706
000120 9a e6 06 3f 04 e4 42 3d b7 77 5b be 5b 07 f1 be
       0.5269562 0.047580734 -0.21432386 -0.47075924
000130 15 1b 56 3e cd 16 71 be 5f 50 21 bd d1 a3 a8 3e
       0.20908768 -0.23543854 -0.03938329 0.32937482
000140 f8 d0 20 3e 03 76 ff 3c c4 fb 98 be 96 cf 93 bd
       0.15704715 0.031184202 -0.29879582 -0.07217328
000150 c4 93 37 be 09 4f 70 3e c0 e9 5b be 6e 45 97 3c
       -0.17927462 0.2346765 -0.21475887 0.018465724
000160 06 62 57 be 81 f6 4e 3e fd cf 81 bd 37 f4 94 3f
       -0.21033487 0.20211221 -0.06338499 1.1637028
000170 21 2e 87 bd 35 31 fc 3d 4b 6f 29 3e af 63 36 3e
       -0.06600595 0.12314073 0.16546361 0.17811464
000180 51 ec a7 3e e0 e3 98 bb a8 7a 5d be 5b f2 43 be
       0.32797483 -0.0046658367 -0.21628821 -0.1913542
000190 b4 a7 56 be b7 ab f7 3b 77 9c 9d 3d 04 f2 15 3f
       -0.20962411 0.007558312 0.07695859 0.5857241
0001a0 88 50 51 be b7 56 b2 be ba 5a a0 be 51 85 6f be
       -0.20440876 -0.34831783 -0.3131922 -0.233907
0001b0 8a c8 19 be 2b 0c 05 bf 62 fb ff 3e 4a e4 f3 be
       -0.15017906 -0.5197169 0.49996477 -0.47635108
0001c0 a6 8c bf bd 30 6b 4c 3d ed 8f db be 2c 3d 62 3f
       -0.093529984 0.04990691 -0.42883244 0.8837459
0001d0 c1 6a 13 be c0 b1 a0 be cb 75 93 be c5 2a 72 be
       -0.14396192 -0.31385612 -0.28800806 -0.23649128
0001e0 b9 27 01 be cd 53 18 3e d3 6a e3 bc 37 65 96 3d
       -0.12612809 0.14875717 -0.027760899 0.07343524
0001f0 f4 ec 8f bc 3b 7e 66 bd 71 72 b8 3d 78 26 28 3e
       -0.017569043 -0.056272727 0.09006203 0.16420925
000200 d9 8e 3c 3e 7a 08 a5 3e cb 73 86 3e 2d ac 01 be
       0.18413867 0.3223303 0.26260218 -0.12663336
000210 6f f7 17 be 17 d5 16 3d 76 61 5a be f6 ef 2e be
       -0.14840482 0.036824312 -0.21326241 -0.17083725
000220 f9 78 13 bd 8b aa 25 be c2 2a c5 be af 7b 95 3e
       -0.03600404 -0.16178338 -0.38509184 0.29195926
000230 4e ae 17 be 3e 27 ea bd dd 34 64 bf 1e 4c 07 3f
       -0.14812586 -0.11433266 -0.8914316 0.5285052
000240 d2 c3 29 be e0 85 be 3e 89 48 9a 3d ae 47 39 3c
       -0.16578606 0.37211514 0.07533366 0.011308594
000250 72 f2 90 be 95 b7 20 bf 73 91 cb 3c a0 9b 0f 3d
       -0.2830997 -0.62780124 0.024849629 0.035060525
000260 57 d7 d7 3d 64 b6 36 be 07 58 22 bf 64 06 0e 3d
       0.1053912 -0.17843014 -0.6341557 0.034674063
000270 98 3f 2a 3e 40 f6 b6 be f0 3a 3e be cb e3 03 3e
       0.16625822 -0.3573475 -0.1857717 0.12879865
000280 f7 84 3b be 97 a4 d4 3c 15 40 7c 3e 47 74 37 3e
       -0.18312441 0.025957389 0.2463382 0.1791545
000290 49 4f 0d 3e 89 06 c0 3d d6 33 9e bd 06 ad 29 3e
       0.13799776 0.093762465 -0.07724731 0.1656991
0002a0 76 89 21 bf b5 dc 16 be 2d 09 ea be 64 c6 b0 be
       -0.63100374 -0.1473263 -0.45710126 -0.3452636
0002b0 d2 48 62 be 29 8b 78 3f 7e 89 84 bf 06 2b 2c 3c
       -0.22098091 0.9708734 -1.0354459 0.010508304
0002c0 cd 88 1f 3f 8a 58 a5 3d 0b 16 b5 bc c0 46 42 be
       0.62318116 0.08073528 -0.022105237 -0.18972301
0002d0 b9 e7 c3 bd a3 9c cc bc ca 18 ec 3b 7f c4 f3 bc
       -0.09565682 -0.024977034 0.0072051035 -0.029756783
0002e0 5f 0a e4 3d bf cf 43 3d f2 2a e2 bd 8b bf 04 3f
       0.11134791 0.047805544 -0.110433474 0.5185477
0002f0 21 b7 32 bd 0a ad b9 be e2 bd 67 3e b9 a3 6c be
       -0.043631677 -0.3626483 0.22631028 -0.2310933
000300 47 2d 09 bf 6b 8c a1 be 5c 45 06 bf a8 2a 76 3e
       -0.5358471 -0.31552443 -0.52449584 0.2403971
000310 83 04 71 3f b9 c2 3c bc 0c 5f 41 be e6 40 6f 3d
       0.9414751 -0.011521035 -0.18883914 0.0584115
000320 ff ec 21 3f eb fc 10 3e 10 10 b8 3d 46 b7 cd be
       0.6325225 0.1415898 0.08987439 -0.4017889
000330 8f 62 f0 3d e0 ec 36 be 8f 44 72 3a 05 e5 84 3e
       0.117375486 -0.17863798 0.00092417834 0.25955978
000340 12 31 b1 3e 3e ce 7c 3e bc d4 67 3d aa c5 fd bd
       0.3460775 0.2468805 0.056599364 -0.12391217
000350 3e 78 35 be 60 14 13 3e 03 6a 16 be 90 e2 0a be
       -0.1772165 0.14363241 -0.14688878 -0.13562989
000360 55 8c c1 3d 4a bc ca bd b6 e6 9a 3d bd c6 82 3f
       0.09450594 -0.098991945 0.07563536 1.02169
000370 66 02 f2 bd 6a ad 88 3d 42 3d 1a 3d 6b fe 32 3e
       -0.11816864 0.06673701 0.037656076 0.17479865
000380 9a 41 a6 3c 7a f8 40 3d c6 e6 8e bd 5b 70 05 3e
       0.020294953 0.047111966 -0.0697761 0.13031141
000390 10 47 e5 bd 14 40 4f bd 92 b4 01 3d 0e ff e6 3e
       -0.11195195 -0.05059822 0.031666346 0.45116466
0003a0 3d 23 85 be f2 3e 99 be ec d0 67 be 01 b8 9b be
       -0.26003447 -0.29930836 -0.22638291 -0.3041382
0003b0 c7 b5 c3 bd b3 2e a9 be 17 4f a8 3e b9 96 a6 bd
       -0.09556156 -0.3304344 0.3287284 -0.08134217
0003c0 e1 a8 29 bc 87 53 d6 bd 2b 56 ae be e2 55 0c 3f
       -0.010355205 -0.1046515 -0.34050116 0.54818547
0003d0 8d c9 23 be b7 33 b3 bd d8 9b 98 bd 75 0f a6 bd
       -0.15994854 -0.08750098 -0.074516 -0.08108417
0003e0 e8 79 1f 3e 57 45 0f 3e c0 28 e3 3c 68 fd 2f 3e
       0.15573847 0.13991295 0.027729392 0.1718651
0003f0 05 39 6a 3d 2e fb e6 bd b5 15 3c 3c fb 24 a0 3d
       0.057183284 -0.112783775 0.011479785 0.078195535

fc2.bias f4 [128]
000000 4a 6d 24 3e c0 28 26 3e 89 c9 73 3d d9 e0 d0 bd
       0.16057315 0.16226482 0.05951837 -0.10199136
000010 9d 8a 30 3e 0b 88 0d 3e 94 f4 d6 3d 78 a9 3b bd
       0.17240377 0.13821428 0.10495868 -0.045815915
000020 3b 31 6b 3e 5b 78 2a bc c2 f2 5d 3e d2 f9 28 3d
       0.22967999 -0.010404672 0.21674636 0.041253872
000030 7c cc e2 bd c3 7a 53 bd 59 40 06 3e 55 1c 68 bb
       -0.110741585 -0.051630747 0.13110484 -0.0035417278
000040 48 a3 a4 3c c2 ec 66 be df 40 9a 3e 08 9d 50 be
       0.02009739 -0.22551253 0.30127618 -0.20372403
000050 9e 84 f5 bc d5 d1 a2 3d 42 4e 1d be 9a 25 20 3d
       -0.029970463 0.079501785 -0.15361884 0.03909836
000060 18 12 42 3e d8 24 8c 3c 47 a1 05 be 88 6e f3 bd
       0.18952215 0.017107412 -0.13049804 -0.118863165
000070 3e 3b 94 bd 03 09 0f 3e 7d 80 ac 3d e1 b4 7f bd
       -0.07237862 0.13968281 0.08422945 -0.06242836
000080 61 e7 4d be 37 24 f4 3d 52 aa dd bd 09 82 3a be
       -0.20107795 0.1192097 -0.10823502 -0.18213667
000090 18 a1 4a 3e 69 b0 f2 3c bf 1c e7 3d 1a 13 01 3e
       0.19788015 0.029625135 0.1128478 0.12604943
0000a0 68 1d 29 be ac 63 3a 3e 90 3f 67 bd 6d aa 37 3d
       -0.16515124 0.18202084 -0.056457102 0.044840265
0000b0 06 a5 7f bb a8 69 c0 bd ce 49 1d 3d 60 d1 23 3e
       -0.0039008274 -0.09395152 0.038400464 0.15997839
0000c0 b8 af ff bd 5d 11 f3 bd f8 15 58 3b d4 31 20 3e
       -0.124846876 -0.11868546 0.0032972079 0.15644008
0000d0 37 6b a6 bb 18 2e 64 be 6a a8 08 be e5 c4 65 3e
       -0.005078699 -0.22283208 -0.13345495 0.2243839
0000e0 37 0c b5 bd b1 f8 29 be 48 61 41 be b7 6e 1d 3d
       -0.088402204 -0.16598774 -0.18884766 0.038435664
0000f0 47 0a ef ba aa a9 c9 3b 1f 76 0c 3d 5d ac 72 3d
       -0.0018237316 0.0061542587 0.034292337 0.05924641
000100 30 d6 a8 bd 18 f7 f8 bc 24 29 93 bc b1 26 b2 bc
       -0.08243978 -0.030391261 -0.017963953 -0.021746965
000110 1b f7 d1 3d 75 5f d0 bd 97 9f 2f be 74 48 39 bd
       0.1025221 -0.10174457 -0.17150722 -0.045235112
000120 d4 84 e3 bd 33 34 e7 3d 98 d6 9d bc 7f 8e c2 bd
       -0.11109319 0.11289253 -0.019267365 -0.09499835
000130 2e af 3f bd 95 70 0f bd 9b 9e 96 bc b6 c1 b0 3c
       -0.046797924 -0.035019476 -0.018386176 0.021576744
000140 ba 12 06 3d 56 74 39 bd fc a6 ac 3d a3 eb b2 3c
       0.032732703 -0.045276962 0.08430287 0.021840876
000150 55 c0 b7 bd 01 97 bd bd 83 89 49 3e 82 2e 1c 3e
       -0.08972231 -0.09257317 0.19681363 0.15252116
000160 e1 ca cf bd ca ff b6 3b a5 36 75 3d be c6 10 bd
       -0.10146118 0.0055846917 0.059866566 -0.035345785
000170 ef 3d 92 3e f4 17 0c 3e 50 8c 54 bd 4e 61 33 be
       0.28562877 0.13681012 -0.051891625 -0.17517588
000180 d8 36 09 3d 57 77 c2 3b 30 53 07 3e 1d ea 00 be
       0.03349957 0.0059346366 0.13215327 -0.12589307
000190 96 25 15 3e f2 34 83 bb 73 8d 35 3e 1a d8 0c 3e
       0.14565119 -0.0040041143 0.1772974 0.13754311
0001a0 97 9d 5d 3d c6 2e cc bd 54 dc ff bd 3b 8a 69 be
       0.054105368 -0.09969859 -0.12493196 -0.22806637
0001b0 24 6d c9 3d 10 d9 e5 bd 2c 85 96 3d c5 d4 1d 3e
       0.0983527 -0.11223042 0.07349619 0.15413196
0001c0 99 e7 e1 3d 7b 2c 10 3b c5 20 2a be 45 77 09 be
       0.11030502 0.0021999169 -0.16614063 -0.13424404
0001d0 2d 8b bd bd 13 ad 4c bd 4d 7f 84 bd 5a 16 7b 3e
       -0.09255061 -0.049969744 -0.06469593 0.24520245
0001e0 da 88 cd 3d 51 be 4d be 4f 5c 2d be dc af 11 be
       0.10035868 -0.20092131 -0.16929744 -0.14227241
0001f0 9b 94 bd bd 9e 6c fb 3d 7d 03 81 be 27 99 b6 3c
       -0.0925686 0.122765765 -0.25197974 0.022289826

fc3.weight f4 [2, 128]
000000 1a d6 49 bf d8 bd cd be 02 ac 42 3c 63 38 a4 bc
       -0.7884232 -0.40183902 0.01188183 -0.020046419
000010 e3 0d 84 3d 61 08 0e be 0c 62 9b be ea 52 80 3d
       0.06447961 -0.13870384 -0.3034824 0.062658146
000020 f7 a4 9e bd 42 04 99 bd 39 47 78 3d bc ee 17 3d
       -0.07746308 -0.07471515 0.0606148 0.03709291
000030 78 50 55 3e 56 64 07 3e 7c 76 75 be f4 99 0b bc
       0.20831478 0.13221869 -0.2397098 -0.008520592
000040 b8 6f a5 3c b8 3b ef 3c ac 92 47 3e 3a 2d 84 be
       0.020194873 0.02920328 0.19489545 -0.25815755
000050 ec 4d 71 bd f1 1d 57 bc bf 15 8e 3e 35 55 4a bd
       -0.058912203 -0.013129697 0.27750966 -0.049397666
000060 ae 2f a9 3d d5 22 2d bd c4 69 7f 3e 63 00 da 3d
       0.08261047 -0.042269547 0.2494269 0.10644605
000070 da 50 8d bc 72 29 63 3e 36 ca aa 3d a3 48 dc bc
       -0.017250467 0.22183779 0.0833935 -0.026890105
000080 10 88 f9 3e 02 db a9 be 2a 12 0b 3d ee 11 8f 3e
       0.4873662 -0.33174902 0.03395287 0.27943367
000090 3e bc aa be 62 4a 81 3d 75 eb 93 bd 98 62 86 3d
       -0.33346742 0.063130155 -0.07222644 0.06561774
0000a0 f7 75 a3 3e 98 52 fd bd 13 31 8b bd 6f a4 42 bc
       0.31925938 -0.12369269 -0.067964695 -0.011880024
0000b0 8f b3 ed 3b 1b 04 5c 3f 03 bb 88 3d db 91 28 3d
       0.007254071 0.85943764 0.06676295 0.041154724
0000c0 23 95 fc 3c 04 27 22 3e 35 79 5d bd 4a ee 4b bf
       0.030832833 0.15835196 -0.05407067 -0.79660475
0000d0 c7 f1 8e 3d b0 d7 28 be 87 89 a2 bc df 51 91 be
       0.06979709 -0.16488528 -0.019840969 -0.28382775
0000e0 07 c6 91 bc 1e a7 d8 bb bd 67 23 be 17 ff b6 be
       -0.017794622 -0.006611719 -0.15957542 -0.35741493
0000f0 bf fa 91 bd aa 7d cb 3c 17 0d d5 bd b1 a1 95 3d
       -0.07127904 0.024840195 -0.10402887 0.07306231
000100 0b c7 52 bc 6c e5 84 3d 75 df 94 bc a6 b8 16 3d
       -0.012864838 0.06489071 -0.018172959 0.03679719
000110 26 8a 29 3d cb 23 64 3f 47 4c 60 3e 4f fb 24 3b
       0.041391514 0.89117116 0.21904097 0.0025174206
000120 41 4d 28 bd e0 a1 94 3c a5 a9 e5 3c 9a 95 14 be
       -0.0410893 0.018143594 0.028034994 -0.14510193
000130 f7 31 e1 3d 4a d4 4e 3c 18 f7 14 bb 3c 4d 48 be
       0.10995858 0.012623856 -0.0022730287 -0.19560713
000140 62 88 b3 bd c3 24 c0 3e 8f b1 7c 3d 11 49 c9 bd
       -0.08766247 0.37528047 0.06169277 -0.098283894
000150 87 15 81 bd 84 f1 db 3d 2b ff 1c bd 6b 22 85 bd
       -0.06302934 0.10739425 -0.038329285 -0.06500705
000160 1d a9 d5 bc c8 10 0f 3d 21 cd 76 be 0b ea 70 3e
       -0.026081616 0.034928113 -0.24101688 0.2352678
000170 7a b1 08 be 2a 42 55 3e 0d 75 a8 3d c3 c7 bd 3e
       -0.13348952 0.20826021 0.08225451 0.3706647
000180 19 8f 27 bb 19 75 5e bb ae 13 fa bd a0 dd 6c 3d
       -0.002556747 -0.0033944307 -0.12210785 0.057828546
000190 3b af 0b 3e b0 e0 99 bd dd 52 14 3e 73 c3 22 be
       0.13641064 -0.07513559 0.14484735 -0.1589487
0001a0 92 14 52 bf 15 1c 9a bd 28 a8 46 be 73 b4 69 be
       -0.8206264 -0.075248875 -0.19400084 -0.22822742
0001b0 ca e3 3d 3d 6c 98 b0 3d c8 36 71 be 5b 13 9d 3e
       0.046359815 0.08622822 -0.23556054 0.3067883
0001c0 b9 f9 e3 bd 28 65 1c 3d b6 06 93 3b ed 48 e1 3d
       -0.11131615 0.038182408 0.004486884 0.110002376
0001d0 0b 27 8d bd 82 92 d4 bb 47 05 72 bd 8c ef 95 bc
       -0.068922125 -0.0064871917 -0.059087064 -0.018302701
0001e0 3e b6 c8 be 3d 3a 0a be 73 dd 7a 3e 8e a2 4b bd
       -0.3920154 -0.13498779 0.24498539 -0.04971557
0001f0 1e 64 1f 3e 77 c4 61 bc b4 07 54 3d 40 d6 78 3d
       0.15565535 -0.013779751 0.05176516 0.0607512
000200 ef cc 62 3f c0 b0 eb 3e 27 ec 5b 3d f0 1a b0 bd
       0.88593954 0.46033287 0.05369201 -0.08598888
000210 2c e9 70 3b f2 2e 65 3b d6 93 76 3e df ee e3 bd
       0.0036760075 0.0034970609 0.24079832 -0.111295454
000220 69 a2 96 3d 90 c7 56 bd 59 b4 a5 bd dc 58 45 bd
       0.07355196 -0.05243641 -0.08091039 -0.048180446
000230 46 48 86 be 5e b0 8a 3a 25 cc 3a 3e 3a 0c 3d bd
       -0.26227015 0.0010581126 0.18241937 -0.04615424
000240 7e f0 a8 bb b0 12 39 bd 0d 55 86 be 07 10 56 3e
       -0.005155622 -0.045183837 -0.26236764 0.20904551
000250 1c 38 57 ba 07 98 83 bd ad d0 21 be 77 f7 bf 3a
       -0.000820996 -0.06425481 -0.1580226 0.0014645894
000260 b7 b7 92 bd 30 8b b0 3c 8c 0b 26 be 51 16 6f bc
       -0.07163947 0.021550745 -0.16215342 -0.014592723
000270 a1 3b 57 3d d7 17 45 be 50 92 04 be 5a f8 c1 3b
       0.0525471 -0.19247375 -0.12946439 0.0059194984
000280 a9 23 c6 be bf 52 a0 3e c2 76 0b bd 98 ed d3 be
       -0.38699082 0.3131313 -0.034048803 -0.41392207
000290 51 97 85 3e 90 d4 6e bc 66 df 15 3e be 65 da bc
       0.26092008 -0.014577046 0.14636001 -0.026659843
0002a0 90 b3 bb be a5 ef d4 3d da 70 00 bd ba 5d 25 3d
       -0.36660433 0.10397271 -0.031357624 0.040372588
0002b0 89 da 56 3d fe 3f 72 bf ed 27 52 3b 15 d8 b9 bd
       0.052454505 -0.94628894 0.0032067255 -0.090744175
0002c0 0e bb d3 bd f2 53 96 bd de fa e8 bb 20 4f 70 3f
       -0.10338412 -0.0734023 -0.007109984 0.93870735
0002d0 bf d0 73 bb 40 57 56 3e 74 d6 0b 3e 56 f3 95 3e
       -0.003720328 0.2093172 0.13656026 0.29287213
0002e0 35 c8 4f 3d d0 3c e7 3d 5e dd ee 3c 39 cd ae 3e
       0.05072804 0.11290896 0.02915829 0.34140947
0002f0 3a 3c 8d 3c 6d 2c aa 3d 40 af 2c 3d 46 ed 97 3c
       0.017240632 0.08309255 0.04215932 0.018545758
000300 e0 73 d4 bd 15 ba b1 bd d9 d5 ec 3d 6f 5a 94 bd
       -0.10373664 -0.086780705 0.11564226 -0.07243811
000310 32 31 bb bc 2a 94 60 bf 40 53 5b be ae f8 b7 3b
       -0.022850607 -0.8772608 -0.21418476 0.0056143617
000320 54 51 1e 3c 8c c8 f0 bd b2 cc 14 3d cc 9a 30 3e
       0.009662945 -0.11757001 0.036328025 0.1724655
000330 05 65 e7 bc f7 01 04 3e af 46 60 3d 54 28 83 3d
       -0.028246412 0.12891375 0.05475491 0.06404176
000340 41 04 34 3d be fa bf be 24 4d c1 bd 9b cf f4 3d
       0.04394937 -0.3749599 -0.094385415 0.1195366
000350 fd 8e 42 bc f8 03 97 3c 7f ba af 3d fe e1 a1 3d
       -0.011874911 0.01843451 0.08580493 0.07904433
000360 08 2c 29 3d 50 12 7b 3c 6a bc ec 3d 0b 21 73 be
       0.041301757 0.01532419 0.11559375 -0.23743074
000370 df 37 c9 3c c1 ea 8f bd 50 f5 d3 bd 56 8f b7 be
       0.024562774 -0.07027198 -0.10349524 -0.35851544
000380 ce 22 86 bd 04 46 29 bc e2 b4 1c 3e 23 21 04 bd
       -0.06549607 -0.010331634 0.15303376 -0.032258164
000390 4b 4f 0c be ab 75 7f bc 97 83 0e be 76 9b 09 3d
       -0.13702123 -0.015592019 -0.13917385 0.033595525
0003a0 d4 56 55 3f 0e 7e 3a 3c 19 ad 31 3e 68 17 63 3e
       0.83335614 0.011382593 0.17351188 0.22176898
0003b0 aa 4d 98 bd 40 fb 33 bd 0d 2b 24 3e ea 56 3b be
       -0.07436688 -0.043940783 0.16032048 -0.18294874
0003c0 23 1a 09 3e fb 20 27 bb 03 95 30 bd 96 a3 86 3c
       0.13388877 -0.0025501836 -0.04311086 0.016435426
0003d0 86 df 2a bc 75 77 b5 3d f8 11 08 3e 45 12 b2 bd
       -0.010429269 0.08860675 0.13288105 -0.08694891
0003e0 0d 3a aa 3e c2 79 30 3c d2 2b 7e be 68 f1 a2 3c
       0.33247414 0.010771217 -0.24821404 0.019890502
0003f0 d2 4b 62 bd 09 93 b8 bb 2e 1f 9c bc fd 93 a5 bd
       -0.05524809 -0.0056327623 -0.019057836 -0.08084867

fc3.bias f4 [2]
000000 73 e3 49 3d 7b b5 c8 bc
       0.049289178 -0.0245006
