checkpoints/value_final.pth (torch, 72133 bytes, 5 tensors)

fc1.weight f4 [128, 4]
-0.097680725 -0.86731756 0.059579372 -0.4889805 -0.17967233 -0.49513862 0.42009684 0.33904427
0.04131178 0.39208016 -0.26901862 -0.63034344 0.41446522 0.22127339 -0.041827373 0.43890262
0.36995617 -0.10594529 -0.24264592 -0.15924525 0.19714126 -0.14957546 -0.28315338 -0.5096228
0.28847653 -0.2449593 0.17981009 -0.21542406 0.06299533 -0.30130243 -0.5049724 -0.36263144
0.35038146 0.19224761 0.528892 0.48363876 -0.392448 -0.732644 0.1270949 0.054764047
0.43212125 0.01331478 0.39679313 -0.40174788 0.30467486 0.15996356 -0.022408769 0.14760114
-0.047092102 0.60370594 0.5397852 0.93063295 0.13201052 -0.3979119 0.5987692 0.68223906
-0.22190784 0.80964464 -0.24306051 0.13554019 -0.2258728 0.03623482 0.2842926 0.14557199
-0.012274806 0.062211525 0.25385895 1.0714579 0.51784307 -0.74359083 0.17785378 0.4976433
0.21417755 0.6761649 0.23253901 1.0090051 -0.5355013 -0.5833481 -0.009385854 -0.31565443
0.182718 -0.45272043 0.0615486 0.07865487 -0.2625998 -0.48503596 0.18672365 -0.5569341
-0.15234372 -0.3063034 0.06736103 0.528711 0.4969164 0.89249843 0.06028345 0.52314323
0.35769802 -0.03870806 0.28575325 -0.36166123 0.34313232 0.5238452 -0.14341941 -0.16298059
-0.22296113 -0.53109336 -0.089934215 -0.41619977 -0.16874428 -0.34276596 0.13596787 0.0927242
-0.055018164 -0.09145449 0.30031887 -0.67450583 -0.28431034 -0.5413341 -0.39895514 -0.2257881
-0.3373028 -0.95813894 0.088986486 -0.18025771 0.09044964 -0.500854 0.021963103 0.12362679
-0.18317446 -1.0191611 0.01965423 0.000614273 -0.07166943 0.24447009 -0.6043948 -0.45644483
-0.12218433 -0.0936543 0.31816605 1.1689379 0.034716096 -0.033957 -0.04039618 1.1702784
-0.08389372 0.33235592 -0.7189687 -0.9976657 0.00094585784 -0.36410522 0.18467884 -0.33550864
-0.065407164 -0.035391025 -0.120536804 -1.1215034 -0.19457059 0.6181342 -0.012935871 0.133279
0.28255132 -0.01901994 -0.18748708 0.2634256 -0.073295906 -0.59772784 0.30138278 -0.1180618
0.26598942 -0.5033548 0.27471033 -0.40768284 0.117966525 0.4065242 0.737673 1.067434
-0.15887325 0.14344808 -0.28467992 0.0852277 -0.39949453 -0.75121886 -0.045119613 -0.595401
0.00580542 -0.5550713 0.16781443 0.002490533 -0.4900169 -0.016401598 0.047154825 -0.4584733
-0.27001354 0.1337374 -0.19130363 -0.34622118 0.2399219 0.6978175 0.28568783 0.16636978
0.5319893 -0.18232884 0.09413411 0.5155735 -0.2536311 0.5141052 -0.066940546 0.2816279
-0.3561598 -0.31460857 0.22585362 -0.58315897 0.12540711 -0.5399813 0.06956329 0.009949672
0.26014754 0.06083529 0.49564472 0.4950345 -0.61721385 -0.4872077 0.020845642 -1.040452
0.2252382 -0.24421285 0.057119735 0.52959245 0.15980431 -0.8028252 0.15093584 0.070107415
-0.0019517947 -0.23882808 0.61691415 1.2273641 -0.24231666 0.6438242 -0.3475205 -1.4291427
0.10933474 -0.276151 0.37015116 -0.28368282 -0.37125015 0.28556892 -0.63406855 -0.7882217
0.020546608 0.46452004 0.582276 0.93890935 -0.19933604 -0.8151358 0.26387984 -0.40837827
00000000: d50c c8bd 8608 5ebf 8009 743d a75b fabe
00000010: 06fc 37be cf82 fdbe ef16 d73e 3697 ad3e
00000020: 8b36 293d bbbe c83e cfbc 89be 305e 21bf
00000030: c934 d43e 7e95 623e 2e53 2bbd d8b7 e03e
00000040: e56a bd3e d8f9 d8bd 2c78 78be 3011 23be
00000050: 66df 493e 4f2a 19be 7bf9 90be a476 02bf
00000060: 32b3 933e 9cd6 7abe 2320 383e 2098 5cbe
00000070: b203 813d 5044 9abe df45 01bf d4aa b9be
00000080: 3365 b33e 8fdc 443e 7765 073f 809f f73e
00000090: f2ee c8be 8f8e 3bbf 2a25 023e 4450 603d
000000a0: ff3e dd3e 3c26 5a3c 7828 cb3e e6b1 cdbe
000000b0: 58fe 9b3e 7dcd 233e 9892 b7bc c124 173e
000000c0: a6e3 40bd 798c 1a3f 5d2f 0a3f f63d 6e3f
000000d0: c42d 073e 1cbb cbbe f048 193f 38a7 2e3f
000000e0: cf3b 63be df44 4f3f dbe4 78be 0ccb 0a3e
000000f0: 334b 67be f66a 143d cd8e 913e d310 153e
00000100: 451c 49bc 83d1 7e3d cdf9 813e 8825 893f
00000110: 5d91 043f f85b 3ebf 4d1f 363e 1acb fe3e
00000120: 5c51 5b3e 2519 2d3f b51e 6e3e 1427 813f
00000130: 9d16 09bf 4d56 15bf 20c7 19bc 759d a1be
00000140: 6d1a 3b3e f9ca e7be 631a 7c3d ce15 a13d
00000150: 7b73 86be a256 f8be 7c34 3f3e 3c93 0ebf
00000160: feff 1bbe cdd3 9cbe 94f4 893d 9b59 073f
00000170: d46b fe3e c77a 643f c7eb 763d b7ec 053f
00000180: 3224 b73e 588c 1ebd 404e 923e a92b b9be
00000190: 0aaf af3e b81a 063f 8adc 12be 62e4 26be
000001a0: ec4f 64be bcf5 07bf 6e2f b8bd 2318 d5be
000001b0: 4dcb 2cbe 057f afbe 293b 0b3e 2fe6 bd3d
000001c0: ba5a 61bd 7e4c bbbd 65c3 993e 6aac 2cbf
000001d0: 2091 91be df94 0abf d943 ccbe ff34 67be
000001e0: f4b2 acbe 9848 75bf 8c3e b63d 7a95 38be
000001f0: a93d b93d f837 00bf f7eb b33c 0b30 fd3d
00000200: 1692 3bbe df73 82bf e801 a13c 2a07 213a
00000210: 6cc7 92bd 5e56 7a3e 9eb9 1abf 23b3 e9be
00000220: c73b fabd d3cd bfbd a9e6 a23e c29f 953f
00000230: 7732 0e3d 7f16 0bbd 7776 25bd afcb 953f
00000240: 78d0 abbd 8e2a aa3e 550e 38bf 0567 7fbf
00000250: 72f3 773a 006c babe 731c 3d3e cac7 abbe
00000260: 31f4 85bd 2ef6 10bd 00dc f6bd 6c8d 8fbf
00000270: 833d 47be 0b3e 1e3f faf0 53bc 4a7a 083e
00000280: 91aa 903e b5cf 9bbc 9dfc 3fbe b8df 863e
00000290: 2a1c 96bd b104 19bf d84e 9a3e 63ca f1bd
000002a0: c42f 883e dcdb 00bf d5a6 8c3e cebb d0be
000002b0: 6f98 f13d f123 d03e 23d8 3c3f ada1 883f
000002c0: abaf 22be 0ee4 123e 91c1 91be dc8b ae3d
000002d0: 8c8a ccbe e14f 40bf 58cf 38bd 336c 18bf
000002e0: 653b be3b 2719 0ebf 8cd7 2b3e 3638 233b
000002f0: 7fe3 fabe a55c 86bc 6b25 413d 03bd eabe
00000300: 373f 8abe 75f2 083e 19e5 43be e743 b1be
00000310: 16ae 753e 2ba4 323f ad45 923e d75c 2a3e
00000320: 7330 083f 69b4 3abe 62c9 c03d a0fc 033f
00000330: efdb 81be 669c 033f 2018 89bd 8831 903e
00000340: 945a b6be 6014 a1be 2c46 673e e849 15bf
00000350: b96a 003e 373c 0abf 3377 8e3d f303 233c
00000360: 0f32 853e 6d2e 793d 25c5 fd3e 2975 fd3e
00000370: ba01 1ebf 4a73 f9be 7bc4 aa3c 882d 85bf
00000380: d8a4 663e ef12 7abe 62f6 693d 5f93 073f
00000390: bea3 233e f485 4dbf ed8e 1a3e 7a94 8f3d
000003a0: 5dd3 ffba 598f 74be 16ee 1d3f 441a 9d3f
000003b0: dc21 78be aad1 243f 35ee b1be 26ee b6bf
000003c0: e4ea df3d aa63 8dbe 7484 bd3e e03e 91be
000003d0: 8014 bebe 1736 923e 5152 22bf e6c8 49bf
000003e0: 5c51 a83c 92d5 ed3e 0a10 153f 5d5c 703f
000003f0: bf1e 4cbe bdac 50bf 421b 873e f516 d1be

fc1.bias f4 [128]
-0.1900521 -0.0028187581 -0.16465232 -0.1842001 0.021876507 -0.5173131 -0.03970725 0.09830097
0.2575496 -0.20681103 -0.12108016 0.1862145 0.39666066 -0.066937335 0.053451285 0.064345494
0.1475965 0.060530156 -0.08815661 0.54228914 -0.18680033 0.053413637 -0.4076607 -0.3267962
-0.009945023 0.17252757 0.015805682 0.0055396263 0.5362076 -0.18011957 0.081210755 -0.13445213
-0.35286966 -0.095044374 0.2320057 -0.48324654 -0.2096212 -0.115756385 0.4413784 -0.058148008
0.12338866 0.38168395 -0.25107077 -0.06629095 0.4050946 0.46486443 -0.24770452 -0.036117785
0.44828498 0.25745788 -0.55580586 -0.11124984 0.6556831 -0.32299736 0.074885786 0.52216625
-0.6400888 -0.093557276 -0.14854714 -0.1003937 0.03975848 -0.16602847 0.034035992 0.05025985
0.35888112 0.09076206 0.010045774 -0.054540787 0.03480222 0.21238299 0.34091777 0.034346957
0.41469702 -0.24454194 0.34538507 -0.27030018 0.6309594 0.13836199 -0.3678076 0.3079908
0.09133515 0.15412423 0.40034583 -0.5313673 0.1400862 -0.24840294 0.33004332 -0.031531915
0.45662978 -0.009996541 -0.037920676 -0.36317587 0.093765594 0.13182108 -0.18437816 0.28212902
0.290382 -0.56434053 0.29785544 -0.28085044 -0.34553605 0.4465111 -0.070586696 -0.313063
-0.31543133 0.39649254 -0.4600549 0.0031127823 -0.12041474 -0.26210377 0.09343106 0.20988752
0.14318661 -0.23632939 -0.11975315 0.015322994 -0.22007276 -0.13924019 -0.6162833 -0.042670727
0.028920118 -0.59001607 0.5476572 -0.506398 -0.52441883 -0.64498997 0.15435468 -0.112462826
00000000: 059d 42be eaba 38bb 9e9a 28be f39e 3cbe
00000010: 5c36 b33c a26e 04bf 12a4 22bd 0552 c93d
00000020: 8bdd 833e 45c6 53be e0f8 f7bd 04af 3e3e
00000030: 1b17 cb3e 7116 89bd bcef 5a3d 92c7 833d
00000040: 8923 173e 78ee 773d 748b b4bd 76d3 0a3f
00000050: 9648 3fbe 42c8 5a3d e7b8 d0be d551 a7be
00000060: 73f0 22bc 11ab 303e eb7a 813c c185 b53b
00000070: e744 093f 4471 38be d351 a63d d2ad 09be
00000080: 55ab b4be a0a6 c2bd e792 6d3e 176c f7be
00000090: f1a6 56be af11 edbd 5afc e13e 9b2c 6ebd
000000a0: 32b3 fc3d 146c c33e 598c 80be 8dc3 87bd
000000b0: 8f68 cf3e b602 ee3e 41a6 7dbe 3ef0 13bd
000000c0: 9c85 e53e 85d1 833e 4b49 0ebf f5d6 e3bd
000000d0: d9da 273f e95f a5be b85d 993d b0ac 053f
000000e0: dcdc 23bf f59a bfbd be1c 18be 369b cdbd
000000f0: cad9 223d 5e03 2abe 5369 0b3d 46dd 4d3d
00000100: 44bf b73e 75e1 b93d 0897 243c 2966 5fbd
00000110: c68c 0e3d ed7a 593e c68c ae3e 65af 0c3d
00000120: 2b53 d43e 3469 7abe 50d6 b03e c964 8abe
00000130: 8e86 213f c4ae 0d3e 4751 bcbe f8b0 9d3e
00000140: ec0d bb3d bed2 1d3e 21fa cc3e b007 08bf
00000150: c272 0f3e 575d 7ebe 70fb a83e 9c27 01bd
00000160: 61cb e93e 88c8 23bc b652 1bbd 30f2 b9be
00000170: 2d08 c03d 1bfc 063e a1cd 3cbe 3773 903e
00000180: f3ac 943e 9f78 10bf 8280 983e a1cb 8fbe
00000190: 1aea b0be 1a9d e43e c28f 90bd cb49 a0be
000001a0: 3780 a1be 1201 cb3e 518c ebbe d2ff 4b3b
000001b0: 019c f6bd 7732 86be c958 bf3d c1ec 563e
000001c0: 839f 123e 5500 72be 2441 f5bd 4c0d 7b3c
000001d0: c15a 61be fb94 0ebe bec4 1dbf 80c7 2ebd
000001e0: e2e9 ec3c 4b0b 17bf 4333 0c3f 4da3 01bf
000001f0: 5040 06bf 101e 25bf 270f 1e3e e952 e6bd

fc2.weight f4 [128, 128]
0.09115931 0.40024868 0.019666541 -0.041397016 -0.38124728 0.09626655 0.36133885 0.10744339
-0.5314062 0.72398007 0.19086695 -0.26765963 -0.21459796 0.07169909 -0.28688663 0.094894245
-0.119565554 0.07004423 -0.26095507 0.07856903 0.19252133 0.4944031 0.10601719 0.021851674
0.27457052 -0.78173304 0.3932185 0.62271917 0.025208052 0.46658763 0.029279478 0.17565218
0.059495557 0.36792114 -0.21119389 0.06276432 0.27403563 0.28067315 0.031298537 -0.6277584
-0.39118373 -0.03867443 0.18145296 -0.3541955 -0.060712658 0.031172782 0.07855388 0.041479465
0.09985128 -0.23628834 0.005886962 -0.31444228 0.04960288 -0.06518161 -0.4554766 -0.032912996
-0.007034973 0.4880368 -0.11950559 0.20868501 0.26140663 0.4765039 -0.43491372 0.44754437
-0.3497618 -0.35971597 0.1276603 0.19563259 0.1582795 -0.22500238 -0.21230783 0.10588309
0.004162474 0.598028 -0.10018906 0.39992595 0.056751765 0.015193038 -0.071941294 -0.29295638
-0.05013565 0.0027095845 -0.26733196 -0.10312158 -0.42064953 0.4195811 -0.13007827 -0.49820447
-0.11345476 -0.29468885 1.1018537 0.11950965 -0.09020767 -0.23236527 0.36664748 -0.24164452
-0.29309407 -0.00023902456 0.1306485 0.15882118 0.012509946 -0.05335391 -0.1386623 0.1942746
0.088634014 -0.039382182 -0.083424814 -0.17406647 0.4437615 0.40456367 0.40511903 -0.53706855
0.22031477 0.1272909 0.01612003 0.5206877 0.50512236 -0.14916131 -0.051897846 0.3559003
0.05340181 0.02644188 0.1284018 -0.031862363 -0.08839609 -0.091414616 -0.09557347 0.5316771
-0.025428578 0.2860018 0.09190223 0.023958946 -0.4912933 -0.05068185 0.28581887 0.16351056
-0.5331141 0.7158933 0.14584957 -0.30905855 -0.204716 0.024436245 -0.4182 0.1600342
-0.15660667 0.15064523 -0.14230563 0.07545888 0.19483906 0.4456575 0.038121965 -0.048367552
0.20406967 -0.68287337 0.33271298 0.55476713 -0.016889744 0.42197552 0.15171981 0.24351501
0.06059797 0.26780754 -0.29492593 0.032163434 0.35634 0.35079858 -0.007771455 -0.6511776
-0.33131287 0.059420288 0.1816997 -0.39708957 -0.07241597 0.054273006 0.17466648 0.03887605
0.027093038 -0.24479352 0.01206255 -0.39382607 0.0753434 0.0044504893 -0.31182328 0.022808626
-0.058249213 0.50985265 -0.062358893 0.158448 0.30862036 0.431399 -0.5003514 0.39293882
-0.4013687 -0.32171124 -0.0062350454 0.2766657 0.11247374 -0.3078109 -0.1666283 0.073833704
0.024618333 0.65514994 -0.019571265 0.40430585 0.08131444 0.023265027 0.05735567 -0.23044254
0.03319628 -0.07168087 -0.24066468 -0.046035744 -0.3780031 0.43429947 -0.13345237 -0.53382725
-0.18069541 -0.23093063 1.0493836 0.096550696 -0.04265578 -0.15698338 0.3504835 -0.3262102
-0.19032921 0.04385656 0.100877814 0.2008455 0.11247927 0.050014876 -0.15007345 0.18162069
0.12737398 0.0036258544 -0.02240701 -0.32852027 0.4747635 0.49041602 0.3813062 -0.39527574
0.1044207 0.123771116 0.06268528 0.48994705 0.48014665 -0.036258206 0.010799767 0.39995757
0.007022898 -0.119704336 -0.031078422 -0.06484832 -0.06727086 0.04241743 -0.018550701 0.60280514
00000000: bbb1 ba3d 65ed cc3e ba1b a13c eb8f 29bd
00000010: d832 c3be 6627 c53d 6801 b93e 480b dc3d
00000020: 3d0a 08bf c256 393f a072 433e af0a 89be
00000030: 91bf 5bbe f9d6 923d cee2 92be ea57 c23d
00000040: c9de f4bd 5973 8f3d e79b 85be cde8 a03d
00000050: 5024 453e 6722 fd3e 8a1f d93d 4802 b33c
00000060: 8294 8c3e a81f 48bf ef53 c93e 866a 1f3f
00000070: 1e81 ce3c 93e4 ee3e 84db ef3c 2ade 333e
00000080: 9db1 733d 2960 bc3e 3643 58be 948a 803d
00000090: 664e 8c3e 64b4 8f3e e532 003d c6b4 20bf
000000a0: 3c49 c8be 1469 1ebd cece 393e 1d59 b5be
000000b0: d6ad 78bd 105e ff3c dbe0 a03d 5fe6 293d
000000c0: d47e cc3d 92f5 71be 6be7 c03b 94fe a0be
000000d0: 642c 4b3d f07d 85bd 3b34 e9be c7cf 06bd
000000e0: a185 e6bb f6df f93e 59bf f4bd 86b1 553e
000000f0: 17d7 853e 52f8 f33e 03ad debe 8924 e53e
00000100: fb13 b3be b12c b8be 62b9 023e e953 483e
00000110: 0514 223e 0667 66be 3967 59be 3cd9 d83d
00000120: 5d65 883b 5d18 193f ec2f cdbd 18c3 cc3e
00000130: 8a74 683d 38ec 783c f555 93bd 61fe 95be
00000140: 0a5b 4dbd 4993 313b bcdf 88be 6831 d3bd
00000150: 605f d7be 55d3 d63e 3d33 05be a814 ffbe
00000160: f85a e8bd 75e1 96be 8b09 8d3f 7ac1 f43d
00000170: cdbe b8bd 29f1 6dbe 38b9 bb3e a971 77be
00000180: 6d10 96be aba2 7ab9 b8c8 053e 05a2 223e
00000190: 84f6 4c3c a189 5abd 7dfd 0dbe ecef 463e
000001a0: c085 b53d 364f 21bd a1da aabd 7b3e 32be
000001b0: b534 e33e f822 cf3e c36b cf3e 537d 09bf
000001c0: 329a 613e 8c58 023e 270e 843c ca4b 053f
000001d0: b34f 013f bebd 18be d692 54bd 9038 b63e
000001e0: dbbb 5a3d a49c d83c c37b 033e 1c82 02bd
000001f0: 0209 b5bd 9637 bbbd 06bc c3bd fe1b 083f
00000200: 984f d0bc d46e 923e 3d37 bc3d 8d45 c43c
00000210: cc8a fbbe c697 4fbd da56 923e 506f 273e
00000220: 2a7a 08bf c944 373f 9759 153e ec3c 9ebe
00000230: 12a1 51be 852e c83c 4f1e d6be 01e0 233e
00000240: 805d 20be be42 1a3e 91b8 11be 2f8a 9a3d
00000250: e483 473e 382d e43e c725 1c3d 0e1d 46bd
00000260: a4f7 503e cad0 2ebf 5b59 aa3e 3805 0e3f
00000270: 5c5c 8abc 2d0d d83e 705c 1b3e 005c 793e
00000280: 9435 783d 121e 893e 8800 97be cebd 033d
00000290: 3272 b63e df9b b33e b1a7 febb 93b3 26bf
000002a0: d7a1 a9be b062 733d 7c0f 3a3e 534f cbbe
000002b0: d34e 94bd 5f4d 5e3d c5db 323e 7e3c 1f3d
000002c0: 38f2 dd3c 27ab 7abe 00a2 453c 92a3 c9be
000002d0: a44d 9a3d 69d5 913b 4da7 9fbe 28d9 ba3c
000002e0: ba96 6ebd b485 023f 0a6c 7fbd 3140 223e
000002f0: 7d03 9e3e 54e0 dc3e 0817 00bf 472f c93e
00000300: 3380 cdbe 56b7 a4be 5a4f ccbb 20a7 8d3e
00000310: a258 e63d 6499 9dbe 9ca0 2abe 2036 973d
00000320: 63ac c93c e8b7 273f eb53 a0bc 2d01 cf3e
00000330: 2f88 a63d 4c96 be3c c7ed 6a3d 21f9 6bbe
00000340: d3f8 073d 6ccd 92bd cd70 76be fa8f 3cbd
00000350: 9f89 c1be 805c de3e bda7 08be e7a8 08bf
00000360: 3808 39be 1479 6cbe 3452 863f 5fbc c53d
00000370: d4b7 2ebd 40c0 20be 9372 b33e 0605 a7be
00000380: a9e5 42be f0a2 333d 0799 ce3d 71aa 4d3e
00000390: 885b e63d 66dc 4c3d dbac 19be c6fa 393e
000003a0: 536e 023e be9f 6d3b e88e b7bc cf33 a8be
000003b0: 3414 f33e cf17 fb3e 913a c33e 9561 cabe
000003c0: 85da d53d b67b fd3d 2461 803d 57da fa3e
000003d0: c8d5 f53e 7c83 14bd 82f1 303c 3dc7 cc3e
000003e0: 5720 e63b 8c27 f5bd 2d98 febc 32cf 84bd
000003f0: 4ec5 89bd e6bd 2d3d a4f7 97bc 7051 1a3f

fc2.bias f4 [128]
0.065585546 0.056304302 0.14032972 -0.19277127 -0.011866857 -0.06072101 0.0049575847 0.15410952
-0.018979093 -0.21477306 -0.033578254 -0.020618252 -0.19910869 0.006180618 -0.029664101 -0.034584828
0.06977512 0.07715665 0.0041541336 -0.055931833 0.040592413 0.021302195 -0.025928969 -0.036934424
-0.055534787 -0.027349686 0.014606324 -0.02455383 -0.062876195 0.055164766 -0.0035945252 0.050871707
0.14788209 0.04963155 0.020464292 -0.017761763 -0.032692753 -0.020211788 0.036457554 0.03863245
0.027163843 0.00015201129 0.008471489 -0.06546456 -0.0010913459 0.0045379475 0.0353295 0.11847028
0.079185225 0.071872294 0.010277957 0.018152567 0.04908579 -0.055076126 -0.04423249 -0.09722852
-0.13911645 0.014902836 0.1194111 -0.034432106 -0.054390237 -0.029150335 0.09871553 0.037703943
-0.0515924 0.061215427 -0.01889763 0.07481777 -0.13240667 -0.08376122 0.0697628 -0.08432612
-0.044494953 0.07225608 0.0011790425 0.008472563 -0.050068762 0.14329906 -0.0959254 -0.1987478
-0.045882154 0.06722107 0.11524907 0.037841503 0.03528618 -0.024124257 0.02488795 0.052133687
-0.004677961 -0.03416106 -0.06259381 0.032705203 0.037414547 -0.011089801 0.10772258 0.016864942
0.022677299 0.019610686 0.06104909 -0.037302963 -0.05502345 0.11125109 0.062143754 0.04904964
0.078148186 0.022351107 -0.020194722 -0.036225725 -0.030966097 0.043642513 -0.13774124 -0.0018007377
0.104053475 0.07095241 -0.021563858 -0.041041996 0.042290624 0.03329623 0.022267936 0.029971698
-0.010582965 -0.007870447 0.0045405375 -0.06453826 -0.030997772 -0.038514953 -0.10457297 0.057527013
00000000: b751 863d 579f 663d 98b2 0f3e d565 45be
00000010: 356d 42bc 98b6 78bd 3c73 a23b e3ce 1d3e
00000020: 0b7a 9bbc 78ed 5bbe 5a89 09bd 9ce7 a8bc
00000030: 26e3 4bbe c886 ca3b 2102 f3bc d2a8 0dbd
00000040: 42e6 8e3d 4e04 9e3d 661f 883b c718 65bd
00000050: 3b44 263d f181 ae3c fd68 d4bc 8d48 17bd
00000060: 7278 63bd 730c e0bc 5d4f 6f3c 1d25 c9bc
00000070: 3cc5 80bd 73f4 613d 2092 6bbb da5e 503d
00000080: 676e 173e 744a 4b3d bba4 a73c 1e81 91bc
00000090: d6e8 05bd 3193 a5bc 8454 153d 0f3d 1e3d
000000a0: b586 de3c 3865 1f39 00cc 0a3c 4912 86bd
000000b0: 7e0b 8fba 10b3 943b aab5 103d 8ca0 f23d
000000c0: dd2b a23d c831 933d e064 283c b1b4 943c
000000d0: 2e0e 493d 8197 61bd 212d 35bd bf1f c7bd
000000e0: 8b74 0ebe 062b 743c cf8d f43d ae08 0dbd
000000f0: 4cc8 5ebd afcc eebc 5e2b ca3d 736f 1a3d
00000100: 8d52 53bd 07bd 7a3d 34cf 9abc 0f3a 993d
00000110: 9d95 07be 018b abbd cddf 8e3d 2cb3 acbd
00000120: 5740 36bd fffa 933d 1a8a 9a3a 81d0 0a3c
00000130: e714 4dbd fdbc 123e 8974 c4bd 8b84 4bbe
00000140: edee 3bbd 33ab 893d b407 ec3d b1ff 1a3d
00000150: 3e88 103d 3ca0 c5bc d0e1 cb3c 228a 553d
00000160: 9549 99bb 78ec 0bbd 2f31 80bd e4f5 053d
00000170: ff3f 193d ffb1 35bc a89d dc3d 5928 8a3c
00000180: bec5 b93c 97a6 a03c 9c0e 7a3d feca 18bd
00000190: 4560 61bd 9dd7 e33d 738a 7e3d 46e8 483d
000001a0: 280c a03d ab19 b73c 676f a5bc 6d61 14bd
000001b0: 9dac fdbc 7ec2 323d 0a0c 0dbe bb06 ecba
000001c0: fd19 d53d 7f4f 913d b0a6 b0bc a71b 28bd
000001d0: ef38 2d3d a161 083d 3f6b b63c 3587 f53c
000001e0: 2c64 2dbc 0cf3 00bc cac8 943b a32c 84bd
000001f0: 0aef fdbc dbc1 1dbd 5a2a d6bd 72a1 6b3d

fc3.weight f4 [1, 128]
-0.6505745 -0.66378874 -0.74230367 -1.3004645 0.7732798 -0.6463106 0.67760205 -0.72949976
0.74090314 -1.060908 -0.6438373 -0.73677677 -1.2617546 -0.7257679 0.63500077 0.6991067
0.76102626 -0.70827013 -0.6696908 0.7575723 0.7546227 -0.78934497 0.669292 0.68461347
-0.6293549 0.713825 0.705128 0.7130217 -0.71045494 -0.66432637 -0.81474346 0.70623016
-0.78344333 0.6762737 -0.63593084 0.7299556 0.7240356 -0.7572366 0.6518422 0.65580827
-0.6853418 -0.6379325 -0.60754794 -0.6293479 0.65763396 -0.77142566 -0.7902333 -0.72868663
-0.7002602 0.76143116 -0.6201645 -0.68533194 0.84753025 0.6381696 -0.69984645 0.7185473
0.72744024 0.78898627 -0.71808916 0.7798901 -0.59736294 -0.75898325 -0.7987584 0.77671975
0.8004273 -0.7202348 0.698429 -0.721715 0.73172235 -0.6408176 -0.66385657 -0.7338325
0.7834483 0.77206415 -0.66102886 0.61547047 -0.58870304 1.2219089 0.6876099 -1.2233027
0.6792079 -0.7118962 -0.7298437 -0.6778722 -0.6401524 0.7547372 -0.59882593 -0.6838321
-0.71317697 0.8046711 0.7548649 -0.63037026 1.2187192 0.7341749 -0.7533271 0.71854687
-0.718233 -0.67687416 -0.73867077 -0.59505475 0.7033173 -0.67556196 0.6480407 0.77392495
0.6506125 0.72442466 -0.68534744 0.7624999 -0.6085166 0.6608818 0.71410906 -0.63293326
1.0930203 -0.70125836 0.8079738 0.85960007 0.70080596 0.6918528 -0.73488873 0.6893798
-0.80894774 0.7956581 -0.7629991 0.8137134 0.81062245 -0.6907192 -1.0609359 -0.7907329
00000000: 0d8c 26bf 0fee 29bf 9d07 3ebf 9f75 a6bf
00000010: aaf5 453f 9d74 25bf 5477 2d3f 7fc0 3abf
00000020: d4ab 3d3f d5cb 87bf 85d2 24bf 679d 3cbf
00000030: 2d81 a1bf edcb 39bf 698f 223f a8f8 323f
00000040: 9ed2 423f 3151 35bf db70 2bbf 42f0 413f
00000050: f42e 413f 8312 4abf b856 2b3f d442 2f3f
00000060: 671d 21bf 3cbd 363f 4583 343f 9788 363f
00000070: 60e0 35bf 4b11 2abf 0793 50bf 80cb 343f
00000080: be8f 48bf 4620 2d3f 5dcc 22bf 5fde 3a3f
00000090: 665a 393f 42da 41bf 21df 263f 0de3 273f
000000a0: 8f72 2fbf 8b4f 23bf 4388 1bbf f21c 21bf
000000b0: b35a 283f 277c 45bf bb4c 4abf 358b 3abf
000000c0: 4144 33bf 27ed 423f 1ac3 1ebf ea71 2fbf
000000d0: bef7 583f 155f 233f 2329 33bf b7f2 373f
000000e0: 8639 3a3f 01fb 493f b1d4 37bf e1a6 473f
000000f0: c7ec 18bf ba4c 42bf 6e7b 4cbf 1bd7 463f
00000100: cee8 4c3f 4f61 38bf 3ecc 323f 50c2 38bf
00000110: 2852 3b3f 9f0c 24bf 81f2 29bf 72dc 3bbf
00000120: 1190 483f ffa5 453f 3039 29bf 798f 1d3f
00000130: 3eb5 16bf 8367 9c3f 3407 303f 2f95 9cbf
00000140: 92e0 2d3f d43e 36bf 09d7 3abf 0889 2dbf
00000150: 07e1 23bf 7536 413f a84c 19bf 9f0f 2fbf
00000160: c492 36bf edfe 4d3f d33e 413f f25f 21bf
00000170: fefe 9b3f e3f2 3b3f 0bda 40bf b0f2 373f
00000180: 1ede 37bf a047 2dbf 8719 3dbf 8255 18bf
00000190: 9a0c 343f a1f1 2cbf ffe5 253f f21f 463f
000001a0: 8a8e 263f e573 393f ee72 2fbf 3233 433f
000001b0: bec7 1bbf 8d2f 293f dacf 363f ea07 22bf
000001c0: 17e8 8b3f ab85 33bf 5fd7 4e3f c00e 5c3f
000001d0: 0568 333f 441d 313f ab21 3cbf 327b 303f
000001e0: 3317 4fbf 40b0 4b3f e953 43bf 854f 503f
000001f0: f484 4f3f f9d2 30bf bfcc 87bf 796d 4abf
