checkpoints/value_final.pth (torch, 72261 bytes, 5 tensors)

net.0.weight f4 [128, 4]
0.26957566 -0.5417511 0.28466076 0.25959983 0.11355211 0.06800227 0.33822697 -0.2793606
-0.034269866 0.5702626 0.5278148 0.91104627 0.31487164 -0.8881699 0.3061064 0.32411486
-0.50834894 -0.24355887 -0.68274826 -0.872955 -0.39687455 -0.7960642 0.006657059 0.12833446
-0.5151169 -0.69716 -0.20524505 -0.13474548 -0.23315796 -0.22195452 -0.32930017 -0.18826835
0.15214764 -0.30706945 0.23506662 0.0735637 -0.11306776 -0.64771324 0.0062121083 -0.17070673
0.11861974 -0.22056502 -0.09575564 0.049828112 0.2473305 0.33478516 0.63632405 1.051921
-0.1603852 -0.13477133 0.0008601205 -0.20029348 -0.15180418 -0.9495751 0.3320676 0.8037147
-0.18577051 -0.4412549 -0.27563375 -0.3032013 -0.010282626 -0.66975886 -0.51864654 -0.77084106
0.13061373 -0.27434856 -0.18850109 -0.67150205 0.102831475 -0.47814885 0.6292938 1.0008767
-0.14383793 0.4204656 -0.1359207 0.23793578 -0.34515876 -0.6388401 -0.38925138 -0.4406606
0.26968548 1.2342637 0.03146809 0.4768319 0.22553161 -0.20976794 0.0051165745 -0.39199138
-0.33623368 0.41029024 -0.511811 -0.84372115 -0.35085887 -0.55663365 -0.011190543 -0.3950682
0.26797658 -0.3150827 0.16851357 0.3185795 0.5232108 0.37890095 0.79037344 0.39518705
0.19888961 -0.19114786 0.11545694 0.32255918 -0.28561866 -0.44365764 0.10156088 0.023465645
-0.4494414 -0.68705875 -0.34113088 -0.89355934 -0.11449462 0.33982873 0.5130245 -0.38159895
0.2598902 -0.09952585 0.3065395 0.10010241 0.042761892 -0.27472797 0.43727168 0.06638412
-0.1343872 0.2980433 -0.22317827 0.012401104 0.2525415 0.6058511 0.5915797 0.45318615
0.05463783 0.56309044 0.4121145 0.5573157 -0.10520357 -0.31043953 0.1160177 0.0780161
0.086395204 0.022090811 -0.22167985 -0.61309135 -0.20042904 0.49082515 -0.1950065 0.22489996
0.077440515 -0.5297981 0.31197816 0.36437073 -0.3397529 -0.641523 -0.4591203 -0.32434604
-0.37263128 -0.255982 -0.14421074 -0.2545279 -0.33158755 -0.56399316 -0.38680393 0.00803139
-0.19417487 -0.16221265 0.35474315 0.4114712 -0.042251594 0.17066595 -0.22458203 0.44670212
-0.54582566 0.07156884 -0.55836934 -0.13694817 -0.3381895 0.15226038 -0.31909198 -0.4938949
0.18804377 -0.4605754 0.21517253 0.06895572 0.21522638 -0.43704864 -0.3063578 0.56345505
0.39601466 0.41631603 0.49340713 0.35481414 0.2845287 -0.38206682 0.42160922 -0.21660608
-0.17855932 -0.6415925 -0.32508722 -0.8287855 0.19284827 0.113353364 0.551972 0.73014945
0.14884749 0.57867277 -0.14569318 0.2885097 0.24397708 0.33517024 -0.28554213 0.19487862
-0.015741765 -0.33372933 -0.20481545 -0.23574036 -0.3748351 -0.14767727 -0.40263408 -0.19065806
-0.08521538 -0.7171398 -0.34661344 0.319236 -0.39251432 0.0843624 0.41974148 -0.29603836
-0.2240776 -0.7572479 -0.1924666 -0.73956394 0.23887822 -0.54588795 -0.323457 -0.42845657
-0.22146583 -0.29375213 -0.25007802 -0.7838314 0.25103503 -0.321294 -0.05192882 -0.121534705
-0.24752784 -0.71680564 0.17209539 0.54937434 -0.09873299 -0.33797613 -0.07193045 0.0845841
00000000: d205 8a3e 33b0 0abf 0ebf 913e 45ea 843e
00000010: 028e e83d c644 8b3d 162c ad3e 5a08 8fbe
00000020: 8f5e 0cbd bbfc 113f df1e 073f 543a 693f
00000030: db36 a13e 1a5f 63bf fab9 9c3e 62f2 a53e
00000040: 2823 02bf 7f67 79be 97c8 2ebf fb79 5fbf
00000050: 2433 cbbe ddca 4bbf 7523 da3b 1c6a 033e
00000060: b3de 03bf 1479 32bf c22b 52be b8fa 09be
00000070: f6c0 6ebe 0c48 63be 089a a8be 6bc9 40be
00000080: 97cc 1b3e 3538 9dbe 4eb5 703e 91a8 963d
00000090: 1290 e7bd 89d0 25bf f18e cb3b bfcd 2ebe
000000a0: e8ee f23d ccdb 61be 881b c4bd 9018 4c3d
000000b0: 3544 7d3e f668 ab3e 22e6 223f 59a5 863f
000000c0: 053c 24be 7f01 0abe b679 613a bc19 4dbe
000000d0: 8e72 1bbe 5b17 73bf c404 aa3e 3fc0 4d3f
000000e0: a03a 3ebe 2aec e1be de1f 8dbe 333d 9bbe
000000f0: 7678 28bc 5175 2bbf 05c6 04bf d755 45bf
00000100: 9bbf 053e 6a77 8cbe 6e06 41be 8fe7 2bbf
00000110: 4f99 d23d edcf f4be 6619 213f ba1c 803f
00000120: 404a 13be 4447 d73e cc2e 0bbe 70a5 733e
00000130: a6b8 b0be 068b 23bf f54b c7be 449e e1be
00000140: 3714 8a3e 5afc 9d3f afe4 003d 5023 f43e
00000150: c2f1 663e 68cd 56be f0a8 a73b 18b3 c8be
00000160: d226 acbe 9011 d23e 0c06 03bf 1cfe 57bf
00000170: c6a3 b3be 8b7f 0ebf 8a58 37bc 6146 cabe
00000180: 3a34 893e 8552 a1be d28e 2c3e da1c a33e
00000190: 25f1 053f 4eff c13e ea55 4a3f f555 ca3e
000001a0: b8a9 4b3e 44bc 43be b074 ec3d 7a26 a53e
000001b0: 9c3c 92be 1827 e3be 27ff cf3d 063b c03c
000001c0: 2f1d e6be 15e3 2fbf b5a8 aebe 4ec0 64bf
000001d0: 287c eabd 08fe ad3e 9355 033f f060 c3be
000001e0: 5410 853e 35d4 cbbd bff2 9c3e 7e02 cd3d
000001f0: 1827 2f3d 25a9 8cbe 13e2 df3e 66f4 873d
00000200: cc9c 09be 2299 983e d888 64be 002e 4b3c
00000210: 1f4d 813e 0f19 1b3f c471 173f 0408 e83e
00000220: ebcb 5f3d b226 103f ac00 d33e 3eac 0e3f
00000230: f874 d7bd eef1 9ebe b09a ed3d e8c6 9f3d
00000240: f8ef b03d caf7 b43c 0b00 63be 8ef3 1cbf
00000250: 453d 4dbe 6f4d fb3e c9af 47be 2d4c 663e
00000260: 2299 9e3d d9a0 07bf 9abb 9f3e cd8e ba3e
00000270: 18f4 adbe da3a 24bf d111 ebbe af10 a6be
00000280: 87c9 bebe 1310 83be fbab 13be 7b51 82be
00000290: d8c5 a9be db61 10bf 2a0b c6be 1796 033c
000002a0: c7d5 46be 131b 26be e5a0 b53e 5aac d23e
000002b0: 0210 2dbd 0ec3 2e3e d5f8 65be 24b6 e43e
000002c0: 3bbb 0bbf af92 923d 4bf1 0ebf 243c 0cbe
000002d0: 2d27 adbe 25ea 1b3e 0660 a3be cbdf fcbe
000002e0: 8c8e 403e 8ad0 ebbe 3056 5c3e a838 8d3d
000002f0: 4e64 5c3e d7c4 dfbe eeda 9cbe 973e 103f
00000300: 6fc2 ca3e 6027 d53e dc9f fc3e 33aa b53e
00000310: bfad 913e 439e c3be 2add d73e fccd 5dbe
00000320: 41d8 36be 683f 24bf d571 a6be 492b 54bf
00000330: 047a 453e cf25 e83d 094e 0d3f 13eb 3a3f
00000340: 7a6b 183e e623 143f 9830 15be 8bb7 933e
00000350: 21d5 793e 6f9b ab3e 9432 92be 438e 473e
00000360: e0f4 80bc 92de aabe 24bb 51be ec65 71be
00000370: 63ea bfbe b638 17be 0e26 cebe de3b 43be
00000380: 6785 aebd 7996 37bf 5177 b1be e772 a33e
00000390: a3f7 c8be 32c6 ac3d 5be8 d63e 5792 97be
000003a0: 9974 65be 00db 41bf f715 45be 1054 3dbf
000003b0: 7e9c 743e 50bf 0bbf 289c a5be a95e dbbe
000003c0: f0c7 62be ae66 96be 3a0a 80be 2da9 48bf
000003d0: aa87 803e a680 a4be 50b3 54bd 30e7 f8bd
000003e0: f077 7dbe 9380 37bf c639 303e cca3 0c3f
000003f0: 8634 cabd 350b adbe 4650 93bd 6e3a ad3d

net.0.bias f4 [128]
0.35397938 -0.29433778 0.54385734 0.40213594 -0.18131791 -0.21300673 -0.07276364 0.3103738
0.25630838 -0.07783553 -0.21205914 -0.12434044 0.1875 -0.18219307 0.22101961 0.33110592
0.22855902 -0.17438143 -0.311912 -0.15470387 0.010167481 0.31762668 -0.16677637 0.40494624
0.3573582 -0.30430135 -0.44077295 0.3800375 -0.18088162 0.27933097 0.40683016 -0.30276594
-0.37767047 -0.13960972 0.5781316 -0.4825608 0.22562064 0.1584946 -0.12872124 0.4279174
0.3678528 -0.16144161 0.38206625 0.8987922 -0.27958575 0.27903682 -0.48421633 0.36614287
-0.29855967 0.4285255 0.3402486 -0.10541939 -0.18973888 -0.25296792 -0.38292503 0.32719463
0.36851704 0.57593524 -0.04777226 0.3082032 0.20251966 -0.4253344 0.9088228 0.114423804
0.3641584 0.4837793 -0.35660496 0.61071897 0.3794615 -0.3304893 1.0087519 0.6799352
-0.37994912 -0.16262129 0.7503193 0.75876087 0.32814065 0.58665 -0.22732638 0.7049245
-0.22417952 0.017666329 0.77409136 0.2663498 0.26549375 0.48333934 -0.203834 0.8827438
-0.22773041 0.3027759 0.36376572 0.467913 -0.5019803 0.36291593 0.7084607 -0.35572928
-0.43049777 -0.29090708 -0.086037874 -0.40947494 -0.43543598 0.42133954 0.72921604 0.76027715
0.3821245 0.3835215 0.04591103 -0.42830497 0.18260692 -0.09918572 0.28409684 0.47575417
0.27205366 -0.124186 0.15092312 0.34507558 0.44640112 0.7214967 0.23920035 -0.39046645
0.42160115 -0.21342216 0.06208516 0.24359 -0.15711686 0.3960947 -0.12833296 0.29576752
00000000: c93c b53e 71b3 96be 3c3a 0b3f c3e4 cd3e
00000010: 67ab 39be 701e 5abe 1a05 95bd 51e9 9e3e
00000020: da3a 833e 3c68 9fbd 0826 59be 33a6 febd
00000030: 0000 403e d290 3abe f752 623e b786 a93e
00000040: 600b 6a3e 0c91 32be eeb2 9fbe b16a 1ebe
00000050: 8295 263c f79f a23e 6dc7 2abe 1d55 cf3e
00000060: a7f7 b63e 63cd 9bbe feac e1be 4694 c23e
00000070: 0839 39be 7804 8f3e 0b4c d03e 2304 9bbe
00000080: 065e c1be daf5 0ebe 6f00 143f 3612 f7be
00000090: 1909 673e 694c 223e 80cf 03be fd17 db3e
000000a0: 3457 bc3e f350 25be 309e c33e 3f17 663f
000000b0: dd25 8fbe eadd 8e3e 34eb f7be 1477 bb3e
000000c0: d0dc 98be b267 db3e 1135 ae3e 1fe6 d7bd
000000d0: e94a 42be 0385 81be c00e c4be 0e86 a73e
000000e0: 44ae bc3e 7e70 133f d8ac 43bd cfcc 9d3e
000000f0: 5061 4f3e 6ec5 d9be 9ca8 683f 0757 ea3d
00000100: f872 ba3e ecb1 f73e ed94 b6be 1458 1c3f
00000110: c748 c23e e535 a9be c81e 813f 3c10 2e3f
00000120: b188 c2be 3286 26be ed14 403f 273e 423f
00000130: 0d02 a83e b22e 163f 3fc8 68be ef75 343f
00000140: 518f 65be fab8 903c da2a 463f 005f 883e
00000150: ccee 873e 4178 f73e dcb9 50be 7ffb 613f
00000160: 2932 69be 7105 9b3e 803f ba3e 4b92 ef3e
00000170: c881 00bf 1ed0 b93e ae5d 353f 2622 b6be
00000180: 346a dcbe c6f1 94be a034 b0bd b3a6 d1be
00000190: 77f1 debe d1b9 d73e e7ad 3a3f 86a1 423f
000001a0: d3a5 c33e ee5c c43e 340d 3c3d ca4a dbbe
000001b0: 4ffd 3a3e e221 cbbd 2475 913e 0d96 f33e
000001c0: 9e4a 8b3e 3b55 febd 978b 1a3e bfad b03e
000001d0: b08e e43e 02b4 383f f0f0 743e 38eb c7be
000001e0: 1bdc d73e 578b 5abe 024d 7e3d a86f 793e
000001f0: 3ee3 20be edcc ca3e b769 03be d76e 973e

net.2.weight f4 [128, 128]
0.7427661 -0.0006855693 0.037582304 0.71455777 -0.24861369 -0.1405852 -0.26281282 0.3083985
0.6442039 -0.22882916 -0.073918045 -0.518994 0.90576357 -0.22764109 0.48441052 -0.09456113
0.36868057 -0.3472816 0.077303864 -0.31226397 -0.12231137 0.7896267 -0.3377397 0.68082845
0.9515913 -0.2809253 0.06889605 0.9328929 -0.21846865 0.63151693 0.5858123 0.0055571157
0.08346424 -0.25093037 0.06508091 0.0074158856 0.2057171 0.80134463 -0.3347314 0.42964083
0.93819153 -0.14553262 0.6158706 -0.11761753 -0.1763399 0.7027978 -0.023976477 0.24648964
-0.19190073 0.7266265 0.098911114 -0.3634053 -0.29972008 -0.23587994 0.002720579 0.73069835
0.14746667 0.4662295 -0.33878303 0.30098215 0.73523265 0.05119663 0.12506051 0.6534298
1.0635728 0.11120429 -0.3767967 -0.000106970394 0.108572684 -0.082098104 0.15095207 0.08796632
-0.22128142 -0.20910262 -0.07163548 0.0048167515 0.88944054 0.21692806 -0.0058115404 0.0118736345
-0.24634385 -0.1980877 -0.0016359022 1.042816 0.7305042 0.8886477 -0.18213828 0.25025412
-0.3446099 0.39900512 0.56627584 0.13304737 0.06774846 0.90157515 -0.011536253 0.059257876
-0.052585326 -0.07337557 0.11502116 0.050221328 -0.020731365 0.07283738 0.0519066 -0.0025041597
0.49912202 0.40237883 0.024464028 0.04504436 0.7990798 -0.09523869 0.7541265 0.37152642
0.13092661 -0.30909795 0.6324543 0.59273237 0.034586087 0.13482268 0.75196546 -0.023882888
0.7520743 -0.15461051 0.5273965 0.2170795 -0.015854463 0.3864431 -0.09692788 0.4574908
0.8264619 -0.05132322 0.012492292 0.6509949 -0.22039798 -0.14806883 -0.3652847 0.3250738
0.6825818 -0.121666595 0.079572804 -0.42443284 1.0462908 -0.2607286 0.38710496 0.044278346
0.23776 -0.3183415 0.0050862287 -0.30209157 -0.15719272 0.84775215 -0.3230813 0.5950525
0.9904728 -0.15603665 -0.08814681 1.0232638 -0.3069441 0.6919283 0.6452028 0.042516228
0.02281154 -0.31552073 0.1847003 0.076028295 0.28109422 0.81562394 -0.23490204 0.39175367
0.89311916 -0.09300816 0.51321644 0.039914723 -0.18188383 0.8420076 0.00044784186 0.280685
-0.20598806 0.74218446 0.25801894 -0.26037562 -0.19745551 -0.36405742 0.08716232 0.78288966
0.22612706 0.39972112 -0.2772737 0.1417781 0.862433 -0.0012347656 0.12199709 0.7753817
1.0277413 0.06750033 -0.33984163 -0.066979684 0.21740468 -0.08586845 0.1386591 0.033203676
-0.32829073 -0.20428045 -0.010958429 -0.027613332 0.8720281 0.19348262 -0.04839444 -0.047655895
-0.23957919 -0.19550142 -0.004558622 0.93154556 0.6396772 1.039897 -0.10105944 0.19966076
-0.28165185 0.3315253 0.61245066 0.06208603 0.013168189 0.77114516 -0.10926942 0.054350793
0.05483698 0.03593063 0.17334029 0.022787506 -0.0615701 0.1856951 -0.040114634 0.009480424
0.6219985 0.53600407 0.043993104 -0.07355612 0.83901 -0.060770832 0.7550732 0.41436496
0.18213055 -0.446498 0.7542318 0.56710106 -0.08287316 0.18464993 0.6999652 -0.06008578
0.74422616 -0.14601389 0.6136819 0.22202323 0.013343565 0.2750086 -0.1486706 0.5916241
00000000: eb25 3e3f c7b7 33ba e7ef 193d 42ed 363f
00000010: 9694 7ebe 91f5 0fbe 678f 86be 68e6 9d3e
00000020: 8cea 243f 3152 6abe 5862 97bd cadc 04bf
00000030: 1fe0 673f bf1a 69be a804 f83e 44a9 c1bd
00000040: b3c3 bc3e e5ce b1be 7d51 9e3d 10e1 9fbe
00000050: 627e fabd fa24 4a3f 38ec acbe c64a 2e3f
00000060: 7d9b 733f 71d5 8fbe 5f19 8d3d 12d2 6e3f
00000070: 3fb6 5fbe 18ab 213f cbf7 153f 7718 b63b
00000080: 4def aa3d f279 80be 2449 853d f500 f33b
00000090: 81a7 523e ec24 4d3f ea61 abbe e2f9 db3e
000000a0: 522d 703f 8106 15be b2a9 1d3f 76e1 f0bd
000000b0: 7292 34be 8eea 333f 516a c4bc c867 7c3e
000000c0: a081 44be 3204 3a3f e991 ca3d 4210 babe
000000d0: e974 99be 838a 71be be4b 323b 0c0f 3b3f
000000e0: 8101 173e a2b5 ee3e f874 adbe 551a 9a3e
000000f0: 3538 3c3f 8fb3 513d dd0f 003e 2d47 273f
00000100: 2723 883f 13bf e33d 7feb c0be 4b55 e0b8
00000110: 5b5b de3d 0d23 a8bd 2e93 1a3e b027 b43d
00000120: 9997 62be ff1e 56be 9fb5 92bd d7d5 9d3b
00000130: 60b2 633f 6422 5e3e bc6e bebb a289 423c
00000140: 9041 7cbe 81d7 4abe c56b d6ba ff7a 853f
00000150: 5302 3b3f 6a7e 633f 7582 3abe 4f21 803e
00000160: b570 b0be 664a cc3e 74f7 103f 923d 083e
00000170: b4bf 8a3d a1cd 663f 8d02 3dbc 63b8 723d
00000180: b663 57bd ee45 96bd 3790 eb3d e1b4 4d3d
00000190: d3d4 a9bc c42b 953d 049c 543d d41c 24bb
000001a0: ec8c ff3e 9904 ce3e c968 c83c 6f80 383d
000001b0: 7e90 4c3f 810c c3bd 6f0e 413f b638 be3e
000001c0: a011 063e 1642 9ebe 86e8 213f 4fbd 173f
000001d0: 24aa 0d3d f50e 0a3e cf80 403f 0ca6 c3bc
000001e0: f187 403f 3852 1ebe 7503 073f 174a 5e3e
000001f0: 38e1 81bc dfdb c53e 2082 c6bd 3c3c ea3e
00000200: 0293 533f 4c38 52bd 78ac 4c3c 9aa7 263f
00000210: 02b0 61be 5b9f 17be 9906 bbbe 1370 a63e
00000220: aebd 2e3f 562c f9bd 11f7 a23d 434f d9be
00000230: dbec 853f 387e 85be 9f32 c63e 365d 353d
00000240: 5c77 733e a8fd a2be 61aa a63b bfab 9abe
00000250: 21f7 20be 4906 593f ea6a a5be 5c55 183f
00000260: a08f 7d3f 12c8 1fbe 5186 b4bd 4ffa 823f
00000270: c727 9dbe 3722 313f 032c 253f 7f25 2e3d
00000280: 44df ba3c ef8b a1be 1322 3d3e b9b4 9b3d
00000290: 95eb 8f3e bbcc 503f 298a 70be f093 c83e
000002a0: 75a3 643f 107b bebd 2762 033f 9f7d 233d
000002b0: c13f 3abe cf8d 573f 51cc ea39 f2b5 8f3e
000002c0: 89ee 52be cdff 3d3f 0f1b 843e f44f 85be
000002d0: c731 4abe bc65 babe 2982 b23d 756b 483f
000002e0: da8d 673e 3fa8 cc3e d2f6 8dbe 472e 113e
000002f0: 69c8 5c3f dcd7 a1ba 9cd9 f93d 6a7f 463f
00000300: 078d 833f 9d3d 8a3d b9ff adbe a52c 89bd
00000310: 559f 5e3e ccdb afbd a7fc 0d3e 9400 083d
00000320: b915 a8be e52e 51be fc8a 33bc 5b35 e2bc
00000330: 3c3d 5f3f 4f20 463e 4039 46bd d432 43bd
00000340: 3f54 75be 8631 48be 7e60 95bb c579 6e3f
00000350: e3c1 233f 581b 853f 40f8 cebd df73 4c3e
00000360: ac34 90be afbd a93e 91c9 1c3f ec4d 7e3d
00000370: 63bf 573c c569 453f a5c8 dfbd f09e 5e3d
00000380: be9c 603d ff2b 133d 1e80 313e ddac ba3c
00000390: ee30 7cbd db26 3e3e 3e4f 24bd c853 1b3c
000003a0: 4b3b 1f3f 9037 093f 1d32 343d 97a4 96bd
000003b0: 5cc9 563f d6ea 78bd 7a4c 413f a527 d43e
000003c0: 6e80 3a3e 639b e4be 5615 413f 892d 113f
000003d0: 67b9 a9bd df14 3d3e eb30 333f 821c 76bd
000003e0: 9b85 3e3f aa84 15be 421a 1d3f 0f5a 633e
000003f0: f89e 5a3c edcd 8c3e 1b3d 18be ad74 173f

net.2.bias f4 [128]
-0.050046097 -0.15567927 -0.03186542 0.17431912 -0.0036180255 0.0541803 -0.07318011 -0.06179262
0.07095847 0.11722714 0.009807929 -0.014491225 -0.066893004 0.18134537 0.059315786 -0.16455278
-0.05546344 -0.12739825 -0.012497182 0.054684076 0.09567356 -0.13229671 -0.021906609 0.08485585
-0.15130855 0.06313076 -0.08076626 0.007902269 -0.039770175 0.01534841 0.10490299 -0.16087012
-0.02202394 0.0023199944 0.0073785014 -0.037132706 0.001995665 -0.07230836 -0.08688951 -0.016971672
-0.012683593 0.022500822 0.04790409 -0.2551323 -0.022437837 -0.03026543 0.073180966 -0.035852496
-0.036089256 -0.0044150013 -0.15407325 -0.004885325 -0.10094856 -0.023971586 0.14701773 0.18107094
-0.027821455 -0.017334262 -0.020451633 0.03719731 0.009829099 0.06835853 0.04049505 -0.026484057
-0.054370537 -0.015753506 0.07227562 -0.017925492 0.014192569 0.16813008 -0.030247027 0.0374099
-0.10369402 0.16685514 -0.059646577 -0.06835357 0.16853389 0.102579765 0.043176346 -0.073508196
0.17568408 0.001464816 -0.046872944 0.06639652 -0.022600275 0.050035473 0.13929807 -0.13135612
0.06609114 0.048024677 0.0016775499 0.0041051637 -0.04118635 0.047799006 0.09217189 -0.13868657
0.0046220175 -0.101679884 -0.060874205 -0.002867934 0.10093478 0.057312664 0.12466897 -0.16042195
0.08690454 0.02096282 -0.0075070173 -0.00981955 -0.13447855 -0.047357738 0.12672116 -0.054664534
-0.13082744 0.029134162 -0.007300251 -0.0840656 0.13315353 0.005070961 0.05583757 0.04607945
-0.025315424 -0.06872663 0.17924063 -0.11168727 -0.07801686 0.0045091636 -0.04283441 -0.09479077
00000000: 23fd 4cbd 636a 1fbe 5185 02bd b680 323e
00000010: 651c 6dbb 2aec 5d3d 74df 95bd 421a 7dbd
00000020: ad52 913d c814 f03d 70b1 203c 9a6c 6dbc
00000030: 33ff 88bd 9ab2 393e 1cf5 723d 8680 28be
00000040: a22d 63bd b074 02be fbc0 4cbc 69fc 5f3d
00000050: 80f0 c33d ca78 07be 7d75 b3bc e7c8 ad3d
00000060: a1f0 1abe b34a 813d c868 a5bd 8578 013c
00000070: 0de6 22bd e677 7b3c 61d7 d63d 23bb 24be
00000080: 8d6b b4bc 0c0b 183b 5bc7 f13b 7718 18bd
00000090: b4c9 023b 6816 94bd 21f3 b1bd 2d08 8bbc
000000a0: d8ce 4fbc a553 b83c 1437 443d b3a0 82be
000000b0: 8ecf b7bc 35ef f7bc e7df 953d 11da 12bd
000000c0: 54d2 13bd b7ab 90bb 61c5 1dbe 1415 a0bb
000000d0: 1ebe cebd 0f60 c4bc d18b 163e a96a 393e
000000e0: d2e9 e3bc 9500 8ebc 2f8a a7bc 355c 183d
000000f0: 3b0a 213c 8fff 8b3d 23de 253d 18f5 d8bc
00000100: a4b3 5ebd 7f0d 81bc 3e05 943d 7bd8 92bc
00000110: f387 683c 4b2a 2c3e 9dc8 f7bc 203b 193d
00000120: 885d d4bd 13dc 2a3e f84f 74bd f5fc 8bbd
00000130: 2694 2c3e 5715 d23d aed9 303d 778b 96bd
00000140: 87e6 333e 12ff bf3a d8fd 3fbd e6fa 873d
00000150: 3624 b9bc fff1 4c3d 27a4 0e3e 3882 06be
00000160: cb5a 873d 86b5 443d 3ce1 db3a 9c84 863b
00000170: 05b3 28bd e4c8 433d 9ec4 bc3d da03 0ebe
00000180: 4b74 973b 8b3d d0bd 3b57 79bd f3f3 3bbb
00000190: e5b6 ce3d afc0 6a3d 7252 ff3d a745 24be
000001a0: 02fb b13d 38ba ab3c 6dfd f5bb 2ee2 20bc
000001b0: bfb4 09be 30fa 41bd 31c3 013e ebe7 5fbd
000001c0: a1f7 05be c4aa ee3c f236 efbb 962a acbd
000001d0: 6659 083e 4e2a a63b f0b5 643d cebd 3c3d
000001e0: 4b62 cfbc 8cc0 8cbd db8a 373e 4cbc e4bd
000001f0: 4ec7 9fbd 9bc1 933b 2273 2fbd aa21 c2bd

net.4.weight f4 [1, 128]
0.19387135 0.14821585 0.06412172 -0.38520736 -0.11867379 -0.42758846 0.20649987 -0.07400555
-0.017164884 -0.36101183 0.15359525 0.19370179 0.08544422 -0.46047676 -0.32642952 0.19886193
0.027304951 0.19350326 0.18955079 -0.48188543 -0.41053748 0.1489503 0.20562091 -0.51560193
0.17339578 -0.030463036 -0.010842814 0.14015542 0.18174921 -0.38050905 -0.61444336 0.25279662
0.16583705 -0.046516664 -0.065366834 0.1844247 0.002927309 0.17442502 0.17649758 0.13672528
0.1552875 -0.041969292 -0.37992868 0.14224282 0.1507008 0.20962556 -0.4712424 0.14378029
0.1953807 0.07721385 0.1598532 0.075393915 0.19380412 0.20389666 -0.50399214 -0.48692778
0.22123903 0.1859633 -0.22798136 0.0068332893 -0.44030568 -0.044540636 -0.04454725 0.13916613
0.02644298 0.20328613 -0.4290059 0.2275062 -0.37123528 -0.45487386 -0.0680396 -0.03808259
0.20369503 -0.46567264 -0.06987944 0.04597612 -0.53111523 -0.5297625 -0.37051126 0.111159846
-0.44446555 -0.36609626 0.1822696 -0.0488045 0.22921541 -0.03848923 -0.40259913 0.20176171
-0.51383907 -0.011556593 0.060333844 0.20312506 0.16411789 -0.18371266 -0.3746076 0.18384449
0.13687785 0.20676196 0.13115934 -0.39521247 -0.35379714 -0.36339003 -0.564896 0.18280026
-0.36759645 -0.38805944 0.11460631 -0.06581038 0.23730928 -0.01618688 -0.52604157 0.043949183
0.24528784 -0.045997076 -0.23482798 0.12124117 -0.43122318 -0.02302261 -0.43620008 -0.063401595
0.13498557 0.028816475 -0.44808403 0.24305347 0.16860732 -0.060754884 0.17659703 -0.037344713
00000000: 3686 463e e5c5 173e 4052 833d e639 c5be
00000010: 3e0b f3bd e0ec dabe b474 533e 3990 97bd
00000020: 5f9d 8cbc 8bd6 b8be 1348 1d3e c359 463e
00000030: 61fd ae3d 9cc3 ebbe c521 a7be 76a2 4b3e
00000040: a2ae df3c b825 463e 9a19 423e b0b9 f6be
00000050: f831 d2be 6d86 183e 4a8e 523e 7dfe 03bf
00000060: aa8e 313e 9e8d f9bc 0fa6 31bc e784 0f3e
00000070: 771c 3a3e 15d2 c2be 294c 1dbf 8f6e 813e
00000080: 30d1 293e 4288 3ebd 0cdf 85bd d4d9 3c3e
00000090: 18d8 3f3b 799c 323e c8bb 343e b601 0c3e
000000a0: b003 1f3e fee7 2bbd 0386 c2be 1aa8 113e
000000b0: 4f51 1a3e 15a8 563e af46 f1be 243b 133e
000000c0: e111 483e 4c22 9e3d 8fb0 233e 2068 9a3d
000000d0: 9674 463e 49ca 503e a105 01bf 994e f9be
000000e0: 7c8c 623e 2a6d 3e3e f273 69be c9e9 df3b
000000f0: bf6f e1be 3e70 36bd 2d77 36bd 9181 0e3e
00000100: f39e d83c 3d2a 503e a9a6 dbbe 63f7 683e
00000110: 8d12 bebe 3ae5 e8be 5958 8bbd 7dfc 1bbd
00000120: 6e95 503e a56c eebe f41c 8fbd 7551 3c3d
00000130: 2bf7 07bf 849e 07bf a7b3 bdbe c6a7 e33d
00000140: fd90 e3be f870 bbbe e2a4 3a3e 3ae7 47bd
00000150: 72b7 6a3e e2a6 1dbd 7921 cebe 9f9a 4e3e
00000160: f58a 03bf dd57 3dbc 9f20 773d 0400 503e
00000170: 850e 283e 2c1f 3cbe 91cc bfbe bb41 3c3e
00000180: b529 0c3e 68b9 533e a24e 063e 4a59 cabe
00000190: e624 b5be 420e babe 069d 10bf fe2f 3b3e
000001a0: 9a35 bcbe baaf c6be b7b6 ea3d 98c7 86bd
000001b0: 3401 733e 599a 84bc a9aa 06bf 0f04 343d
000001c0: bc2c 7b3e 6e67 3cbd bf76 70be 4a4d f83d
000001d0: 49c9 dcbe ea99 bcbc 9e55 dfbe b2d8 81bd
000001e0: a839 0a3e 8710 ec3c 456b e5be 02e3 783e
000001f0: 66a7 2c3e 1dda 78bd dad5 343e c5f6 18bd
