CartPole/checkpoints/reinforce_cartpole/policy_net_cartpole_reinforce.pth (torch, 72989 bytes, 6 tensors)

fc1.weight f4 [128, 4]
00000000: 700e 463d 4405 ebbc f53f 2dbe d735 afbe
00000010: 6985 313d 7ab2 603e 8c89 3fbe 0347 eabe
00000020: cabc 92bc 2438 2ebe c764 dd3e d1f5 373d
00000030: 0bef d3be 800a 88be 8d84 fb3e bd79 2b3e
00000040: 142b 913e ced6 cdbe 88d0 d53d 03dd 6fbd
00000050: b687 80be dcc0 9b3e ccf0 d5bd c5fa 903e
00000060: 895a f53e f448 9bbe 1a26 c13d d6cb 99bd
00000070: d6fb 64be ebf3 1f3e 7632 e73e 0ec2 40be
00000080: 75bc adbe 5a80 9e3c cdc6 35bf b2ec 40be
00000090: e6a3 473e 5c8d b2be c3b2 e1be 5dc3 f4be
000000a0: 9907 2a3d fbc0 cc3e b8d2 f3bc b6e6 ef3e
000000b0: 974e cb3e 4a9a 8cbe b38c 203f 94ca 943e
000000c0: 9cf3 a9be 6755 443e 8255 8dbe 8548 c5be
000000d0: 176e cd3e b830 163d 7a37 423d 8b6b 703e
000000e0: c9c5 a1bd 5906 e8be bb00 35bf 614f 5abe
000000f0: 8770 e2be 0fb1 f83b 8f1b acbe 0bd4 cebe
00000100: 0f9d 2ebd dd86 b9bd 0699 0bbf e15a e8be
00000110: a611 b8be d427 a73e e28e 763e 2ce1 983e
00000120: db1f dabe fa02 35bb eb3c 3abf 66a1 10be
00000130: 9e88 75be 67d7 17be bac2 063e 16d6 7dbe
00000140: b506 c43e 2214 c63e 8470 cc3e a8f6 94be
00000150: 7655 383e 0818 c8bd d078 063f 595a b93d
00000160: 662c 4dbd ef08 a23e 26a7 e73c 79a4 d6bd
00000170: 46c6 743e 8cf8 ebbe a92a ddbd 5ab6 a5bc
00000180: 13bd 9b3e d961 70be cf85 2fbf 1da6 453d
00000190: 3515 d8bc b884 803d 4df0 373f 83d8 08be
000001a0: 0695 ee3e 3258 ef3e e375 d53e 015d 92be
000001b0: b167 b4be 5594 ca3d 3cd3 163f 0fcf bc3e
000001c0: e0be 7f3e 060a bdbd baa4 5dbe 6779 353e
000001d0: 0048 35bd 20ef ecbe 41a4 0b3f a59b 0e3e
000001e0: d491 9fbe 7a9c a9bc e933 3bbf c7b4 4cbe
000001f0: 2b0f f0be c70d a83e 195e 90be 8e48 043f
00000200: ff01 923e 68cf 91bd f4a1 c8be 914d 80be
00000210: fc45 ed3d 5b38 a13d b9b9 4b3e 2c92 f33e
00000220: 9d60 743d a83e 673e cbd7 e23e 7aa2 77bd
00000230: 10ff e9be 3e67 43be afef 06bf 3568 4bbe
00000240: a480 cabe 4e4b 6f3e 17bf c3be d998 ec3e
00000250: 86b1 3c3d 73bf 793e 8983 113f e095 b93e
00000260: c0d8 e43e 3526 adbe d879 7abe b3a5 bdbe
00000270: f5f4 b6be f6da 3c3c 0f93 a6bd eba1 cdbe
00000280: 54c9 b1be 8bed bc3c cc9f 293f 1c9b ad3d
00000290: 8b19 bdbe 8ad7 8a3e a6ea 2ebd 0c30 083f
000002a0: c53f 63be 580e 66be 7531 1b3f 98f2 7b3e
000002b0: e9a8 70be 5e81 b9bc 04d2 02bf 1594 e4bd
000002c0: cace 8c3e a5fe d7be f12f 013f 9523 003e
000002d0: 1a3a 6fbe ad41 c83e 8f47 5abe 8fd6 5bbe
000002e0: c9e7 b1be 6006 fc3e cdae 5bbe 3306 023f
000002f0: 77ac 663e 2f8a 58bc c1f8 653e 8096 f2be
00000300: aaf8 1b3c 12a6 44be ec94 4fbe 5e17 a8be
00000310: f899 08be dbf9 d93e 6059 bf3e 265c 24be
00000320: 39e8 cb3e d364 d4be ef7d f5bd 2acf 36be
00000330: 894d 31be cebb 4d3d 3644 233f a1c8 ad3e
00000340: 127a babe 0a32 63be 669b 1abe 4875 803e
00000350: 1c71 513e 1ff6 e43c a2f2 d5bd 548f c9be
00000360: ebf0 2f3e fa97 f63e 5b03 d63d f99e d93e
00000370: f72e b7be 5ff5 c63e 0a0c 8a3e 6bb6 7f3d
00000380: fd25 1bbe 0318 93be 44e8 8dbe f651 113e
00000390: 5e77 39bd b42f 123e 744b b5bd 4af4 86bd
000003a0: f181 293e 5f74 1d3d fdbb 9c3e a5ba 9abd
000003b0: 763b 80be 3ac8 b13e b66c 02bf dc36 40be
000003c0: 1eb2 80be 9504 b63d 2afc cd3d 18df d2be
000003d0: d25d a2be 6004 063c 0a6c d83e 2f07 e43e
000003e0: 556c 5f3e 7c9d 46be 18e9 cbbc d8b8 c33e
000003f0: 3615 57be 8207 e93e 54fa 403d 5929 a1bd
0.048353612 -0.028689034 -0.16918929 -0.34220764 0.04334012 0.21943083 -0.18704814 -0.45757303
-0.017912287 -0.17013603 0.4324095 0.044912163 -0.41393313 -0.2657051 0.49124566 0.16745658
0.28353179 -0.40202945 0.10440165 -0.058560383 -0.2510354 0.30420578 -0.10446319 0.28316322
0.47920635 -0.30329096 0.094310954 -0.07509582 -0.22361693 0.15620391 0.45155686 -0.18824026
-0.33932844 0.019348312 -0.7100647 -0.18840292 0.19496116 -0.34873474 -0.44081697 -0.478053
0.041511152 0.39990982 -0.029763564 0.46855706 0.39708397 -0.27461463 0.6271469 0.29060805
-0.33193672 0.19173203 -0.276043 -0.3853189 0.40123054 0.036667556 0.047416188 0.23478524
-0.07899053 -0.45317343 -0.7070424 -0.21319343 -0.44226477 0.0075894664 -0.33614776 -0.4039615
-0.04263025 -0.09058926 -0.5453037 -0.45381835 -0.35950965 0.32647574 0.24077943 0.29859293
-0.4260243 -0.0027620182 -0.72749203 -0.14124069 -0.23977897 -0.14828263 0.1316022 -0.24788699
0.38286367 0.38687235 0.39929593 -0.29094434 0.18001351 -0.097702086 0.52528095 0.090504356
-0.05009117 0.3164744 0.028277945 -0.104805894 0.2390376 -0.46088064 -0.107991524 -0.020228554
0.3041769 -0.23474826 -0.6856355 0.04825412 -0.0263773 0.06275314 0.71851045 -0.13363843
0.4659807 0.46746975 0.41691503 -0.2858658 -0.3523536 0.09891573 0.5891607 0.36876723
0.24975157 -0.092304274 -0.2164487 0.17722093 -0.044258118 -0.46276188 0.54547507 0.13926561
-0.31165946 -0.020704497 -0.73126084 -0.19990836 -0.46886572 0.3282301 -0.2819679 0.5167321
0.28517148 -0.07119638 -0.3918606 -0.25059178 0.11585614 0.07872077 0.19895066 0.47572458
0.05966245 0.22582495 0.44305262 -0.060457684 -0.4570241 -0.19082353 -0.5270948 -0.1986397
-0.3955127 0.2336857 -0.38231727 0.46210364 0.046067737 0.24389438 0.5684133 0.36247158
0.44696617 -0.33818212 -0.24460542 -0.3704048 -0.35733762 0.011526814 -0.08133518 -0.40162596
-0.34723914 0.023062488 0.66259456 0.084768504 -0.3693355 0.27117568 -0.042704247 0.53198314
-0.22192295 -0.22466409 0.6062234 0.24604261 -0.23501934 -0.022644695 -0.5110171 -0.11161057
0.27501518 -0.42186466 0.5046378 0.12513573 -0.23362008 0.39112607 -0.2131636 -0.21468566
-0.3474715 0.49223614 -0.214534 0.5079071 0.22526728 -0.013216539 0.22458173 -0.47380447
0.009519735 -0.19203976 -0.20271653 -0.32830328 -0.13339984 0.42573437 0.37372875 -0.16050777
0.3982561 -0.41483173 -0.119869106 -0.17852464 -0.17314734 0.050227933 0.63775957 0.3394213
-0.36421257 -0.22187057 -0.15098342 0.25089478 0.20453304 0.027949391 -0.10446669 -0.39367163
0.17181747 0.48162824 0.10449859 0.425041 -0.3577802 0.38859078 0.2696231 0.062429827
-0.1515121 -0.28729257 -0.27716267 0.14191422 -0.045279853 0.1427601 -0.08852282 -0.06589563
0.16553475 0.03844106 0.30612174 -0.07555131 -0.25045365 0.34723073 -0.5094713 -0.18770927
-0.25135893 0.08887593 0.10057862 -0.41185832 -0.31712204 0.008179754 0.42269927 0.4453673
0.21818669 -0.19396013 -0.024891421 0.38226962 -0.21004185 0.4551354 0.04711373 -0.078692146

fc1.bias f4 [128]
00000000: 1c55 97be 1bd2 723e 03bf cdbe 68a6 b83e
00000010: 26cf 45be 157f e73e a154 46be 5be9 2dbe
00000020: c229 c8bd bec5 9dbe 964d cd3e 16dd ddbe
00000030: 40cd 38bc 26c6 8dbd 8781 933d 070d 3abe
00000040: 5778 653e f79a 6ebe 3493 623e d2b1 afbc
00000050: 2b80 86bd 0536 28be f006 dd3b 1abe b53e
00000060: 424a 20be 9826 263e 36a1 bfbe b0ae d4be
00000070: 8c82 cd3e e958 80be 7271 d3be 1c1c 79bd
00000080: 2e57 8f3e f2a1 98be b548 b8be 5e7f 853d
00000090: 42bd b53e 67d9 17bd 2584 4cbe a444 e6be
000000a0: 0a13 9c3e 30f8 af3d 7676 d4be 6b73 c03e
000000b0: 2ba7 19be 3d1a 4abe 425a 9e3c 5829 023e
000000c0: 41d4 d93e 4bf4 dfbe 2856 7ebe 3e8e cd3e
000000d0: 1a77 9b3d 521a 84be 4880 e1bd a409 ebbe
000000e0: 20fb f53e be42 5c3e 4809 ea3d 1b13 a9bd
000000f0: c30e 703e cabf 45bd 575f 4c3e 9912 5cbe
00000100: b360 53be 336c 843e a9ac 90be d577 ba3e
00000110: f3e5 2bbe 46dc bb3e a9ee c6be 1148 dd3e
00000120: 6f9a 3ebe 8fa1 043e 41c3 b53e 41b4 c1be
00000130: 564a bfbd d051 debe 9078 203e a00f 9d3e
00000140: c3ea a83d ef77 d9be f2a2 e13d 995c e73e
00000150: 0346 823e 8022 ed3e 7d63 1d3e 4bca 32bd
00000160: f4b3 f6bc c268 8b3e 6343 d43e f783 d5be
00000170: b36e c0be fd88 c43e 8f3b c93e c0a5 063e
00000180: 5cd7 3fbe 9bd9 03be 95b0 e6be 841e dc3e
00000190: 23d2 50bd 4330 eb3d 2f17 fcbc 2c30 69be
000001a0: 5a19 a3be 9aa6 76be ea5b c13d d95a 633e
000001b0: 9f19 af3e fe2d d1be 7a62 e93e bfea c4be
000001c0: 5fd1 443c 5469 52be 75d3 803e ff37 f8be
000001d0: f32a 0dbe ccc0 66be 050b 13be d6b9 273e
000001e0: 814b 7ebe 40e5 a13d 9a78 053e 0f65 9cbe
000001f0: c30b a6be f39b d5be db30 aa3e 9c2c c5be
-0.2955712 0.23712961 -0.40184793 0.36064458 -0.19317302 0.45214143 -0.19368221 -0.1698355
-0.0977359 -0.30814928 0.40098256 -0.43332738 -0.011279404 -0.069225594 0.0720244 -0.18169032
0.22409187 -0.23301302 0.22126466 -0.021447096 -0.06567415 -0.16426857 0.006745212 0.35496598
-0.15653327 0.1622566 -0.37427682 -0.41539526 0.40138662 -0.25067833 -0.4129749 -0.060817823
0.279962 -0.29811054 -0.3599297 0.06518434 0.35495955 -0.037072565 -0.19972284 -0.44974244
0.30483276 0.0859226 -0.4149663 0.37588057 -0.15005176 -0.19736572 0.019330148 0.12711084
0.4254475 -0.43741068 -0.24837554 0.40147585 0.07591076 -0.2580133 -0.11010796 -0.45905793
0.48043156 0.21509835 0.114275515 -0.08255597 0.23443131 -0.048278607 0.19958244 -0.2149147
-0.20642357 0.258638 -0.2825673 0.3641955 -0.16786937 0.36691493 -0.38853958 0.43219045
-0.18613599 0.12952255 0.3550053 -0.37832835 -0.0934035 -0.43421793 0.15670991 0.30675983
0.08247902 -0.42474315 0.110174075 0.45187834 0.2544404 0.46315384 0.15369983 -0.043649953
-0.030115105 0.2722836 0.41457662 -0.41702244 -0.37584457 0.38385764 0.39303252 0.13149166
-0.18734497 -0.12875979 -0.45056596 0.42992032 -0.050981652 0.114838146 -0.030772774 -0.22772282
-0.3185528 -0.24086991 0.09441359 0.22202624 0.34199235 -0.40855402 0.45582944 -0.38460347
0.012012809 -0.20547992 0.2516133 -0.48480222 -0.13785915 -0.22534484 -0.14359672 0.16379485
-0.2483349 0.07905054 0.13034287 -0.30545852 -0.32430848 -0.41720542 0.332404 -0.38510597

fc2.weight f4 [128, 128]
00000000: df25 633d 8dcb 33bd 075a 93bc a87e 843d
00000010: d4f2 873d 000b 283c d20f bf3c 09f1 82bd
00000020: 58cb 953d 3a2f 50bd 9997 c53b e9d4 503d
00000030: 8c50 6c3c 8bd9 6a3b dcd7 3a3c 16fc 833d
00000040: 1956 d23d 17b7 7b3d 449f ab3d d115 c13d
00000050: 5ebf c13c b897 5ebd fd18 e83c bf8d 8d3d
00000060: 408a 23bd afec a23c 09c8 98bc 59c1 8abb
00000070: 0091 a13d f711 89bd 9d3a 37bd 38f7 a43d
00000080: 84df bb3d 8efb 98bd ea4d 843b d8d4 afbc
00000090: 5796 993c dcb7 23be 5feb c43d b264 97bb
000000a0: 6fe1 b8bd 8bba 3d3d 83db 02bd 7e49 453d
000000b0: b8d3 c73c 13a6 353d b23e 09bc 2477 ec3b
000000c0: d691 c63d b22a 0ebd 11a8 883c c8e3 9dbd
000000d0: fa76 ab3d 1eeb 013d ac27 3a3d 94a2 43bd
000000e0: a2ff 8b3d 4503 943d c47f 283d 33fe 793d
000000f0: 9f71 b53d 9665 c6bd 5052 2bbd ea8f 323d
00000100: beb2 543d 586e 4b3b 3e49 a43d 6999 7bbd
00000110: 994e a1bd 3f02 8e3c 97f2 9a3d 897f 16bc
00000120: 92fa 033d 30cb 8e3c c9ed 5c3d 0363 753c
00000130: cc11 6ebd 69e0 2e3c 1e05 d1bc 078d 413d
00000140: f8f9 9bbc 0822 e13b 6019 b8bc 7f44 633c
00000150: 45c8 8a3d 306b f33c 8667 14bd b268 3a3b
00000160: 5bb6 103c 47f0 77bc 8b5d b23d e3d4 cfbc
00000170: 4ff5 7cbd 9293 e0bc ba2a 47bd a478 5fbd
00000180: cbc5 d9bd 645e b93d 8e1b d0bc 5fb9 263d
00000190: bd69 d0bd 2a9c 243d fd77 9a3d 6dcf 71bd
000001a0: 6dd2 fd3c 9cd0 fa3c f5d1 0ebd d14d 98bd
000001b0: 16a1 413d 24cb d83c c520 c63c e32d 2a3d
000001c0: 75ab c63d d610 283d 4a47 28bc 0380 dfbc
000001d0: b0c8 9dbd 51a6 213d b049 dfbd 2ad8 3bbd
000001e0: 024a 9f3d 8da9 a2bd 26fc 123d 3c43 a4bd
000001f0: d694 c0bb 6d03 54bd 682c 273d 3acc a0bc
00000200: 85de 923d 72c4 df3c a3bb 81bc 9c93 39bc
00000210: d77d 323d 1785 69bd 6a62 fabc 6583 53bc
00000220: 436c 42bd 1949 9d3c 5171 7a3d 31ba e83d
00000230: b100 dd3c d273 363c 178a a2bc edba 243c
00000240: d9e3 2cbc ffa5 233c df57 323d c4df 75bd
00000250: 1f46 20bd 7b8e 5e3d 5409 3bbc 8f46 a43d
00000260: 3917 adbc 7ef1 9cbc 8371 9c3d a165 e4bb
00000270: 9175 693c de92 563b 74e4 91bd 31ba 9fbd
00000280: b8c8 5c3d df8e bb3d 5026 2b3d 95a2 15bd
00000290: 732e c8bd 71e9 ef3d ad2e 10bc e73d 1cbd
000002a0: 27ca c13d 59ab b03d 5baf bc3c b672 09bd
000002b0: fe23 823d 0d63 913d e289 bbbc 7ed7 093d
000002c0: 9255 83bd 6674 fb3c 967a 92bd ed59 913d
000002d0: dc51 bf3c 08c9 10bd c8e8 ab3d eb56 133c
000002e0: 0e0d 583d 8e23 9fbb 5464 41bb 44ab 033d
000002f0: 6e2c 42ba 5e24 b0bc b41b 053d 9856 b43d
00000300: ea60 16bb 9f80 10bd 897a 06bd e837 0dbd
00000310: 9e07 133d 3d91 ffbb 4747 80bd 7154 00bd
00000320: 9dd3 cdbd a422 5fbd bf1b 6e3c c3fc b4bd
00000330: c0b5 073e 2bb0 95bd 1e18 9d3c 3a5b c4bd
00000340: 5d8c 83bd bbf9 33bd 5f8b cfbd ce25 733d
00000350: ec84 363d 96f4 c73c ad78 923d add0 e13d
00000360: ccc3 53bc 44ac a13c 3a07 e23c b70d a53b
00000370: 2a7b 36bd 1d3b 5abd 6277 a8bc 5d30 6ebd
00000380: 6315 773d 512b 8c3c c04d 01bd 3379 a33d
00000390: 8153 993d cff7 863d 222a 1dbc 3554 6d3d
000003a0: 0e30 b3bb 45dc 2f3d f163 bfbc c691 ac3d
000003b0: d1a1 67bd 56f5 34bd 624d ad3c fd9d 983c
000003c0: 82c8 98bd f307 7ebd 4300 6e3d 8a71 1a3b
000003d0: c30e 82bd f1d4 56bd 4e1e de3d f303 b5bd
000003e0: 6b47 5a3d 917b 84bb 1702 28bd 08fc f9bc
000003f0: 44ac 12bd 4abb f0bc 63a9 e4bc b411 bb38
0.05545604 -0.043895293 -0.017987264 0.0646947 0.06638113 0.010256529 0.023322973 -0.0639363
0.07314175 -0.05082629 0.0060300347 0.050984297 0.014423501 0.0035835232 0.011404004 0.06444566
0.10270328 0.061453905 0.08379987 0.09427989 0.023650821 -0.05434391 0.028332228 0.069118015
-0.039926767 0.01988825 -0.018650072 -0.0042344746 0.07888985 -0.0669288 -0.044733632 0.08054966
0.091734916 -0.07469855 0.0040376084 -0.021463796 0.018748445 -0.15988106 0.09615206 -0.004620158
-0.09027373 0.04632048 -0.031947624 0.04816579 0.024392948 0.044347834 -0.008376764 0.007216351
0.09695785 -0.034708686 0.016681703 -0.077094615 0.08372302 0.031718366 0.04544799 -0.04776247
0.068358675 0.07227186 0.04113747 0.06103344 0.08859562 -0.09687345 -0.041826546 0.04359428
0.051928274 0.0031041112 0.08021782 -0.0614256 -0.078763194 0.017335055 0.075658016 -0.00918568
0.032221384 0.017430872 0.053937707 0.0149772195 -0.05812244 0.010673621 -0.025515135 0.047253635
-0.019040093 0.006870512 -0.022473037 0.013871311 0.0677648 0.029714197 -0.03623154 0.002844375
0.008832539 -0.01513297 0.08709248 -0.025370067 -0.061757382 -0.027414117 -0.04862473 -0.05455841
-0.10633429 0.09051207 -0.025403764 0.040704127 -0.10176418 0.040187992 0.07542417 -0.059035707
0.030984128 0.03061705 -0.0348682 -0.07436717 0.047272764 0.026464052 0.024185548 0.041547667
0.097006716 0.04103168 -0.010270903 -0.02728272 -0.07704294 0.039465252 -0.10902727 -0.045860447
0.07777788 -0.079424955 0.035885 -0.080206364 -0.0058771176 -0.05176108 0.040813833 -0.019628633
0.071713485 0.027315352 -0.015836542 -0.011326697 0.04357704 -0.05701169 -0.030564506 -0.012909745
-0.047466528 0.019199895 0.061143223 0.11363638 0.026977869 0.011136012 -0.019841237 0.010054332
-0.01055237 0.009988307 0.04354083 -0.060027853 -0.039129373 0.0543351 -0.011415798 0.080212705
-0.021129237 -0.019158121 0.07638838 -0.006970123 0.014249221 0.0032741348 -0.07123652 -0.07799185
0.053902358 0.0915811 0.041784585 -0.036532003 -0.097744845 0.11714447 -0.008800191 -0.038144972
0.094623856 0.08626432 0.023032835 -0.033556662 0.06354521 0.070989706 -0.022892896 0.033652775
-0.064128056 0.030695152 -0.07152288 0.0709723 0.023354463 -0.03534797 0.08394009 0.008992891
0.052746825 -0.0048565334 -0.0029509263 0.032145754 -0.0007407133 -0.021501716 0.032497123 0.08805579
-0.002294595 -0.035278913 -0.032831702 -0.034477144 0.035895936 -0.007799296 -0.06263595 -0.03133053
-0.10050128 -0.054476395 0.014532982 -0.08837273 0.13252926 -0.07308992 0.019176539 -0.095877126
-0.064232565 -0.043939333 -0.10134005 0.059362225 0.044560358 0.02440862 0.07151923 0.1102613
-0.0129251 0.019735463 0.027591337 0.0050370353 -0.044551052 -0.05327903 -0.020564739 -0.05815159
0.06032313 0.017110499 -0.03156829 0.07982101 0.0748663 0.065902345 -0.009592565 0.057941634
-0.005468375 0.042934675 -0.023363085 0.084262416 -0.056550805 -0.044179283 0.021155063 0.018630022
-0.07460119 -0.0620193 0.05810572 0.002356621 -0.06350472 -0.05244917 0.10845624 -0.08838644
0.053290766 -0.0040430506 -0.041017618 -0.030515686 -0.035808817 -0.029386181 -0.027912801 8.920152e-05

fc2.bias f4 [128]
00000000: 8efc 17bc bec4 81bd f7b1 453d ab52 ae3d
00000010: c223 03bd 7f15 8b3d 5ec7 8b3c 900e 113d
00000020: 041e aebd fe2c cbbc 84cf de3c 80de b1bd
00000030: 80c0 80bd ff98 91bd 979a bdbc 115f 8a3c
00000040: 25f2 a43d 55e9 753d 2f52 c53c e665 29bd
00000050: d80a 12bc 81eb 253d e0fc 21bd dbbc fc3c
00000060: 6dd2 573d 6286 cbbc d853 833d a5ed 483d
00000070: 59c3 a1bc 8274 353c 534f aa3d 3c66 acbd
00000080: 92aa a9bd 17ad 353d b1fc 70bc 3977 853d
00000090: e56b a83d 9a57 9a3d bb9a 7a3d 5838 27bd
000000a0: 19e9 123d fcca adbd 0559 383d 345f a73c
000000b0: 3b92 64bc c11b 1d3d f634 733c 3727 6cbc
000000c0: 0c3e 1abd 8706 a5bd c2cc 3fbc f27f a23d
000000d0: 939c 983d 158a 573d bab0 293b 9b86 a63d
000000e0: b993 9bbc 0a79 5bbd 554a 60bc 2b84 35bc
000000f0: d703 9a3d c36f 56bd ca10 a2bc 8142 26bd
00000100: b439 52bb b16a 133d b39b 46bd 846c 16ba
00000110: 7aa9 9cbd 2b60 023d 032e fcbc 6e8b 943d
00000120: 4111 30bd 1b3c a8bd 1926 9bbd f7e1 743c
00000130: 2fe9 e4bc 455b 163d db8a 0e3c 3569 3abd
00000140: 1063 a53c 5397 bf3d bac7 a13d d79d 61bd
00000150: 6d9c e3bb 80cc 2d3c cf61 b73c db7e a2bd
00000160: 3fb7 18bd 14d0 d43c 6e3a 373c 58a0 c9bb
00000170: 0f8c 543d 725d 82bd 01b6 4abd e247 11ba
00000180: b3c6 523d 4311 9ebc f700 be3b f56d 013c
00000190: 94d6 5a3d 3378 55bd 3806 94bb 0fd4 313c
000001a0: f74c 7e3c cc52 89bd 7763 9fbd 2479 5dbd
000001b0: 7be3 79bd eafd fabc ccd9 b4bb 2caa 16bd
000001c0: 9d9b 32bd 6670 673c 79d1 b0bd bdbd 25bd
000001d0: 1b91 c23c 9dfc 713d bcf4 583d 8624 8fbd
000001e0: aca8 b03d 2590 33bd 8d85 ccbc 18eb 623d
000001f0: 0a6c 433d 2faf a43d 94f3 a5bc 4b3e ddbc
-0.009276522 -0.06336354 0.048265424 0.085118614 -0.032016523 0.067912094 0.01706284 0.03541428
-0.08501819 -0.024801727 0.02719856 -0.08685017 -0.062867165 -0.0710926 -0.023145003 0.016891034
0.08053998 0.060036976 0.02408704 -0.041356944 -0.008913718 0.040507797 -0.0395478 0.030851772
0.052690912 -0.024844352 0.06412476 0.04905476 -0.01974647 0.011075141 0.08315911 -0.08417937
-0.08284487 0.044354524 -0.014708684 0.065168805 0.08223704 0.0753624 0.06118272 -0.040825218
0.03586683 -0.08485982 0.04500677 0.020431139 -0.01395088 0.038356546 0.01484417 -0.014413646
-0.03765683 -0.080578856 -0.011706533 0.0793456 0.07451739 0.05262192 0.002589269 0.08131143
-0.018991338 -0.05358223 -0.013689597 -0.011078875 0.07520264 -0.052352678 -0.019783396 -0.040590767
-0.003207785 0.03599042 -0.04848833 -0.0005738216 -0.076495126 0.031829994 -0.030783659 0.072531566
-0.042985205 -0.08214589 -0.07575626 0.014946452 -0.027943222 0.036708135 0.008700098 -0.04551049
0.020188838 0.09355035 0.07899423 -0.05508217 -0.0069461376 0.010607839 0.022385506 -0.07934352
-0.037284132 0.025978126 0.011183364 -0.0061531477 0.051891383 -0.063654795 -0.04948998 -0.00055420224
0.051459026 -0.01929534 0.005798455 0.007899751 0.053427294 -0.052116584 -0.004517343 0.010853781
0.01552128 -0.067052454 -0.07782643 -0.054070607 -0.061007958 -0.030638654 -0.0055191275 -0.036783382
-0.043605436 0.014125919 -0.08633704 -0.04046415 0.023750832 0.0590788 0.052967772 -0.06989388
0.086259216 -0.04383864 -0.024966026 0.055399984 0.047710456 0.08041226 -0.020257749 -0.027007243

fc3.weight f4 [2, 128]
00000000: 15f5 d03c cea2 c0bd 5a83 10bd 0bf0 b0bd
00000010: 2428 21bc 4b12 af3d 8d13 df3d 251a c5bd
00000020: 68ac 92bd b738 a73d 7556 ebbd fec0 a9bd
00000030: 4641 1a3d 6595 95bd 1aa6 383c 0abe 27be
00000040: 194d 83bd 3688 023e c70b 10be fb65 01be
00000050: c1f9 9fbd 1b6e bebc e65a de3c 000f 23bc
00000060: 0255 d63d 7a92 8e3c 729d 3e3d b04a 073e
00000070: 831d 09be 0e8f 5c3c 362a 07be b564 2cbc
00000080: f98f b2bd 46f0 c5bd 877c 833d 2d1d 8c3d
00000090: 5311 a93c b74f a1bc 8190 873d a42a 6b3d
000000a0: 55e0 c6bd 9af3 753d 99b1 153e a246 f5bd
000000b0: 42ec 5a3c 025a d23d 46ce 683d 21f2 3e3d
000000c0: 815d dfbd dabd 193e 4fea f0bc 114d 13bd
000000d0: 0cc0 d6bd 1d1b e0bb 3b88 713d e58c a3bd
000000e0: 7ee0 0a3d 4b8b de3b 6b11 1f3d 7cf9 00be
000000f0: 0e73 9bbc 904d 25bd fe36 c13d 05cf 873d
00000100: fcd0 b63c 6a18 883d 3a45 8d3c 9056 dc3a
00000110: 6488 e2bb 522e 093d d0c0 6f3d 8997 bf3d
00000120: b423 913d 2171 a6bd 5687 b23d 38a1 073e
00000130: 0de8 b3bd 6829 abbd a0df 15be 1616 203c
00000140: a4ff 8e3d a0b5 62bd 53a9 9d3d 8458 b73d
00000150: c9ff debd 1891 903d 5ab8 423c da3b 0bbe
00000160: 66fe 29bc 2420 d53d 3b57 72bd a808 853d
00000170: d3aa 77bd 9f1c b93b ead5 04be da2b 2b3b
00000180: 2990 51bd 377e 12bd 6e73 82bd b95e 173e
00000190: f874 513d e821 0bbe 8c7b 233d 6b18 dc3d
000001a0: 064d 1b3e d4ec 963d a102 a33c 1124 ae3b
000001b0: 8548 e03d ed30 b13d b317 51bd 5e8f 06bd
000001c0: ff46 913d e70c b0bd 2356 293d 6325 593d
000001d0: 836e b4bd 9dc5 513c 9104 6dbd 1ad8 b8bd
000001e0: 6d78 cd3d e446 b63d 12be f33d 2399 adbd
000001f0: 5b84 fa3d d68d 91bd b4ee 0a3d 0f44 f93c
00000200: de84 8dbd 6985 743d 1585 7f3d d6b4 9cbd
00000210: 4688 883d dea4 79bd 3d72 61bc 3c0d 373d
00000220: 1aae ee3d fc8b 03bd 7deb 0a3e 64a7 833d
00000230: 99ab 113d cc18 993d cad4 23bd 399d a03d
00000240: b216 aebb c808 6dbc 7bd0 453b b9df 703c
00000250: 4634 653d 35fe a439 4653 fe3c c2bb a83d
00000260: 10fd 153d ddbd ebbc 9173 7bbd e46c ad3c
00000270: 5779 603c 6c67 c03d 05a1 983d 68ba 803d
00000280: f2ee 523d 5612 313d 969a 7bbd 6ecf 713d
00000290: 2c0c 97bd 6ce0 cd3d 42bb 94bd 025f 02be
000002a0: 08ff 21bd 4130 c6bd d9cc d9bd 26f9 de3d
000002b0: 5946 91bd 9308 86bd d90a 2e3d c34d b73a
000002c0: 90c1 7a3d da7d 87bc 8070 ee3d 79f8 eb3d
000002d0: 75a8 193e 70bd a33d e852 88bd 4f0b babc
000002e0: 8ec3 58bd 70ad b4bd 4331 80bd f402 e5ba
000002f0: c735 d1bd f4b6 9a3d 395f bdbd 5779 a8bd
00000300: 37f9 a63c b603 c93c 1e9a c1bd a73a 8f3d
00000310: 36f0 babd fb89 0ebd 8d85 f0bd a973 8e3b
00000320: 3d1b f2bc 7e3b 9c3d 4053 50bd 2036 acbd
00000330: 10e4 ba3d f46c c73c 16b9 173e ec57 913d
00000340: 6ccb 88bd e51e 70bd e5c8 ccbd b745 cbbd
00000350: d0db c93d 165b aabc 8819 7dbd 6f38 7a3d
00000360: e556 a93d 7767 86bd 6ea9 593b d33c 57bd
00000370: eb68 3c3c 9e49 8cbd 4a01 0dbd 5656 f83d
00000380: 884d 973d 6ddd 5b3d b90e c03d 535b 11bd
00000390: b2e5 04be 186e 023e 9a5d 24bd c4ae a2bd
000003a0: 507e 0ebe 0123 fbbc 989c 27bd 5834 fd3d
000003b0: 6080 84bd 6717 b9bd 92c5 a73d 40c2 f03d
000003c0: 3a4f d3bd 717e c73b c023 a8bd 6366 93bd
000003d0: 8360 d43d d151 0bbe 3134 943d 86cd 633d
000003e0: a767 68bd 4cbc 38bd 1850 9cbd 172c 87bc
000003f0: 6a25 09be 0f3d 713d 6169 80bd 4197 7ebd
0.02550749 -0.094060525 -0.035281517 -0.086395346 -0.00983623 0.08548411 0.10892401 -0.09624127
-0.0716179 0.081651144 -0.114911 -0.082887635 0.037659906 -0.07303885 0.01127007 -0.16381088
-0.064111896 0.12747273 -0.14066993 -0.12636559 -0.07811309 -0.023245862 0.027142953 -0.009952307
0.10465433 0.01740383 0.04653687 0.13212085 -0.13390164 0.013461841 -0.13199696 -0.010522057
-0.08718867 -0.09664969 0.06420236 0.06841502 0.020638144 -0.019691331 0.06619359 0.057413712
-0.09710757 0.06004677 0.1461853 -0.11976363 0.013361992 0.10271074 0.056837343 0.04661763
-0.10906506 0.15013829 -0.029408602 -0.035962168 -0.10485849 -0.0068391697 0.05896781 -0.07985858
0.0339055 0.0067915074 0.03883497 -0.1259517 -0.01897576 -0.040357172 0.09434317 0.06631283
0.022316448 0.066452816 0.017244924 0.0016810466 -0.0069132317 0.03349144 0.05853349 0.09355075
0.07086888 -0.081270464 0.087172195 0.13245094 -0.087844945 -0.08357507 -0.14636087 0.009770891
0.06982353 -0.055348992 0.07698312 0.0895243 -0.10888631 0.070589244 0.011884773 -0.1359705
-0.010375595 0.10406521 -0.05916522 0.06495792 -0.060465645 0.005649164 -0.12972227 0.0026118667
-0.051162872 -0.0357649 -0.06369673 0.14782228 0.05113694 -0.13587153 0.039912745 0.10746845
0.15166101 0.0736939 0.019898714 0.005314358 0.10951332 0.0865191 -0.051047992 -0.03285157
0.070936196 -0.08596211 0.041341912 0.05301417 -0.08810141 0.012803462 -0.057865683 -0.09025593
0.10032735 0.0890024 0.119014874 -0.08476474 0.12232276 -0.07107131 0.03391905 0.03042796
-0.06910108 0.059697542 0.062382776 -0.07651679 0.06666617 -0.060948245 -0.013760147 0.044690356
0.11654301 -0.03211592 0.13566394 0.064284116 0.03556404 0.07475433 -0.039997853 0.07842488
-0.005312764 -0.014467426 0.0030184078 0.014701777 0.055958055 0.00031469917 0.031045567 0.08238937
0.036618292 -0.028777057 -0.06138951 0.021170087 0.013700805 0.09394726 0.07452587 0.06285554
0.051497407 0.043230377 -0.06142672 0.05903571 -0.073753685 0.10052571 -0.07262279 -0.12731555
-0.039549857 -0.096771725 -0.10634775 0.10887365 -0.07093496 -0.06544604 0.042490814 0.0013984967
0.06121975 -0.016539503 0.116425514 0.11522002 0.15005668 0.07995117 -0.06656438 -0.02271047
-0.05292087 -0.08822143 -0.06259396 -0.0017472194 -0.10215335 0.07554427 -0.09246678 -0.08226269
0.020382507 0.024537902 -0.09453224 0.06993609 -0.09127848 -0.034799557 -0.11744223 0.004347284
-0.029554004 0.07628535 -0.050860643 -0.08408761 0.09125531 0.024343945 0.14816698 0.07096848
-0.06679425 -0.058623213 -0.09999255 -0.099254064 0.09856379 -0.020795386 -0.061791927 0.061088976
0.08268527 -0.06562703 0.003321256 -0.05254824 0.011499624 -0.06849979 -0.034425057 0.12125842
0.07387835 0.053677965 0.09377808 -0.035487484 -0.12978247 0.1273731 -0.040128328 -0.0794349
-0.13915372 -0.03065634 -0.040920824 0.123634994 -0.06469798 -0.09037667 0.081919804 0.117558
-0.10317846 0.006088071 -0.08209944 -0.07197263 0.10369971 -0.13605429 0.07236517 0.055615924
-0.056739476 -0.04510145 -0.07632464 -0.016500516 -0.13393179 0.05889612 -0.062700994 -0.062155966

fc3.bias f4 [2]
00000000: bbdb 883d aa7b 81bd
0.06682535 -0.06322415
