CartPole/checkpoints/reinforce_cartpole/policy_net_cartpole_reinforce.pth (torch, 72989 bytes, 6 tensors)

fc1.weight f4 [128, 4]
-0.34427425 -0.0013390622 0.2661742 0.3494974 -0.28984937 0.12053844 -0.20004687 -0.24387608
0.19899982 -0.30832112 -0.5297393 -0.08799594 -0.0702368 0.066808626 0.48781326 -0.110645644
-0.01627676 0.37547642 0.40347347 -0.06919387 -0.39380366 0.26392215 0.01235722 -0.38515466
0.45875913 0.2750854 0.19361964 0.10132146 -0.39987212 0.42302725 0.20277192 0.03934291
0.22843245 0.09346494 -0.6577942 -0.38001218 -0.19624558 0.034034148 0.53834283 0.38146216
-0.34712544 -0.2683826 0.2155339 0.13252132 -0.033151425 -0.015357197 -0.107040524 -0.5139145
0.1797013 0.07240145 -0.2042382 -0.3384189 -0.09096574 -0.09504103 -0.2229655 0.49254143
0.42327678 -0.26079637 0.118489794 0.07501736 -0.26421848 -0.18463735 -0.42077643 -0.36577836
-0.28255537 0.46444228 0.040903173 -0.4366367 0.22288182 -0.049910143 -0.48388827 -0.18241693
0.10895507 0.25988162 -0.21485302 -0.07189888 0.0049673473 -0.1651223 0.36700034 0.43722165
0.08446069 0.3471641 0.5556314 0.40290678 -0.17923313 -0.37678546 0.32672575 -0.37810153
-0.3620501 -0.41339588 0.58448684 0.17449781 -0.005438061 -0.17317724 0.6398363 0.31276262
0.23297706 0.034005187 0.53305143 0.009438267 0.06967001 -0.16638368 0.053472906 -0.4038255
-0.17844436 0.020035874 0.530438 0.4083253 0.07207742 0.024366358 0.39515108 0.15158258
0.13160989 -0.19739987 -0.4132347 -0.031316318 -0.18911822 -0.25872755 0.3549824 0.25392196
-0.35019872 0.011547488 0.0967213 -0.28278577 0.2853142 0.093030386 0.18062025 -0.39371502
0.4737738 0.057715766 0.28564948 0.32533002 0.14603393 -0.018527223 -0.40711182 0.03365632
0.45057392 0.48251185 -0.108394966 0.22804908 0.19094141 0.022624869 0.04572933 -0.31747955
0.40142998 -0.27851313 -0.28385866 -0.4451512 0.40798542 -0.38528344 0.23958614 -0.0008110153
0.3151001 -0.24190739 -0.56885344 -0.13909702 -0.21442266 -0.30329877 -0.33160412 0.35307726
0.21283525 -0.24054225 -0.6490141 -0.3281449 0.4696835 -0.22006546 -0.34543052 -0.086918876
-0.16477229 -0.3979743 -0.034310885 0.29455665 -0.24282902 0.08055216 0.402463 -0.096325114
0.27192196 0.1591288 0.2426656 0.24766447 -0.12937675 0.27418667 0.60076153 0.5136555
0.081784554 -0.16531403 0.3517502 0.46977577 0.48864183 -0.26764393 0.34846824 -0.4352407
0.005269657 0.07987751 -0.6839677 -0.121513784 0.30027232 -0.39410588 -0.101861276 0.5030729
0.24752207 -0.2960686 0.34816498 0.11328116 -0.37936604 -0.03972548 -0.5951686 -0.47982037
0.21575667 -0.041023154 0.2172735 0.09425642 -0.30419916 -0.24432047 -0.17559776 0.37989917
0.46485835 0.38017485 0.46980712 0.49133188 0.23035201 0.4662993 0.036974814 0.15831783
0.4006159 0.13229601 -0.090468965 0.34472927 -0.015101057 -0.23352693 0.21976246 0.47159362
0.25917917 0.46661067 0.5858132 0.0747307 0.17399298 -0.032499786 0.5870897 0.52421457
-0.3155126 -0.43266723 -0.449473 0.22387652 0.032919094 -0.477376 -0.1897455 -0.15569286
0.1899447 0.46781304 0.11228018 0.39814112 0.269726 -0.2961788 -0.20937543 0.05936543
00000000: b744 b0be 7983 afba fc47 883e 53f1 b23e
00000010: 2367 94be dcdc f63d 16d9 4cbe a7ba 79be
00000020: 9cc6 4b3e 44dc 9dbe ff9c 07bf 3737 b4bd
00000030: 50d8 8fbd f6d2 883d a9c2 f93e 2f9a e2bd
00000040: d756 85bc 723e c03e 1394 ce3e 84b5 8dbd
00000050: a2a0 c9be ce20 873e f075 4a3c fe32 c5be
00000060: 7ae2 ea3e fed7 8c3e 3a44 463e a081 cf3d
00000070: 0abc ccbe 0797 d83e 71a3 4f3e 0826 213d
00000080: 32ea 693e 8c6a bf3d 3365 28bf f590 c2be
00000090: 9af4 48be 6467 0b3d d6d0 093f 024f c33e
000000a0: 6dba b1be 7269 89be ebb4 5c3e abb3 073e
000000b0: cac9 07bd c19c 7bbc 1038 dbbd e78f 03bf
000000c0: 9e03 383e 3647 943d d223 51be 3e45 adbe
000000d0: 3f4c babd dfa4 c2bd 1151 64be 642e fc3e
000000e0: bcb7 d83e 1a87 85be c7aa f23d b4a2 993d
000000f0: a547 87be 9311 3dbe 0270 d7be 4d47 bbbe
00000100: 19ab 90be 61cb ed3e 168a 273d d88e dfbe
00000110: 223b 643e 946e 4cbd 34c0 f7be 81cb 3abe
00000120: d623 df3d 340f 853e 6e02 5cbe b83f 93bd
00000130: 21c5 a23b d215 29be 78e7 bb3e 84db df3e
00000140: baf9 ac3d 7ebf b13e dc3d 0e3f cc49 ce3e
00000150: e488 37be 06ea c0be 9948 a73e 8696 c1be
00000160: a15e b9be a0a8 d3be eea0 153f 8eaf 323e
00000170: c331 b2bb 6055 31be 50cc 233f 6c22 a03e
00000180: 8a91 6e3e 0649 0b3d 0f76 083f f6a2 1a3c
00000190: 26af 8e3d 7c60 2abe 6806 5b3d 37c2 cebe
000001a0: 1eba 36be 4622 a43c c9ca 073f 0410 d13e
000001b0: 549d 933d f59b c73c 3e51 ca3e 7738 1b3e
000001c0: bec4 063e 3123 4abe 8093 d3be 8a45 00bd
000001d0: 35a8 41be f077 84be 41c0 b53e 0f02 823e
000001e0: 3f4d b3be ad31 3d3c d115 c63d 4cc9 90be
000001f0: b414 923e b786 be3d 84f4 383e 0495 c9be
00000200: 7b92 f23e 5e67 6c3d a640 923e a891 a63e
00000210: eb89 153e 67c6 97bc f670 d0be 36db 093d
00000220: a0b1 e63e cb0b f73e 2efe ddbd b385 693e
00000230: 2586 433e ca57 b93c ae4e 3b3d ae8c a2be
00000240: 3b88 cd3e 4699 8ebe ec55 91be dcea e3be
00000250: 77e3 d03e df43 c5be 1256 753e 519a 54ba
00000260: cd54 a13e 92b6 77be 61a0 11bf 736f 0ebe
00000270: 9d91 5bbe fa49 9bbe 04c8 a9be 8bc6 b43e
00000280: 7cf1 593e b550 76be ca25 26bf 9c02 a8be
00000290: 5b7a f03e d758 61be 45dc b0be 8602 b2bd
000002a0: 11ba 28be 4ac3 cbbe 9289 0cbd 21d0 963e
000002b0: 2ca8 78be 88f8 a43d a10f ce3e 1a46 c5bd
000002c0: 5b39 8b3e a9f2 223e 557d 783e c19b 7d3e
000002d0: 577b 04be 3262 8c3e 82cb 193f ed7e 033f
000002e0: a97e a73d 1548 29be 9a18 b43e 7386 f03e
000002f0: 432f fa3e a008 89be 6e6a b23e ded7 debe
00000300: 16ad ac3b d296 a33d 8218 2fbf 38dc f8bd
00000310: 4bbd 993e 3fc8 c9be a59c d0bd 63c9 003f
00000320: 6d76 7d3e 4e96 97be ae42 b23e f4ff e73d
00000330: 443c c2be 2fb7 22bd f85c 18bf 04ab f5be
00000340: 51ef 5c3e e507 28bd f27c 5e3e 8309 c13d
00000350: febf 9bbe 252f 7abe e6cf 33be 2582 c23e
00000360: ea01 ee3e 47a6 c23e 8f8a f03e da8f fb3e
00000370: 66e1 6b3e c8be ee3e e772 173d 121e 223e
00000380: 871d cd3e 9b78 073e cb47 b9bd 5b80 b03e
00000390: 6c6a 77bc af21 6fbe 6909 613e b874 f13e
000003a0: 22b3 843e 98e7 ee3e dbf7 153f 690c 993d
000003b0: 372b 323e 7f1e 05bd 834b 163f ed32 063f
000003c0: de8a a1be 8f86 ddbe 5321 e6be e33f 653e
000003d0: 2cd6 063d a16a f4be a54c 42be f36d 1fbe
000003e0: dd80 423e 3185 ef3e 27f3 e53d 27d9 cb3e
000003f0: 8719 8a3e bfa4 97be 8366 56be 2a29 733d

fc1.bias f4 [128]
-0.35549995 -0.05067535 0.30473903 -0.43796325 -0.0416087 0.17593761 -0.31201062 -0.2737529
0.07835246 -0.43805978 0.1738723 0.05428948 -0.17735897 0.081703246 -0.4699477 -0.18801501
0.23134801 -0.123894855 0.48901442 -0.10401398 0.16132577 -0.15886559 0.3019511 -0.4552724
-0.08486486 -0.00019625254 0.15385368 0.40419963 -0.2848813 -0.006504398 -0.01912473 -0.24052653
-0.36977196 0.41427338 0.030187508 -0.26366773 0.265552 0.3664137 -0.27101094 -0.31118128
-0.43399397 -0.08996936 0.12068071 0.14675583 -0.3787507 -0.048973013 -0.13604192 0.18923081
-0.24315047 -0.19288276 0.34291935 -0.2677839 0.26977408 0.0857441 0.17472821 0.3594337
0.09131853 -0.4830414 -0.18650487 0.22281672 0.1715228 -0.13214315 0.007445232 0.16406259
0.24722289 0.16327791 0.0984135 0.093304306 0.4161044 0.4188485 -0.49847123 0.45136338
0.046192702 -0.011002802 0.23773211 -0.38064033 0.2698742 0.09045512 0.05914758 -0.1487997
0.031433046 0.23604065 0.025282752 -0.21164304 0.06602812 -0.01914727 0.13582359 0.23415609
-0.22148682 -0.224161 -0.330184 -0.21307819 0.33074996 -0.43640777 0.08022201 -0.37389725
-0.37913203 -0.45124358 -0.16709536 -0.22872263 -0.43364513 0.29186094 -0.3818435 0.47099128
-0.23282914 -0.19303574 0.05833525 -0.28860354 -0.17994407 -0.19408697 0.28192905 -0.3971134
-0.46151203 -0.024588946 0.27504665 -0.011557247 0.12781635 0.48358482 0.028959746 0.3002893
-0.36081073 -0.21618909 -0.4409084 -0.39708304 0.09364412 -0.054732718 0.38044927 -0.09940966
00000000: 1704 b6be f590 4fbd c106 9c3e b83c e0be
00000010: e26d 2abd fd28 343e dbbf 9fbe 5729 8cbe
00000020: 4177 a03d 5f49 e0be 950b 323e a55e 5e3d
00000030: 979d 35be 0854 a73d fc9c f0be 0287 40be
00000040: 7ee6 6c3e 96bc fdbd 1960 fa3e 4805 d5bd
00000050: 9532 253e a9ad 22be 5699 9a3e 7719 e9be
00000060: a1cd adbd 24c9 4db9 d28b 1d3e 41f3 ce3e
00000070: f6db 91be d822 d5bb 77ab 9cbc 964c 76be
00000080: c052 bdbe a41b d43e cb4b f73c 75ff 86be
00000090: 6ff6 873e 949a bb3e f2c1 8abe 2753 9fbe
000000a0: 7534 debe db41 b8bd 7327 f73d 2947 163e
000000b0: 9deb c1be ed97 48bd 934e 0bbe b9c5 413e
000000c0: 70fc 78be 0f83 45be 2093 af3e f91a 89be
000000d0: d41f 8a3e 9a9a af3d f4eb 323e b207 b83e
000000e0: 3605 bb3d 3451 f7be 22fb 3ebe 112a 643e
000000f0: aca3 2f3e 8950 07be 22f7 f33b 0600 283e
00000100: ff27 7d3e 5332 273e 048d c93d 5416 bf3d
00000110: a30b d53e 5073 d63e 9f37 ffbe 1a19 e73e
00000120: 8f34 3d3d 1945 34bc 0c70 733e 4ae3 c2be
00000130: f32c 8a3e 8940 b93d bc44 723d f35e 18be
00000140: f0bf 003d a4b4 713e c61d cf3c f4b8 58be
00000150: c039 873d bcda 9cbc 5715 0b3e 9dc6 6f3e
00000160: 71cd 62be 768a 65be e10d a9be 2b31 5abe
00000170: 0f58 a93e d770 dfbe 704b a43d 766f bfbe
00000180: 981d c2be 6609 e7be 0c1b 2bbe 4436 6abe
00000190: bc06 debe cc6e 953e fe80 c3be c525 f13e
000001a0: c36a 6ebe 29ab 45be f1f0 6e3d d8c3 93be
000001b0: 4243 38be bcbe 46be 0159 903e 7352 cbbe
000001c0: 4e4b ecbe c26e c9bc ead2 8c3e 9b5a 3dbc
000001d0: 4ae2 023e 6e98 f73e fd3c ed3c 85bf 993e
000001e0: 2fbc b8be ac60 5dbe bfbe e1be 784e cbbe
000001f0: 7dc8 bf3d 6a2f 60bd 3fca c23e 4b97 cbbd

fc2.weight f4 [128, 128]
-0.099894635 -0.06441507 -0.030214151 0.015454705 0.018917017 0.045656633 -0.057133887 0.07769812
-0.029997151 -0.06606323 0.06640257 -0.023698155 -0.036947828 0.03969834 0.010691954 0.093682334
-0.040956475 0.09560602 0.05064631 -0.11037352 -0.06184731 -0.082559586 0.034222595 -0.043333985
-0.10401259 0.09922343 -0.081424385 0.0045378683 0.02743682 -0.052174885 0.059968013 -0.039405294
-0.032645155 -0.07357702 -0.05212371 -0.06476876 -0.040171545 -0.0066297813 -0.065170355 0.004180594
0.07971139 0.008633697 0.08397524 -0.0048560025 0.06875197 0.013667916 -0.047192026 0.009158841
0.0012905265 0.0517077 -0.064984046 -0.021681406 -0.051391292 -0.010178442 -0.053915545 0.0089751715
0.067530975 -0.025026474 0.011023523 0.011010043 -0.043931242 0.08596993 -0.073035404 -0.022197563
0.06509044 0.009419711 -0.081105195 -0.014522458 -0.066447936 -0.040585514 0.036321327 0.045276783
-0.08811142 0.05224396 0.015491294 0.06393525 -0.013560748 0.020366238 -0.062911 -0.023180947
-0.054796517 0.08595242 -0.01732569 0.058997773 -0.09495863 -0.013337433 -0.06503745 0.0026605604
-0.03801565 -0.057101764 0.05210932 0.061106477 0.028469868 0.08884048 0.046485286 0.019310925
-0.00046224645 -0.062317498 0.08295149 -0.0025915366 -0.009994225 -0.08134619 0.030863937 0.061321497
0.07485839 -0.045735613 0.04767918 -0.09719836 -0.05861898 0.0132647315 0.025562603 -0.07169748
-0.019093717 0.07887383 -0.031686507 0.023553519 0.014277779 -0.08595526 0.074487515 0.08799953
-0.010801907 -0.046833713 -0.08744962 -0.016430587 -0.03447254 0.028250562 -0.055697013 -0.0018496361
0.07771907 0.018930063 -0.039309543 0.07500674 0.020724291 -0.10109167 0.06187007 0.004597569
-0.06395227 -0.043864872 0.014962746 -0.10382475 -0.044538524 -0.03765244 0.067926876 -0.0047132582
-0.10022742 0.051466282 -0.047142856 -0.0040441384 0.011808093 -0.09094233 0.049466074 -0.002557914
-0.008731836 0.04691288 -0.0049232277 -0.024151905 -0.061089564 0.022612426 0.058587484 0.087519296
0.013949216 -0.07927765 0.028829137 -0.06242749 -0.019899055 0.02195748 -0.08369569 -0.072124206
-0.07028279 -0.09115213 -0.02843424 -0.040311478 0.04429853 0.09667262 0.0493563 0.06211078
-0.025913917 0.08396722 0.038047444 -0.023785295 -0.00960779 -0.0059334915 -0.03109108 0.015800072
0.085341685 -0.05033212 0.021612978 -0.036266968 -0.07777107 0.029296108 0.113559216 -0.013425651
-0.031515975 -0.02721405 0.023945142 0.08159564 -0.0959858 -0.037914027 0.091208175 0.067639835
0.009417034 -0.0625988 0.08054477 -0.09454452 0.018987546 -0.04848974 -0.08472571 -0.020094771
-0.10603642 -0.0018933201 -0.014157873 -0.099919386 -0.009797149 -0.0011425645 -0.0022830209 -0.111661494
-0.09275069 0.0064278133 -0.013909154 0.026820054 -0.04370228 -0.024881503 -0.008141931 0.09695694
-0.06859901 -0.0062601673 -0.0035118598 0.05444389 0.0027670187 -0.042593073 0.07045726 0.0936932
0.0693398 0.08169279 -0.060365867 -0.031613514 0.07338587 0.036537625 -0.022563722 -0.066240996
-0.012378626 -0.09278599 -0.0022537417 -0.03158374 -0.06077541 -0.03647888 -0.023354478 -0.07180485
0.06704772 0.008507722 -0.05916772 -0.012702759 -0.08753891 0.019321183 0.05399105 0.06628963
00000000: 8f95 ccbd 0cec 83bd ab83 f7bc bb35 7d3c
00000010: dcf7 9a3c 7302 3b3d 3905 6abd 3120 9f3d
00000020: 96bc f5bc 294c 87bd 12fe 873d a222 c2bc
00000030: 9b56 17bd ba9a 223d 4e2d 2f3c 86dc bf3d
00000040: fac1 27bd 17cd c33d 8172 4f3d 830b e2bd
00000050: 9b53 7dbd 0015 a9bd fe2c 0c3d fa7e 31bd
00000060: 8e04 d5bd a735 cb3d d4c1 a6bd 66b2 943b
00000070: 2fc3 e03c 55b5 55bd 05a1 753d 7267 21bd
00000080: edb6 05bd 8caf 96bd ac7f 55bd 7ca5 84bd
00000090: eb8a 24bd a33e d9bb 0978 85bd 5dfd 883b
000000a0: ba3f a33d 5a74 0d3c 36fb ab3d 1a1f 9fbb
000000b0: d5cd 8c3d 65ef 5f3c 6d4c 41bd f70e 163c
000000c0: e226 a93a 74cb 533d 5b16 85bd 349d b1bc
000000d0: ad7f 52bd 7bc3 26bc 8cd6 5cbd 990c 133c
000000e0: ae4d 8a3d 5204 cdbc 029c 343c 7863 343c
000000f0: 3ff1 33bd 0111 b03d 9693 95bd aad7 b5bc
00000100: 234e 853d 2255 1a3c 7b1a a6bd 9bef 6dbc
00000110: db15 88bd ff3c 26bd acc5 143d 2674 393d
00000120: c373 b4bd c3fd 553d 32cf 7d3c 7cf0 823d
00000130: e62d 5ebc 19d7 a63c 7bd7 80bd f8e5 bdbc
00000140: 5072 60bd d307 b03d 9bee 8dbc a6a7 713d
00000150: ac79 c2bd 4085 5abc 5b32 85bd cc5c 2e3b
00000160: 4cb6 1bbd 8ae3 69bd 9570 553d c94a 7a3d
00000170: a439 e93c fff1 b53d 5b67 3e3d f231 9e3c
00000180: ab59 f2b9 a240 7fbd 79e2 a93d c5d6 29bb
00000190: d1be 23bc d598 a6bd 5ed6 fc3c 402c 7b3d
000001a0: 5b4f 993d 4455 3bbd 3e4b 433d ef0f c7bd
000001b0: 751a 70bd 5154 593c aa68 d13c 21d6 92bd
000001c0: 6d6a 9cbc 9a88 a13d b6c9 01bd 4ff3 c03c
000001d0: 58ed 693c 5009 b0bd e98c 983d 1939 b43d
000001e0: 7bfa 30bc b5d4 3fbd c918 b3bd 7099 86bc
000001f0: 1433 0dbd b96d e73c 8d22 64bd 7d6f f2ba
00000200: 2d2b 9f3d 3813 9b3c 0b03 21bd 229d 993d
00000210: fdc5 a93c 2609 cfbd 786b 7d3d 34a7 963b
00000220: 68f9 82bd a7ab 33bd 4e26 753c 12a2 d4bd
00000230: 076e 36bd 7239 1abd 3f1d 8b3d ad71 9abb
00000240: 0944 cdbd 4fce 523d de18 41bd b184 84bb
00000250: bb76 413c f93f babd f09c 4a3d ada2 27bb
00000260: fa0f 0fbc b827 403d 0753 a1bb 37da c5bc
00000270: 0d39 7abd b23d b93c 6ef9 6f3d 513d b33d
00000280: 418b 643c 525c a2bd 152b ec3c f8b3 7fbd
00000290: 5803 a3bc 2ce0 b33c a568 abbd dbb5 93bd
000002a0: 6cf0 8fbd f8ad babd ecee e8bc a61d 25bd
000002b0: 6072 353d 4bfc c53d d529 4a3d e067 7e3d
000002c0: 6c49 d4bc 01f7 ab3d a3d7 1b3d 61d9 c2bc
000002d0: fe69 1dbc bc6d c2bb b8b2 febc 276f 813c
000002e0: 9fc7 ae3d 0e29 4ebd b30d b13c ac8c 14bd
000002f0: 7046 9fbd 64fe ef3c bc91 e83d 43f7 5bbc
00000300: e516 01bd 00f0 debc 9a28 c43c 9d1b a73d
00000310: 3494 c4bd bd4b 1bbd 5acb ba3d c186 8a3d
00000320: e749 1a3c cd33 80bd a8f4 a43d 8fa0 c1bd
00000330: c58b 9b3c 2d9d 46bd ac84 adbd ca9d a4bc
00000340: 9f29 d9bd 4829 f8ba 6cf6 67bc 89a2 ccbd
00000350: 3984 20bc 1ac2 95ba bc9e 15bb c8ae e4bd
00000360: 13f4 bdbd 68a0 d23b 38e3 63bc bbb5 db3c
00000370: 2901 33bd 4bd4 cbbc bc65 05bc 5c91 c63d
00000380: a37d 8cbd 1722 cdbb 3b27 66bb 8e00 5f3d
00000390: df56 353b 1376 2ebd e54b 903d 38e2 bf3d
000003a0: 0602 8e3d 8d4e a73d 3342 77bd 2c7d 01bd
000003b0: 554b 963d 7aa8 153d 8ed7 b8bc 5ca9 87bd
000003c0: b8cf 4abc 9506 bebd 83b3 13bb f45d 01bd
000003d0: a3ef 78bd e16a 15bd e451 bfbc 6c0e 93bd
000003e0: 5150 893d f963 0b3c da59 72bd 3c1f 50bc
000003f0: 9a47 b3bd 7547 9e3c b825 5d3d dcc2 873d

fc2.bias f4 [128]
0.04128117 0.057663687 0.0458138 -0.00033235515 -0.08712773 0.016385444 -0.035741203 -0.03794101
0.028862353 -0.057375383 -0.0026966166 -0.04081165 -0.024361273 0.045397643 -0.042911228 -0.08012586
0.05313632 0.02884057 -0.053698737 0.0716161 0.02204176 -0.06520747 0.0027625023 -0.018122409
-0.03892905 -0.014691279 -0.06914719 0.01085782 -0.034654688 0.023109118 -0.047917794 0.010924096
-0.0873439 0.04770878 -0.08082664 0.06308105 0.062598966 -0.08977782 0.03243242 -0.059290893
0.013058765 -0.018248213 -0.027613645 0.076540336 -0.044098124 0.050178964 0.010946028 0.08773059
0.05146456 -0.016365075 -0.03910168 0.038407635 -0.043295067 0.009079353 0.057805974 -0.06679237
-0.035527024 0.040827118 0.066760965 -0.0012645731 -0.08059809 -0.0014531829 -0.05283046 -0.055342596
0.03134925 -0.050496586 -0.043966774 -0.07813642 -0.01279542 0.08652358 0.07035913 -0.010210027
-0.044956267 -0.04595637 0.07418494 0.018046044 0.035414413 0.0083218645 -0.06593664 0.019050416
0.05558339 -0.004762713 -0.007839777 -0.01600415 0.07750992 0.0053158836 -0.085999526 -0.008777468
-0.031405106 -0.061077796 -0.014909852 0.044978593 -0.055675797 0.08643772 -0.044806235 0.034784585
-0.056234118 -0.023038266 0.020576278 -0.011371621 0.045685504 0.069342636 0.00542821 0.040111765
-0.062708944 -0.070097126 -0.029095974 0.069931336 0.019228328 0.090808034 -0.009656389 -0.07901549
0.008143766 0.03902868 0.039024886 -0.055782374 0.035036378 0.087206095 0.037530683 0.018270107
-0.007908735 -0.040673196 -0.017625546 0.061186105 -0.07085099 0.06590837 0.01544059 -0.07616465
00000000: 7216 293d c230 6c3d 40a7 3b3d f43f aeb9
00000010: 0670 b2bd c43a 863c 5e65 12bd 0868 1bbd
00000020: be70 ec3c 7302 6bbd b8b9 30bb 1e2a 27bd
00000030: 4b91 c7bc e1f2 393d afc3 2fbd 0719 a4bd
00000040: 78a5 593d 0f43 ec3c 35f3 5bbd 76ab 923d
00000050: ec90 b43c 7e8b 85bd 190b 353b 7275 94bc
00000060: 1174 1fbd b1b3 70bc 0b9d 8dbd ffe4 313c
00000070: 13f2 0dbd 554f bd3c 7345 44bd fbfa 323c
00000080: 5ce1 b2bd 486a 433d 7088 a5bd a330 813d
00000090: e333 803d 6fdd b7bd dbd7 043d 02db 72bd
000000a0: 6ef4 553c 477d 95bc 0336 e2bc 2ec1 9c3d
000000b0: 3ca0 34bd 7588 4d3d f856 333c 18ac b33d
000000c0: 81cc 523d 0d10 86bc 1529 20bd 5351 1d3d
000000d0: 2b56 31bd 91c1 143c f5c5 6c3d 70ca 88bd
000000e0: c984 11bd 563a 273d f9b9 883d 08c0 a5ba
000000f0: 9d10 a5bd ba78 beba c164 58bd ebae 62bd
00000100: 1268 003d 82d5 4ebd 8116 34bd fd05 a0bd
00000110: e2a3 51bc 4633 b13d 7318 903d f547 27bc
00000120: 1024 38bd bf3c 3cbd 46ee 973d 4cd5 933c
00000130: b40e 113d 6e58 083c ca09 87bd 9e0f 9c3c
00000140: 69ab 633d 8810 9cbb 6872 00bc 231b 83bc
00000150: 85bd 9e3d dd30 ae3b 8520 b0bd 5fcf 0fbc
00000160: a4a2 00bd b62c 7abd 7448 74bc 793b 383d
00000170: 4e0c 64bd 4206 b13d be86 37bd 487a 0e3d
00000180: bf55 66bd bfba bcbc 958f a83c 0950 3abc
00000190: b920 3b3d 8303 8e3d 20df b13b 3c4c 243d
000001a0: 8c6d 80bd 158f 8fbd ae5a eebc 2938 8f3d
000001b0: ba84 9d3c 90f9 b93d d535 1ebc e0d2 a1bd
000001c0: 6e6d 053c 8adc 1f3d 8fd8 1f3d 0f7c 64bd
000001d0: 4e82 0f3d 1c99 b23d c6b9 193d 31ab 953c
000001e0: a493 01bc f098 26bd 7363 90bc 489e 7a3d
000001f0: 531a 91bd f8fa 863d 87fa 7c3c 36fc 9bbd

fc3.weight f4 [2, 128]
0.043848544 -0.1017218 0.015896456 0.12462723 -0.0121871475 0.00041513055 0.05903541 0.0530624
0.08837401 0.08685542 -0.11665947 -0.08860258 0.059050918 -0.026792495 0.13102221 -0.10956194
0.018563703 -0.088710494 0.02863826 0.09649386 0.013212931 -0.06870803 0.046174403 0.0020653806
0.0642324 0.015433996 0.105889075 -0.026314817 -0.11134241 -0.08735353 -0.091367655 -0.05974036
0.033475123 -0.010232608 -0.05408918 0.046689622 -0.043789037 -0.08857585 0.084647216 -0.07179814
0.033131354 -0.041332673 0.06194261 -0.004671558 0.09068079 -0.04090063 -0.074210055 0.09248068
-0.12024679 -0.0687356 -0.06535202 0.0026632322 -0.03492658 -0.016662953 -0.06591531 -0.0775092
0.04171903 0.012794993 0.100269176 -0.007262134 0.04303773 -0.11362657 -0.054172534 0.0045996285
0.072599865 -0.054539666 -0.07794043 -0.06994731 0.052398365 0.1052666 -0.055260714 0.06755695
0.10504368 0.072739154 -0.0018554773 0.12148577 -0.072973326 -0.047421906 0.044747535 -0.02380981
-0.017635912 0.01250852 0.035789974 0.031048834 0.065988384 -0.052293316 -0.010661091 -0.037180744
0.030150099 -0.12141861 -0.045531865 -0.027189294 0.11611216 0.022547107 -0.089809656 0.060568456
-0.08491077 -0.00054746977 0.06276528 -0.072637945 -0.035512544 -0.07192307 0.12026781 0.017942578
-0.06562261 0.06612577 0.030253585 0.05190513 0.08793989 -0.024237607 -0.0708876 0.010153595
0.016672192 -0.110740215 0.0035591056 0.112549655 0.030421564 0.012770734 -0.030827314 0.1025979
0.13697638 0.093669176 -0.06660742 -0.05725984 -0.030445082 -0.07446594 0.021428894 0.006776723
-0.058783587 0.055677433 -0.09307923 0.03052172 0.05409271 0.11648226 -0.08297331 -0.04740128
-0.12071316 -0.02171073 0.13313465 -0.03487298 -0.02276294 0.022619776 -0.10271655 0.13458598
0.11087252 0.038049016 0.02838338 -0.07902487 0.016729103 0.0282422 -0.07166358 -0.047483966
-0.019212833 0.09262499 -0.07426777 0.081972264 0.04021469 0.12170768 -0.053293828 -0.0033651073
0.09352756 0.084638156 0.04855047 -0.09150217 -0.08608586 0.040194854 -0.04526805 0.030500049
-0.09189486 0.051184505 -0.01735717 -0.077344984 0.0311868 -0.0030779156 0.01224727 -0.00069586956
0.034367938 -0.016159566 0.018067686 0.09677127 0.04295684 -0.030293636 0.03597147 -0.070988774
-0.018655807 0.08070085 -0.052692074 0.10039213 -0.08270801 0.07791632 -0.058254022 -0.06851495
0.018678028 -0.037505873 0.039342184 -0.009305087 -0.021447232 -0.101043254 -0.07831822 0.041888837
-0.114727646 0.013350295 -0.07128386 -0.11766784 -0.0066690356 0.025763262 -0.015985925 -0.12976778
-0.052630205 0.04740889 0.0810498 0.023436949 -0.081361875 0.1374298 0.03478324 -0.08241143
0.10636029 0.0961226 -0.11544566 -0.07257655 0.051205326 -0.03569424 0.031272814 -0.11156475
-0.025856085 -0.07291244 0.071077615 0.036374386 0.048469663 0.035150778 -0.020313531 -0.07934295
0.070835896 -0.079949796 0.07755088 0.0072001307 -0.065219596 -0.06933374 0.03083434 0.057389088
0.092106104 0.004078451 0.08835062 -0.059033982 -0.09758524 -0.049548447 0.08725039 0.04213197
-0.09569204 -0.055243302 0.04983247 0.106838495 -0.035854563 0.05717614 0.106386475 -0.07494423
00000000: 889a 333d 8553 d0bd 4939 823c 903c ff3d
00000010: 9aac 47bc e1a5 d939 1dcf 713d f657 593d
00000020: 6ffd b43d 41e1 b13d 29eb eebd 4575 b5bd
00000030: 60df 713d ef7b dbbc b02a 063e 0362 e0bd
00000040: e812 983c d9ad b5bd c99a ea3c 939e c53d
00000050: 0d7b 583c ccb6 8cbd 5f21 3d3d 565b 073b
00000060: 478c 833d dfde 7c3c 5fdc d83d 2c92 d7bc
00000070: 7d07 e4bd 68e6 b2bd f71e bbbd 4fb2 74bd
00000080: 361d 093d aba6 27bc 9e8c 5dbd 9e3d 3f3d
00000090: 225c 33bd 4167 b5bd 855b ad3d e70a 93bd
000000a0: beb4 073d 734c 29bd 89b7 7d3d de13 99bb
000000b0: dab6 b93d 6b87 27bd 71fb 97bd 8366 bd3d
000000c0: f343 f6bd 40c5 8cbd 48d7 85bd 9f89 2e3b
000000d0: 2c0f 0fbd bf80 88bc 9bfe 86bd 25bd 9ebd
000000e0: 93e1 2a3d 17a2 513c ed59 cd3d 32f7 edbb
000000f0: 5548 303d 0cb5 e8bd 05e4 5dbd 7bb8 963b
00000100: 3daf 943d fc64 5fbd 3b9f 9fbd 8940 8fbd
00000110: ab9f 563d 0496 d73d 0f59 62bd 4c5b 8a3d
00000120: 2421 d73d 44f8 943d 7d33 f3ba 88cd f83d
00000130: 0a73 95bd 793d 42bd 3149 373d ca0c c3bc
00000140: 3079 90bc 89f0 4c3c 8298 123d 205a fe3c
00000150: eb24 873d 8431 56bd dbab 2ebc d64a 18bd
00000160: 57fd f63c 52aa f8bd 9f7f 3abd 15bc debc
00000170: 36cc ed3d b6b4 b83c 20ee b7bd a116 783d
00000180: b3e5 adbd 1384 0fba 158b 803d 34c3 94bd
00000190: 9a75 11bd 674c 93bd f84e f63d 50fc 923c
000001a0: 2665 86bd f36c 873d 5ed6 f73c 799a 543d
000001b0: d419 b43d f28d c6bc 852d 91bd 445b 263c
000001c0: 1f94 883c c4cb e2bd e23f 693b 6f80 e63d
000001d0: a536 f93c 573c 513c 9089 fcbc d91e d23d
000001e0: 8943 0c3e a0d5 bf3d 7969 88bd 4b89 6abd
000001f0: f767 f9bc 9981 98bd a68b af3c 460f de3b
00000200: 0fc7 70bd 050e 643d 53a0 bebd b008 fa3c
00000210: 5190 5d3d 408e ee3d e9ed a9bd d827 42bd
00000220: 7638 f7bd b3da b1bc 7354 083e f8d6 0ebd
00000230: 5879 babc 1c4d b93c 0e5d d2bd e8d0 093e
00000240: 2211 e33d 49d9 1b3d 4384 e83c cbd7 a1bd
00000250: 790b 893c 305c e73c 5bc4 92bd 8c7e 42bd
00000260: 3b64 9dbc 2cb2 bd3d b319 98bd 13e1 a73d
00000270: 29b8 243d e041 f93d a14a 5abd 2289 5cbb
00000280: 618b bf3d c556 ad3d dcdc 463d 7d65 bbbd
00000290: c94d b0bd 5ca3 243d fe6a 39bd 3ddb f93c
000002a0: 5f33 bcbd d8a6 513d a030 8ebc 0c67 9ebd
000002b0: 767b ff3c dbb6 49bb c6a8 483c 046b 36ba
000002c0: 65c5 0c3d 1161 84bc af02 943c 0430 c63d
000002d0: 83f3 2f3d 5c2a f8bc d256 133d 9062 91bd
000002e0: 10d4 98bc 7d46 a53d a5d3 57bd 649a cd3d
000002f0: d162 a9bd 9792 9f3d c59b 6ebd 9151 8cbd
00000300: aa02 993c c29f 19bd 4525 213d 5d74 18bc
00000310: 1bb2 afbc c4ef cebd 4e65 a0bd a193 2b3d
00000320: 54f6 eabd 32bb 5a3c 46fd 91bd d6fb f0bd
00000330: ed87 dabb 7a0d d33c eaf4 82bc d8e1 04be
00000340: c592 57bd d32f 423d 70fd a53d d8fe bf3c
00000350: 0ea1 a6bd 66ba 0c3e df78 0e3d 53c7 a8bd
00000360: 6cd3 d93d eddb c43d c66e ecbd 04a3 94bd
00000370: adbc 513d 2034 12bd ec17 003d 0f7c e4bd
00000380: 24d0 d3bc 1e53 95bd 2491 913d 4ffd 143d
00000390: 2088 463d 43fa 0f3d 9068 a6bc 8e7e a2bd
000003a0: 6912 913d b8bc a3bd ffd2 9e3d 13ef eb3b
000003b0: da91 85bd d9fe 8dbd 4c98 fc3c d210 6b3d
000003c0: 20a2 bc3d 87a4 853b 2bf1 b43d 9ecd 71bd
000003d0: c5da c7bd 50f3 4abd 55b0 b23d 9392 2c3d
000003e0: 30fa c3bd cd46 62bd 221d 4c3d 24ce da3d
000003f0: 3cdc 12bd 8731 6a3d 27e1 d93d 5c7c 99bd

fc3.bias f4 [2]
0.04434194 0.029919537
00000000: e59f 353d d119 f53c
