CartPole/checkpoints/reinforce_cartpole/value_net_cartpole_reinforce.pth (torch, 72465 bytes, 5 tensors)

fc1.weight f4 [128, 4]
0.1186808 0.35283488 0.37073836 -0.11639467 0.1889054 -0.47360894 0.35051066 -0.43953896
0.35647014 -0.32746664 0.29559296 0.119381994 -0.3474482 0.28960302 0.11072056 0.06928673
-0.1337365 -0.112986386 -0.32307467 -0.33986226 0.21392483 -0.25813875 -0.42598116 0.1761642
-0.09287063 0.07269702 -0.20813176 0.30056274 -0.23613113 -0.39425975 0.25326517 -0.21125485
0.12352365 -0.29261637 0.16844495 -0.06458579 0.47887167 0.29141206 0.4579476 -0.31838888
0.37335935 -0.34322298 0.40827414 -0.06251562 -0.035101674 -0.46739396 -0.2609134 -0.20768976
-0.21185687 0.4191966 -0.03786242 -0.29579037 0.060555845 0.02886296 -0.35306886 0.16214675
0.13725133 0.0769231 -0.31817982 -0.2271424 0.42924547 -0.33413383 -0.39656642 -0.18793021
-0.31338832 -0.36066967 -0.17167892 0.3508104 -0.1298315 -0.402133 -0.22580098 0.4817648
-0.21301018 0.27051458 0.42212144 -0.2190817 -0.011583152 -0.055743705 0.5290389 0.14342211
0.01967596 0.23830754 -0.26625752 0.16728128 0.48517963 0.45861804 0.3548701 0.1775641
0.011805547 0.23781313 0.42717108 0.28118163 0.095960006 0.18946637 0.31025738 0.3300961
-0.14514455 0.44664297 0.21273072 -0.36529955 -0.22445665 0.07106161 -0.105007075 0.20604602
0.064542286 -0.31154332 0.31276566 0.43322164 -0.15707667 0.3505744 0.38797352 0.11009912
-0.00911634 -0.07385455 -0.07326083 0.2059247 -0.37996104 0.10973393 0.14853172 0.06046439
-0.45602068 -0.26916522 0.11527772 0.19860819 -0.119010866 -0.2068219 0.05249443 -0.31035283
-0.32942036 0.3002456 -0.48725814 -0.12705353 -0.42275083 -0.35069048 0.107194915 0.20103852
-0.2515976 -0.42761055 -0.48364794 0.29799023 -0.3968248 0.0016699972 0.2057306 -0.42024234
-0.49686143 -0.2593743 -0.07899224 -0.2295179 -0.3919229 -0.30251905 0.005748806 0.42396784
-0.4364533 0.044146262 -0.4999198 -0.38814002 -0.27805945 -0.33035508 -0.00403242 -0.18025236
0.16293855 0.41962424 -0.053203326 0.21141349 -0.23811583 0.06755144 -0.19072887 -0.35083792
0.08145193 0.16543297 0.5369361 0.10352158 0.14915523 -0.065250784 -0.43144077 0.103515275
-0.17595913 0.20307171 0.13779888 -0.21921016 -0.053959884 0.316521 0.31926563 0.1451317
-0.45993912 0.24208857 -0.20793384 -0.418943 0.32706797 -0.16919902 -0.0904395 0.2892881
-0.01011088 -0.08896342 0.09110721 -0.001265406 0.19659519 -0.17285566 -0.2268702 -0.13904724
-0.38822123 -0.028650591 -0.013883277 0.40429333 -0.29010117 0.29332402 0.05979282 -0.09988324
-0.33552143 0.42800215 0.06786647 0.11628733 -0.17777178 -0.2786373 0.30791828 0.2001899
0.0896986 -0.09286597 -0.2068965 0.3062288 -0.3345606 -0.121767476 0.29238653 0.35850337
0.23087195 -0.041914053 0.40951926 0.47618234 0.37085807 -0.27230147 0.26706862 -0.31855607
0.40113854 -0.217103 -0.41237918 -0.06187101 -0.38111216 0.3801337 -0.36845624 -0.1489974
-0.0080945045 0.3105567 -0.10926306 0.37961444 0.10736614 0.2621902 0.41187274 -0.36133713
0.37252527 -0.14856422 0.29264048 0.29004186 -0.32433045 -0.11616655 0.2851465 0.22283775
00000000: eb0e f33d c6a6 b43e 6bd1 bd3e 5460 eebd
00000010: 6b70 413e df7c f2be 2276 b33e 400b e1be
00000020: 4183 b63e b5a9 a7be f657 973e 8c7e f43d
00000030: bbe4 b1be d946 943e 76c1 e23d 33e6 8d3d
00000040: 39f2 08be 6865 e7bd 0b6a a5be 6d02 aebe
00000050: 1c0f 5b3e c32a 84be 341a dabe 6364 343e
00000060: f532 bebd 2de2 943d 7e20 55be 5ce3 993e
00000070: 5ccc 71be 6adc c9be f9ab 813e 3153 58be
00000080: f8f9 fc3d d0d1 95be d57c 2c3e 8e45 84bd
00000090: ab2e f53e f633 953e 1c78 ea3e de03 a3be
000000a0: f528 bf3e ecba afbe 4f09 d13e 3008 80bd
000000b0: c6c6 0fbd 434e efbe 7196 85be a0ac 54be
000000c0: 02f1 58be f0a0 d63e a015 1bbd d671 97be
000000d0: 6809 783d 0472 ec3c 71c5 b4be cc09 263e
000000e0: 9d8b 0c3e dc89 9d3d 77e8 a2be 0498 68be
000000f0: 10c6 db3e 9713 abbe c10a cbbe c770 40be
00000100: 6f74 a0be b2a9 b8be 99cc 2fbe 6c9d b33e
00000110: 8cf2 04be 60e4 cdbe 5f38 67be e0a9 f63e
00000120: 571f 5abe e380 8a3e 4d20 d83e f456 60be
00000130: 43c7 3dbc 8353 64bd 186f 073f 3fdd 123e
00000140: 7b2f a13c e406 743e e852 88be c94b 2b3e
00000150: 7769 f83e fccf ea3e 89b1 b53e 5dd3 353e
00000160: 0e6c 413c 4985 733e 2bb6 da3e 0af7 8f3e
00000170: ae86 c43d 7903 423e 0eda 9e3e 5b02 a93e
00000180: c6a0 14be 63ae e43e 15d6 593e 8b08 bbbe
00000190: f7d7 65be c088 913d f30d d7bd bafd 523e
000001a0: bf2e 843d 9b82 9fbe d222 a03e 3acf dd3e
000001b0: b5d8 20be 7d7e b33e 77a4 c63e a67b e13d
000001c0: b45c 15bc 0e41 97bd c609 96bd eddd 523e
000001d0: 418a c2be 2fbc e03d b318 183e 82a9 773d
000001e0: 8b7b e9be 06d0 89be ba16 ec3d f25f 4b3e
000001f0: f8bb f3bd 1fc9 53be 6604 573d 91e6 9ebe
00000200: c9a9 a8be cbb9 993e e679 f9be 521a 02be
00000210: cc72 d8be b48d b3be 0289 db3d 0bdd 4d3e
00000220: 67d1 80be c5ef dabe b4a0 f7be 2d92 983e
00000230: 9f2c cbbe cfe3 da3a 0bab 523e 012a d7be
00000240: 9f64 febe b5cc 84be afc6 a1bd be06 6bbe
00000250: 1eaa c8be c7e3 9abe 7b60 bc3b 5012 d93e
00000260: cf76 dfbe b6d2 343d 7df5 ffbe 4aba c6be
00000270: cf5d 8ebe 4d24 a9be 6422 84bb 1394 38be
00000280: 5dd9 263e fdd8 d63e bbeb 59bd c77c 583e
00000290: a3d4 73be 6958 8a3d 6e4e 43be 07a1 b3be
000002a0: 45d0 a63d 4367 293e a574 093f 1f03 d43d
000002b0: 26bc 183e 34a2 85bd cee5 dcbe d1ff d33d
000002c0: a12e 34be 08f2 4f3e 261b 0d3e a178 60be
000002d0: 0a05 5dbd 0a0f a23e c976 a33e 689d 143e
000002e0: 247d ebbe 11e6 773e 9cec 54be b27f d6be
000002f0: 7475 a73e 8242 2dbe 5838 b9bd 921d 943e
00000300: 1ba8 25bc 7432 b6bd 6b96 ba3d fbdb a5ba
00000310: 4050 493e 1301 31be a950 68be 6662 0ebe
00000320: efc4 c6be a5b4 eabc af76 63bc 89ff ce3e
00000330: 2488 94be 912e 963e 51e9 743d 968f ccbd
00000340: 77c9 abbe 1923 db3e 93fd 8a3d 0d28 ee3d
00000350: ce09 36be 8ca9 8ebe 77a7 9d3e 95fe 4c3e
00000360: e6b3 b73d 8430 bebd addc 53be 05ca 9c3e
00000370: 874b abbe 3a61 f9bd b0b3 953e c18d b73e
00000380: b269 6c3e 12ae 2bbd 82ac d13e 2cce f33e
00000390: 1ce1 bd3e 196b 8bbe 38bd 883e c819 a3be
000003a0: 0862 cd3e 4050 5ebe 5d23 d3be 756c 7dbd
000003b0: 2221 c3be e2a0 c23e 4ca6 bcbe c692 18be
000003c0: d09e 04bc 4a01 9f3e 50c5 dfbd d35c c23e
000003d0: c7e2 db3d cb3d 863e fce0 d23e 2e01 b9be
000003e0: a2bb be3e 3821 18be f9d4 953e 5e80 943e
000003f0: a40e a6be bae8 edbd b9fe 913e 942f 643e

fc1.bias f4 [128]
-0.5440129 -0.6208011 -0.3015463 -0.55022305 0.18499362 0.29094166 0.2403834 0.16118214
-0.3614073 0.2756273 -0.2228932 -0.2985266 0.4615794 -0.5583827 -0.5191641 0.24703477
0.26256916 0.13877174 -0.4648876 0.40379068 -0.31298628 0.020612624 -0.45731515 0.5421988
0.04827231 0.56242895 0.2484099 0.20125738 0.34361905 0.20572388 -0.25471848 0.6186078
-0.64168406 -0.64646965 -0.6174348 0.57105273 -0.2917567 0.6269807 -0.33156633 -0.4908953
0.24967737 -0.41017184 0.34335548 -0.6146663 -0.41767606 0.44481462 -0.0344983 -0.58826905
0.2866769 -0.50797385 -0.6382745 -0.2521893 -0.30165613 -0.5155211 -0.41493982 0.33018792
0.261316 -0.24344529 0.5691912 -0.3843214 -0.49614763 -0.38850948 -0.32245547 0.6141332
0.47236174 0.1939274 0.55116254 0.2730067 0.37933764 0.3132717 -0.28616017 -0.30878124
-0.18594922 0.5195818 0.47814655 -0.26467213 -0.2144399 -0.31635293 0.10202473 -0.30834004
-0.3129459 0.3091182 0.32545513 0.24681613 -0.14993931 0.5455393 0.4901215 0.36402783
-0.38562512 0.2268882 -0.35052705 0.6450168 0.237826 -0.6169736 -0.42473036 0.1840571
-0.32288027 -0.5393098 -0.18073258 0.21063119 -0.35420915 -0.45737183 0.55341476 -0.47804704
-0.34173703 -0.3044599 -0.17586799 -0.5588135 -0.589323 0.44656515 0.50425035 -0.5842209
-0.32759452 -0.56395555 -0.23277391 0.21983941 0.4355639 0.5248025 -0.5473559 -0.25821078
0.32947403 -0.24451555 0.60288304 0.63492334 0.62198544 -0.5195722 -0.53516245 -0.57532704
00000000: 6e44 0bbf d2ec 1ebf 4764 9abe 6bdb 0cbf
00000010: f86e 3d3e 4ef6 943e 1127 763e ee0c 253e
00000020: 610a b9be 051f 8d3e 1d3e 64be 7ad8 98be
00000030: 2354 ec3e 2bf2 0ebf f0e7 04bf aff6 7c3e
00000040: 776f 863e 2e1a 0e3e bf05 eebe a7bd ce3e
00000050: bd3f a0be cedb a83c 3625 eabe 8acd 0a3f
00000060: 30b9 453d 58fb 0f3f 2a5f 7e3e 6a16 4e3e
00000070: d6ee af3e 48a9 523e 766a 82be 155d 1e3f
00000080: 6845 24bf 097f 25bf 3510 1ebf 8330 123f
00000090: 2261 95be cf81 203f 10c3 a9be a156 fbbe
000000a0: 6dab 7f3e 0b02 d2be 4acc af3e c55a 1dbf
000000b0: a3d9 d5be bebe e33e 174e 0dbd cd98 16bf
000000c0: 51c7 923e 930a 02bf f565 23bf f51e 81be
000000d0: ac72 9abe 31f9 03bf fe72 d4be 640e a93e
000000e0: 36cb 853e b949 79be 84b6 113f c6c5 c4be
000000f0: 1007 febe b7ea c6be e218 a5be d537 1d3f
00000100: 66d9 f13e e894 463e fd18 0d3f 89c7 8b3e
00000110: 8b38 c23e 2665 a03e 9683 92be 9318 9ebe
00000120: 7969 3ebe 5003 053f a0cf f43e 1b83 87be
00000130: 2296 5bbe 03f9 a1be 57f2 d03d bfde 9dbe
00000140: 723a a0be be44 9e3e 0ea2 a63e 5ebd 7c3e
00000150: b189 19be 77a8 0b3f 35f1 fa3e db61 ba3e
00000160: a870 c5be 6155 683e 4878 b3be d21f 253f
00000170: a988 733e fbf1 1dbf 4276 d9be 7779 3c3e
00000180: 9050 a5be 3510 0abf f611 39be b4af 573e
00000190: e75a b5be a42c eabe 97ac 0d3f 95c2 f4be
000001a0: 28f8 aebe 2be2 9bbe bd16 34be 670e 0fbf
000001b0: dfdd 16bf 30a4 e43e 8d16 013f 808f 15bf
000001c0: 78ba a7be 645f 10bf 495c 6ebe 951d 613e
000001d0: 3b02 df3e 7559 063f 841f 0cbf 3434 84be
000001e0: d2b0 a83e 4962 7abe 8b56 1a3f 568a 223f
000001f0: 703a 1f3f af02 05bf 6800 09bf a248 13bf

fc2.weight f4 [128, 128]
-0.002312993 0.014804358 -0.018232282 -0.12531558 0.018860532 0.05926367 0.10064136 0.05217233
-0.14200321 0.043738488 0.027475651 -0.03834263 0.12225443 -0.057207637 -0.008481712 0.14038266
-0.028572517 0.011807638 -0.06293136 0.13330609 0.016518641 -0.015606332 -0.07963925 0.005350652
-0.0033168066 0.054114114 -0.035961315 0.06779175 0.13786551 -0.03138271 -0.09282843 0.14604801
-0.08700505 -0.019653713 -0.12680653 0.102908954 -0.06171096 0.106323704 -0.08472759 -0.09824054
-0.0048387935 -0.0255678 0.1448642 -0.13430017 -0.111646585 -0.012925193 0.020918842 -0.1046518
0.02465864 -0.11951052 -0.0266432 -0.13404998 -0.124414064 -0.027991544 -0.098279886 0.01015253
0.083530426 -0.06495982 0.049834568 -0.07354794 -0.0940612 0.03145157 -0.07783435 0.10719277
0.08045449 0.08467006 0.030251427 0.1637064 0.087451 0.050714135 -0.02571864 -0.07251267
-0.043183252 0.13325384 0.06779295 -0.026663499 -0.058677662 -0.02254355 0.086612165 -0.08294888
-0.009179396 0.11651641 0.08807454 0.03847886 -0.051381253 -0.011166014 0.13103735 0.12447523
-0.080535874 0.08942809 -0.128827 0.1292917 0.010822373 -0.028010475 -0.13359205 0.059223514
-0.049387567 -0.06682014 -0.0999974 0.13923113 -0.06941396 -0.10465311 0.035086513 -0.018246133
-0.08497192 0.0020937198 -0.06154431 -0.118583925 -0.11676869 0.12183304 0.08992028 -0.039136622
0.04266674 0.00499708 -0.12118582 0.032032862 0.03996827 0.116974734 -0.15501212 -0.12689254
-0.032772653 -0.046120286 0.040747322 0.039661344 -0.008313228 -0.14945519 -0.11107304 -0.1541858
0.012165387 0.05470796 0.008296899 0.06684729 -0.10876567 -0.026285572 -0.04083843 -0.049980514
0.060970258 -0.06622434 0.03924219 0.10358967 -0.058893893 0.13010633 0.017513068 -0.05701999
-0.08328422 -0.06523337 0.15373367 -0.09302851 0.074667715 0.062450882 0.043551747 -0.108030945
-0.06072994 -0.09052087 -0.0441576 -0.0685973 -0.077237725 -0.044463478 0.032735728 -0.10707813
0.07962252 0.112341285 -0.0012292095 -0.015118945 0.1301526 -0.0049334713 0.0028641794 0.092126496
-0.05438062 0.14928165 -0.09749828 0.14460157 0.10809018 0.00914949 0.06613636 0.02217395
-0.041899618 0.14018789 0.020855865 0.08522567 0.024884898 -0.008983602 0.06629537 -0.10014402
-0.0032910248 0.025653 -0.14907531 0.126815 0.008638963 0.046486627 0.063706264 -0.14459495
-0.05157541 -0.013872386 -0.12607932 -0.14679742 -0.12431075 -0.024106806 0.100235 0.09847496
0.07840315 0.0033384426 -0.15068543 0.12071872 0.09795151 0.07258691 0.050356884 0.09803738
0.1010214 -0.012041184 -0.15577245 -0.04684314 0.011568604 -0.068495505 -0.059173346 -0.059562113
-0.01245941 -0.11225276 0.033150222 -0.054779787 -0.10658153 0.072856046 0.02776179 -0.05252415
0.09412254 0.066291444 0.11239996 -0.10800528 0.118166275 0.06175905 -0.15277626 0.089054555
0.12972781 0.1225487 0.083108164 0.04580882 0.10132161 -0.15955095 -0.14955427 0.11617652
-0.00251728 0.07316565 0.123450935 0.018868 -0.07260521 -0.09515251 0.04620861 0.07565902
0.01653472 0.11782824 -0.104092814 -0.058463223 -0.061877523 0.082343556 0.041968755 0.042589314
00000000: 9595 17bb fa8d 723c de5b 95bc ba52 00be
00000010: 6781 9a3c 76be 723d 0f1d ce3d a7b2 553d
00000020: 4a69 11be 2127 333d 9e14 e13c 290d 1dbd
00000030: 8860 fa3d 8e52 6abd e1f6 0abc 79c0 0f3e
00000040: e910 eabc d374 413c 28e2 80bd 6481 083e
00000050: 1a52 873c b3b1 7fbc e719 a3bd 8654 af3b
00000060: c85e 59bb c3a6 5d3d 2c4c 13bd 67d6 8a3d
00000070: 9e2c 0d3e 288b 00bd d51c bebd 9c8d 153e
00000080: b42f b2bd d300 a1bc 92d9 01be eec1 d23d
00000090: a2c4 7cbd 3ec0 d93d a985 adbd 5632 c9bd
000000a0: be8e 9ebb 9073 d1bc 4857 143e fc85 09be
000000b0: f7a6 e4bd 30c4 53bc fe5d ab3c af53 d6bd
000000c0: eb00 ca3c eec1 f4bd d742 dabc 6644 09be
000000d0: cdcc febd 864e e5bc f746 c9bd cc56 263c
000000e0: 0012 ab3d a709 85bd 551f 4c3d 4da0 96bd
000000f0: 29a3 c0bd 5dd3 003d 9e67 9fbd e287 db3d
00000100: 53c5 a43d 7f67 ad3d d7d1 f73c a7a2 273e
00000110: 8319 b33d a0b9 4f3d e6af d2bc 8681 94bd
00000120: ece0 30bd b273 083e 08d7 8a3d 696d dabc
00000130: fd57 70bd 40ad b8bc b861 b13d 1ae1 a9bd
00000140: 2d65 16bc 28a0 ee3d 6d60 b43d 029c 1d3d
00000150: 2675 52bd a8f1 36bc a82e 063e dfec fe3d
00000160: feef a4bd 1326 b73d 3aeb 03be 0b65 043e
00000170: 5350 313c 3976 e5bc 5bcc 08be 5b94 723d
00000180: 9e4a 4abd ffd8 88bd 70cb ccbd 9b92 0e3e
00000190: e828 8ebd 5f54 d6bd e0b6 0f3d ea78 95bc
000001a0: c205 aebd ca36 093b e315 7cbd 21dc f2bd
000001b0: 6c24 efbd 9a83 f93d 2028 b83d b94d 20bd
000001c0: 52c3 2e3d 8cbe a33b 4530 f8bd e434 033d
000001d0: c5b5 233d 7390 ef3d 7fbb 1ebe 1ef0 01be
000001e0: 9e3c 06bd a0e8 3cbd aae6 263d ef73 223d
000001f0: 3534 08bc c80a 19be 437a e3bd e2e2 1dbe
00000200: 5551 473c 7415 603d b7ef 073c 3be7 883d
00000210: 89c0 debd d754 d7bc 3346 27bd 5eb8 4cbd
00000220: f3bb 793d a0a0 87bd 6bbc 203d d226 d43d
00000230: b93a 71bd 983a 053e 9177 8f3c cb8d 69bd
00000240: eb90 aabd 1399 85bd 5c6c 1d3e bb85 bebd
00000250: 63eb 983d 7fcc 7f3d 5163 323d 543f ddbd
00000260: f5bf 78bd 0263 b9bd 99de 34bd be7c 8cbd
00000270: d02e 9ebd 561f 36bd e615 063d c74b dbbd
00000280: 2211 a33d 3013 e63d 6d1d a1ba 74b5 77bc
00000290: b946 053e f5a8 a1bb f5b4 3b3b d1ac bc3d
000002a0: 37be 5ebd 4add 183e 2ead c7bd 6f12 143e
000002b0: 625e dd3d bee7 153c 8072 873d 25a6 b53c
000002c0: ef9e 2bbd 6a8d 0f3e ebd9 aa3c cc8a ae3d
000002d0: 6adb cb3c f52f 13bc dec5 873d 4f18 cdbd
000002e0: 3cae 57bb 3e26 d23c 33a7 18be cbdb 013e
000002f0: 708a 0d3c c368 3e3d 6e78 823d b310 14be
00000300: bd40 53bd 0149 63bc f01a 01be 1052 16be
00000310: a296 febd a37b c5bc 0248 cd3d 3dad c93d
00000320: d591 a03d c6c9 5a3b 484d 1abe 603b f73d
00000330: cd9a c83d 72a8 943d 0543 4e3d d2c7 c83d
00000340: 4fe4 ce3d 6348 45bc d082 1fbe 98de 3fbd
00000350: 3e8a 3d3c 5f47 8cbd c05f 72bd 67f7 73bd
00000360: 8e22 4cbc c6e4 e5bd 87c8 073d c560 60bd
00000370: 6b47 dabd 8d35 953d b26c e33c 9023 57bd
00000380: 51c3 c03d cfc3 873d f331 e63d df31 ddbd
00000390: 2901 f23d 0ff7 7c3d 6171 1cbe 3c62 b63d
000003a0: 5ed7 043e d0fa fa3d 9d34 aa3d 07a2 3b3d
000003b0: b481 cf3d 5361 23be c124 19be f5ed ed3d
000003c0: f3f8 24bb dfd7 953d d8d3 fc3d 1091 9a3c
000003d0: 0ab2 94bd 52df c2bd 3d45 3d3d 1ef3 9a3d
000003e0: d273 873c ef4f f13d 9d2e d5bd 2277 6fbd
000003f0: 4973 7dbd bda3 a83d 6ee7 2b3d 2272 2e3d

fc2.bias f4 [128]
0.1502361 -0.08071331 0.12655658 0.11425344 0.13023862 0.040438265 0.09581475 -0.08604328
-0.09045075 0.06631186 0.104513146 -0.009947394 -0.0919421 0.010916907 -0.0264341 0.053636122
-0.083109885 0.0749647 -0.043691173 -0.07461414 0.11963659 0.004529055 -0.10544328 0.14721286
0.118808426 -0.019513335 -0.16055404 0.07265158 -0.052406423 -0.09802226 0.158775 -0.1537567
-0.101479895 0.15361635 0.09233703 -0.033542264 0.10286528 0.0066978578 -0.037381463 0.08695458
-0.007353012 -0.08535466 0.1397458 0.05195656 0.025138535 -0.0037765093 0.0651981 0.018967576
-0.097134985 -0.022984117 0.049891382 -0.04750835 0.013559894 -0.011072523 0.13167676 -0.023358703
-0.1344391 0.08706303 -0.16335943 -0.058244016 -0.14064598 0.11619209 0.06905029 0.009121306
0.1393906 -0.14300752 -0.08470501 0.07480829 -0.039755438 0.024649195 -0.038405783 -0.007296221
-0.0067876284 -0.14202249 0.07572965 0.093774095 0.14393423 -0.1574115 -0.050583955 0.1427437
0.0060371784 -0.12534906 -0.037874244 0.009225954 0.021304233 -0.15342431 -0.0016876297 0.074190676
-0.074286036 -0.05166161 -0.08212652 0.11027645 -0.10303824 -0.11870065 -0.09152523 -0.116957545
0.08532117 -0.04537114 -0.0171115 -0.03660596 -0.10708151 0.12999111 0.1020452 0.04582917
0.07497873 0.028628787 0.12122963 -0.005487458 -0.12855123 0.019034162 -0.13839372 -0.09020404
-0.027573941 0.15210249 -0.046987288 -0.134992 0.12103158 -0.070328854 -0.013904435 -0.017062554
0.044717394 -0.009192941 0.08763102 -0.06152812 0.1454719 0.07380004 0.115113586 -0.05282808
00000000: 7ed7 193e 054d a5bd 0c98 013e b5fd e93d
00000010: 465d 053e 98a2 253d 863a c43d 7637 b0bd
00000020: 3e3e b9bd 83ce 873d fd0a d63d 65fa 22bc
00000030: 244c bcbd d4dc 323c 538c d8bc 8db1 5b3d
00000040: 8435 aabd 1887 993d 84f5 32bd 4ccf 98bd
00000050: 0704 f53d 7868 943b a5f2 d7bd f8be 163e
00000060: d551 f33d 6eda 9fbc 4768 24be 5aca 943d
00000070: 1ea8 56bd e5bf c8bd ea95 223e 6572 1dbe
00000080: b1d4 cfbd 9b4d 1d3e 321b bd3d 9d63 09bd
00000090: 08ab d23d b479 db3b 4e1d 19bd 3e15 b23d
000000a0: 89f1 f0bb 6dce aebd 8619 0f3e 67d0 543d
000000b0: 54ef cd3c 507f 77bb 9586 853d e461 9b3c
000000c0: b5ee c6bd 3049 bcbc e85a 4c3d 1e98 42bd
000000d0: 512a 5e3c 8769 35bc 46d6 063e c05a bfbc
000000e0: 67aa 09be 1a4e b23d b247 27be 4791 6ebd
000000f0: 8005 10be 1ef6 ed3d 3d6a 8d3d 8871 153c
00000100: 69bc 0e3e 9070 12be d279 adbd 1735 993d
00000110: 99d6 22bd 1ced c93c 624f 1dbd 2315 efbb
00000120: c16a debb 586e 11be 2618 9b3d a20c c03d
00000130: 7f63 133e 7b30 21be 1f31 4fbd 682b 123e
00000140: 86d3 c53b 815b 00be 0622 1bbd 7528 173c
00000150: 3786 ae3c 431b 1dbe 7533 ddba 48f1 973d
00000160: 4723 98bd 209b 53bd f331 a8bd 9fd8 e13d
00000170: b605 d3bd 5419 f3bd 9471 bbbd 7087 efbd
00000180: debc ae3d 17d7 39bd 6b2d 8cbc 22f0 15bd
00000190: 8d4d dbbd 641c 053e 13fd d03d 5eb7 3b3d
000001a0: 738e 993d eb86 ea3c 3e47 f83d 22d0 b3bb
000001b0: efa2 03be 88ed 9b3c 15b7 0dbe e5bc b8bd
000001c0: bfe2 e1bc c1c0 1b3e be75 40bd 583b 0abe
000001d0: 68df f73d 9308 90bd 6dcf 63bc c5c6 8bbc
000001e0: 9629 373d fd9d 16bc e477 b33d e904 7cbd
000001f0: 96f6 143e 7a24 973d acc0 eb3d 4262 58bd

fc3.weight f4 [1, 128]
0.34489372 -0.32606292 0.30606344 0.30230924 0.29649204 0.37272266 0.40036222 -0.34682688
-0.30407855 0.29493254 0.39650893 0.35581303 -0.39848518 0.33832902 -0.3183107 0.3295127
-0.31615886 0.38441113 -0.38221255 -0.35278225 0.35804626 0.36029953 -0.396371 0.36642572
0.34421784 -0.3068264 -0.30457652 0.3301015 -0.30534187 -0.3743793 0.32305357 -0.3324466
-0.3489578 0.3919441 0.34463912 -0.36114186 0.39187464 0.36439133 -0.400022 0.30022827
-0.34605575 -0.34160063 0.35480952 0.40168676 0.32225314 -0.33742058 0.40033162 -0.38046688
-0.38990003 -0.30504802 0.34093466 -0.33711082 0.36675912 -0.38223156 0.35204962 0.38363537
-0.30709824 0.304934 -0.31087556 -0.34595704 -0.31759694 0.3677509 0.38040924 0.37851295
0.3706848 -0.3977697 -0.30975103 0.3164954 -0.34096813 0.3878155 -0.31552392 -0.38814715
-0.39293164 -0.3765941 0.35506013 0.29859143 0.35006195 -0.31840083 -0.3073872 0.29678842
0.38570598 -0.32141846 -0.38122657 0.32507443 0.38822258 -0.29646313 0.34647086 0.3737
-0.33013484 -0.35289767 -0.37906736 0.32269898 -0.30875096 -0.31570777 -0.3180484 -0.33266526
0.37572202 -0.36271155 -0.31959888 -0.34010953 -0.31177917 0.2828081 0.30352345 0.33008486
0.3793776 0.33841583 0.36319393 -0.35139453 -0.38592535 0.2934184 -0.34905845 -0.35478702
-0.3239436 0.3744244 -0.3504219 -0.28351206 0.30926198 -0.28756058 -0.37769672 -0.3101495
0.38320535 0.34262642 0.30542943 -0.3131272 0.40291438 0.32778066 0.35622665 -0.33262673
00000000: e995 b03e b8f1 a6be 59b4 9c3e 47c8 9a3e
00000010: cecd 973e 81d5 be3e 47fc cc3e 4b93 b1be
00000020: 2fb0 9bbe 6601 973e 3803 cb3e 202d b63e
00000030: 4006 ccbe 7639 ad3e 9ff9 a2be e3b5 a83e
00000040: 93df a1be 89d1 c43e 5db1 c3be e09f b4be
00000050: d751 b73e 2e79 b83e 24f1 cabe 279c bb3e
00000060: 523d b03e 5a18 9dbe 74f1 9bbe 1003 a93e
00000070: c555 9cbe a5ae bfbe 4767 a53e 7136 aabe
00000080: 99aa b2be e6ac c83e 8a74 b03e 96e7 b8be
00000090: cba3 c83e 8091 ba3e afcf ccbe 85b7 993e
000000a0: 382e b1be 47e6 aebe 98a9 b53e e3a9 cd3e
000000b0: 5dfe a43e 64c2 acbe 44f8 cc3e 8ecc c2be
000000c0: faa0 c7be 412f 9cbe fd8e ae3e ca99 acbe
000000d0: dac7 bb3e dbb3 c3be d93f b43e db6b c43e
000000e0: fb3b 9dbe 4f20 9c3e 152b 9fbe 4821 b1be
000000f0: 119c a2be d949 bc3e 00c5 c23e 73cc c13e
00000100: 66ca bd3e 78a8 cbbe b097 9ebe af0b a23e
00000110: 6093 aebe c18f c63e 5a8c a1be 39bb c6be
00000120: 562e c9be f1d0 c0be 71ca b53e fae0 983e
00000130: 523b b33e 6f05 a3be db61 9dbe a7f4 973e
00000140: 417b c53e f690 a4be 2130 c3be 2870 a63e
00000150: 1cc5 c63e 04ca 97be a164 b13e 9b55 bf3e
00000160: 6f07 a9be 01af b4be 1e15 c2be cd38 a53e
00000170: 9b14 9ebe 73a4 a1be 3dd7 a2be 1a53 aabe
00000180: a35e c03e 54b5 b9be 77a2 a3be d622 aebe
00000190: 85a1 9fbe 39cc 903e 6d67 9b3e e200 a93e
000001a0: c83d c23e d744 ad3e 8ef4 b93e fce9 b3be
000001b0: 0298 c5be f03a 963e cab7 b2be a5a6 b5be
000001c0: efdb a5be 8eb4 bf3e 806a b3be 7e28 91be
000001d0: 9657 9e3e 243b 93be 7761 c1be eacb 9ebe
000001e0: 7e33 c43e bb6c af3e 3f61 9c3e 3552 a0be
000001f0: cb4a ce3e ded2 a73e 5763 b63e 0d4e aabe
