CartPole/checkpoints/reinforce_cartpole/value_net_cartpole_reinforce.pth (torch, 72465 bytes, 5 tensors)

fc1.weight f4 [128, 4]
0.4207588 -0.48288175 -0.50558484 0.16779892 0.23411274 0.15330654 -0.008239002 0.103515506
0.03783351 -0.11151229 -0.036660932 0.00065452745 0.34710804 -0.28724036 -0.46597862 0.10037808
-0.26820347 -0.35532653 -0.38969496 0.37609825 -0.15526292 0.40912306 -0.008525394 0.23941429
-0.27113816 0.009190241 0.2635694 -0.34799477 -0.1949863 0.4102227 0.13191456 0.4278895
0.49395314 -0.14253683 -0.43412688 -0.04959863 -0.32610744 0.07318564 0.06292989 0.38860813
0.22598256 -0.021293208 0.035608422 -0.25056905 -0.07391022 -0.066050574 0.14519653 -0.4385591
-0.06687334 -0.19835603 0.12376706 0.19597743 -0.37458456 0.05021773 0.3690674 0.38798326
-0.093560725 -0.15799767 -0.16471796 -0.08737712 -0.11905889 -0.1739515 0.43948227 -0.43941474
0.43508193 -0.05524468 -0.078925095 0.26691303 -0.4108416 0.11867137 -0.5196146 0.15252377
-0.08934986 0.0474894 -0.3197427 -0.14161658 0.52380455 -0.43164143 0.26499382 0.2295076
0.32744402 -0.44744644 -0.071518876 0.3531776 -0.36127204 0.4917587 0.0042352183 0.2834837
-0.2175644 -0.36701724 0.00041674904 0.013649659 -0.25221264 0.18091975 0.19466618 0.30351806
0.30637914 -0.17037043 -0.26994956 0.3756394 0.17276481 0.30775183 -0.2134451 0.0937446
0.11652291 0.3609194 -0.24980132 -0.33061522 -0.39830375 -0.27891165 -0.41427094 0.027183406
-0.0024083338 -0.43658832 0.23694538 0.13587345 -0.38166016 0.36817124 0.052829847 0.33501527
-0.06502146 0.23943315 0.41285637 0.45582026 0.16277109 -0.21996747 0.45028627 -0.14961578
0.32220998 -0.015194765 0.17514177 -0.31459263 -0.33778006 -0.082627214 0.15297104 0.13852611
-0.377134 -0.2841606 0.20133273 -0.24408415 -0.25702575 -0.321939 -0.31186485 -0.4637689
0.31587386 0.34791392 0.4352555 0.22475824 0.1510419 0.21878546 -0.21023603 0.30931067
-0.21384124 0.23043278 -0.22829308 -0.12036549 0.1151325 -0.20356394 0.27458292 -0.27608776
0.32387123 -0.43947688 0.20250972 -0.030308709 0.32484904 0.39165565 0.09406297 0.46039405
-0.18007103 -0.24983725 0.110089235 0.06789002 0.2536241 -0.4433782 -0.037964217 0.1177605
-0.10574998 -0.2478445 -0.2030734 0.006894499 -0.4645665 0.40160814 0.24308454 -0.15697937
-0.18303889 0.25868684 -0.4521472 0.38535634 0.17862834 -0.11034022 -0.40166783 -0.1995327
-0.35256335 0.079358384 0.14219883 0.31267554 0.32825622 -0.0021841084 -0.043402582 0.13380148
-0.3056419 0.30640814 -0.1139378 0.15595609 0.2952068 -0.26696852 -0.076186955 -0.32412672
-0.16163671 0.46461788 -0.08612247 0.012899834 -0.45075208 0.40353042 0.40172377 0.34482154
0.14862788 -0.22396417 0.5154922 -0.43054464 -0.32343382 -0.16047205 0.37806317 0.08406706
-0.09936465 0.19753805 0.15126172 -0.22257051 -0.022402467 0.41901776 0.27927962 0.22646512
-0.42221093 0.42703882 0.31633145 -0.32392251 -0.19051763 -0.072004296 -0.23499039 0.036764447
-0.017017392 0.16683774 -0.05350872 -0.031293027 0.3271406 0.3222979 -0.03485479 0.1986009
-0.14354157 -0.14920816 -0.12875128 0.18282174 0.027805068 0.20865713 0.17800939 0.33832338
00000000: b36d d73e 473c f7be 026e 01bf 7bd3 2b3e
00000010: 40bb 6f3e 64fc 1c3e e1fc 06bc f0ff d33d
00000020: 50f7 1a3d 8e60 e4bd c629 16bd 9894 2b3a
00000030: 25b8 b13e 2b11 93be c094 eebe 0693 cd3d
00000040: f751 89be 5ced b5be 1986 c7be f38f c03e
00000050: 3efd 1ebe 9478 d13e 18ae 0bbc 0529 753e
00000060: 9fd2 8abe aa92 163c 92f2 863e 5f2c b2be
00000070: 7daa 47be b608 d23e 9c14 073e 5514 db3e
00000080: 6de7 fc3e 2df5 11be e145 debe ef27 4bbd
00000090: 8ef7 a6be 5ae2 953d 63e1 803d a5f7 c63e
000000a0: f967 673e 186f aebc 23da 113d 964a 80be
000000b0: 3e5e 97bd 8645 87bd 66ae 143e d18a e0be
000000c0: e4f4 88bd d81d 4bbe 9679 fd3d 4fae 483e
000000d0: 8cc9 bfbe 1bb1 4d3d 67f6 bc3e bea5 c63e
000000e0: c49c bfbd 24ca 21be d3ab 28be c7f2 b2bd
000000f0: 26d5 f3bd 5820 32be d203 e13e f8fa e0be
00000100: 0fc3 de3e 3f48 62bd 7ba3 a1bd d3a8 883e
00000110: d559 d2be fa09 f33d 7605 05bf 312f 1c3e
00000120: 0ffd b6bd 3f84 423d 51b5 a3be f003 11be
00000130: 0e18 063f 1b00 ddbe 45ad 873e 0a04 6b3e
00000140: bea6 a73e b317 e5be 7d78 92bd b2d3 b43e
00000150: a6f8 b8be ccc7 fb3e 96c7 8a3b c724 913e
00000160: 34c9 5ebe afe9 bbbe 1c7f da39 d2a2 5f3c
00000170: 0422 81be 0743 393e 9256 473e b866 9b3e
00000180: badd 9c3e 9675 2ebe d436 8abe cf53 c03e
00000190: 42e9 303e a691 9d3e 5a91 5abe 2bfd bf3d
000001a0: 90a3 ee3d 6dca b83e ebcb 7fbe 6646 a9be
000001b0: 78ee cbbe 82cd 8ebe 521b d4be bcaf de3c
000001c0: 23d5 1dbb 8188 dfbe cfa1 723e 6922 0b3e
000001d0: f668 c3be f180 bc3e 1c64 583d 1f87 ab3e
000001e0: f929 85bd f72d 753e e961 d33e 4661 e93e
000001f0: 77ad 263e 273f 61be ec8b e63e e134 19be
00000200: b5f8 a43e 77f3 78bc 5d58 333e 4912 a1be
00000210: 82f1 acbe 7538 a9bd 71a4 1c3e cad9 0d3e
00000220: b517 c1be 807d 91be 2b2a 4e3e 32f1 79be
00000230: e198 83be 30d5 a4be c0ac 9fbe 1e73 edbe
00000240: 38ba a13e c621 b23e cfd9 de3e 0627 663e
00000250: baaa 1a3e 4c09 603e 1d48 57be f85d 9e3e
00000260: 33f9 5abe 92f6 6b3e a9c5 69be 2f82 f6bd
00000270: 97ca eb3d 1173 50be 2296 8c3e 605b 8dbe
00000280: 73d2 a53e 1d03 e1be b55e 4f3e f849 f8bc
00000290: 9d52 a63e 1787 c83e 16a4 c03d c5b8 eb3e
000002a0: 8a64 38be 56d5 7fbe 7776 e13d ec09 8b3d
000002b0: 05db 813e 7802 e3be 5e80 1bbd 6b2c f13d
000002c0: 7293 d8bd f3ca 7dbe 79f2 4fbe 40eb e13b
000002d0: a9db edbe 959f cd3e 27eb 783e 33bf 20be
000002e0: 8c6e 3bbe 9a72 843e d67f e7be 6d4d c53e
000002f0: 59ea 363e 0efa e1bd 68a7 cdbe 4d52 4cbe
00000300: 2f83 b4be a686 a23d 929c 113e 0217 a03e
00000310: 3311 a83e 4223 0fbb e8c6 31bd 4103 093e
00000320: 187d 9cbe 87e1 9c3e 3958 e9bd f4b2 1f3e
00000330: 5825 973e 19b0 88be e807 9cbd f0f3 a5be
00000340: 1884 25be 65e2 ed3e fa60 b0bd d359 533c
00000350: fac8 e6be 8a9b ce3e bdae cd3e 738c b03e
00000360: e831 183e dd56 65be 4cf7 033f 5970 dcbe
00000370: 1e99 a5be c952 24be 7f91 c13e 5a2b ac3d
00000380: b27f cbbd 6a47 4a3e 5ae4 1a3e 86e9 63be
00000390: 6185 b7bc 7f89 d63e bdfd 8e3e 79e6 673e
000003a0: 082c d8be d5a4 da3e 32f6 a13e 2cd9 a5be
000003b0: 0e17 43be fd76 93bd 52a1 70be 5196 163d
000003c0: 0f68 8bbc 83d7 2a3e f62b 5bbd 1e2d 00bd
000003d0: f97e a73e 3b04 a53e e5c3 0ebd 095e 4b3e
000003e0: 90fc 12be 06ca 18be 60d7 03be 9f35 3b3e
000003f0: 74c7 e33c 37aa 553e 1848 363e b938 ad3e

fc1.bias f4 [128]
0.32112795 -0.17767793 -0.4422788 0.35208902 -0.36404556 0.23498186 0.28598425 -0.56851375
-0.33162633 -0.59331936 0.2988582 -0.45557564 -0.21121772 0.43654147 0.3906032 0.42831188
0.37396196 0.5039173 0.5108269 -0.21691804 0.16548102 -0.3147876 -0.3691584 -0.5595411
0.22991888 0.4898586 -0.25966647 0.37063712 0.59267783 -0.61955595 0.12479946 -0.30902562
0.4479265 0.22849414 -0.46835425 -0.2023149 -0.14581732 0.61523944 0.49040237 -0.3126662
0.519106 0.51751274 0.5066565 0.39862216 0.5979082 0.21127768 0.5721883 -0.6219246
0.23776083 0.4154692 0.46340346 0.50056857 -0.4117346 0.27170762 -0.5974347 -0.34106842
0.38187864 0.37767485 0.38794535 -0.22507237 -0.45233753 -0.13276498 -0.42062795 0.47091818
0.5171963 -0.20619749 0.34992483 0.51177204 0.57086873 -0.18623438 -0.38123575 0.5757937
0.2225881 -0.21763782 -0.42815137 0.40223584 0.41510382 0.24936108 -0.023602398 0.48322338
-0.5308948 0.45731866 0.5398182 -0.36917263 0.3452305 0.32809746 0.42761308 -0.35894167
-0.5849147 -0.34413335 -0.2868602 0.49945077 -0.52945715 -0.454754 -0.58146286 0.19777198
-0.5205124 -0.5277794 0.46415442 0.31076813 -0.33103725 0.56448853 -0.2584327 -0.35741943
-0.39961576 0.06404243 0.6006834 -0.43814343 0.5202077 0.61543655 0.2989937 0.32342404
-0.4019169 -0.22163229 -0.3097938 -0.4434121 -0.41689783 0.3012485 0.5677651 0.26255953
0.043431494 -0.5651779 0.19013204 0.12554008 0.3440219 -0.51174307 -0.54941005 -0.62897724
00000000: e26a a43e 34f1 35be 5e72 e2be 0345 b43e
00000010: 2e64 babe 169f 703e 876c 923e 1e8a 11bf
00000020: edca a9be c7e3 17bf f103 993e 3641 e9be
00000030: 7549 58be 5d82 df3e 25fd c73e b24b db3e
00000040: f177 bf3e b900 013f 8dc5 023f c31f 5ebe
00000050: db73 293e d72b a1be 5402 bdbe 163e 0fbf
00000060: db6f 6b3e bfce fa3e 01f3 84be 26c4 bd3e
00000070: bcb9 173f 389b 1ebf dc96 ff3d 9b38 9ebe
00000080: 9f56 e53e 5efa 693e 21cc efbe a32b 4fbe
00000090: 2351 15be 5580 1d3f 0516 fb3e c915 a0be
000000a0: 21e4 043f b77b 043f 3eb4 013f 3418 cc3e
000000b0: 8310 193f 2d59 583e ef7a 123f 7336 1fbf
000000c0: 9377 733e 61b8 d43e 3843 ed3e 4325 003f
000000d0: e1ce d2be 431d 8b3e 7bf1 18bf 85a0 aebe
000000e0: 9985 c33e 995e c13e c6a0 c63e 5f79 66be
000000f0: c998 e7be 8bf3 07be 8c5c d7be 301c f13e
00000100: fa66 043f 6f25 53be 5929 b33e 7e03 033f
00000110: 7424 123f 3ab4 3ebe 5531 c3be 3767 133f
00000120: 23ee 633e 73dc 5ebe a836 dbbe dbf1 cd3e
00000130: 7d88 d43e 8358 7f3e d159 c1bc 0e69 f73e
00000140: b9e8 07bf ac25 ea3e 8731 0a3f 3204 bdbe
00000150: 0dc2 b03e 64fc a73e 1af0 da3e 34c7 b7be
00000160: f8bc 15bf 3f32 b0be 57df 92be 03b8 ff3e
00000170: 818a 07bf 84d5 e8be c0da 14bf bd84 4a3e
00000180: 4d40 05bf 8d1c 07bf a6a5 ed3e 001d 9f3e
00000190: b77d a9be 5282 103f 4a51 84be aeff b6be
000001a0: 709a ccbe ad28 833d 63c6 193f 5654 e0be
000001b0: 552c 053f 408d 1d3f b415 993e d697 a53e
000001c0: 0dc8 cdbe 93f3 62be 4b9d 9ebe e906 e3be
000001d0: a273 d5be 3e3d 9a3e 0e59 113f 346e 863e
000001e0: 39e5 313d 80af 10bf f9b1 423e 948d 003e
000001f0: a323 b03e 9801 03bf 23a6 0cbf a704 21bf

fc2.weight f4 [128, 128]
-0.066649415 0.1330473 0.099900365 -0.08984567 0.021198427 -0.11961259 -0.09921065 0.064688906
0.04373639 0.12668064 -0.056022253 0.12935394 -0.016551496 -0.01852377 -0.052556377 -0.09366778
-0.090899706 -0.098445974 0.017177757 -0.0149334725 -0.07758032 0.12344014 0.13286658 0.112013936
-0.07702569 0.007152727 0.053278185 -0.09869807 -0.037457954 0.0836412 0.0306551 0.0500912
-0.094879344 -0.0035130964 0.116443016 0.0824383 -0.029554294 0.017742027 -0.104171745 0.09191662
-0.15196846 -0.060640946 -0.06254349 -0.002047295 -0.0073570944 -0.03793362 -0.11011227 0.051306475
-0.09329366 -0.01332638 -0.046694953 -0.0014897159 0.05279271 -0.12951268 0.14814557 0.04171192
-0.051487878 -0.046829075 -0.07986532 0.024210755 0.07854426 -0.009395868 0.10055737 -0.14637351
-0.14075108 -0.029590232 -0.056515805 -0.12957399 -0.021482188 0.036014196 0.09663193 -0.07108844
0.0035325445 0.11857509 0.07847224 -0.05586068 -0.012395585 -0.061678916 0.043132156 0.009536741
0.118126236 -0.03465769 -0.076727495 -0.025105342 -0.09840164 -0.045576233 -0.14268418 0.07419453
0.096989 0.12165876 0.109616935 -0.12923206 0.016539 0.098247364 0.111686446 -0.04226017
0.14336504 0.01684693 -0.14917031 -0.113578334 0.06822063 -0.11057038 0.008266776 0.012538962
0.06580571 -0.060535453 -0.07350309 0.030398361 -0.05850672 -0.09849771 0.023539579 -0.078785904
0.14033498 0.047894776 -0.0023954143 0.14477627 0.093757495 -0.0056165946 0.005788118 -0.08569634
0.02173065 0.008909275 -0.09765092 0.03603321 -0.034880623 0.10068613 0.06881464 0.130009
0.038179673 -0.0008457693 -0.0010019585 0.0036884993 -0.1293568 0.038041867 0.0763457 -0.14942308
-0.109696664 -0.07309054 0.1014618 -0.092327476 0.022029145 0.08797037 0.019639302 0.044819362
0.106695734 0.10367477 -0.009533819 -0.03400321 -0.0053996164 -0.037095744 -0.01999678 -0.15141708
0.054396864 0.007197895 -0.031067746 0.12973885 -0.012950271 0.009146383 0.0063748723 -0.09196021
0.12717654 -0.009484496 -0.006702276 -0.096466266 0.037760835 0.084561415 0.1324034 -0.105989
0.09169746 0.10840814 0.06882893 0.13374208 0.11507766 -0.007544649 0.060558558 -0.10212966
0.031648412 -0.0017513938 0.14980578 0.06758222 -0.049776986 0.10690655 -0.0010717575 -0.14026879
0.15392777 0.06798658 0.013707947 -0.102114126 -0.06826013 -0.113760255 0.017336322 0.041413553
0.011306292 -0.04893425 0.16064017 0.066802055 0.09830882 0.01546878 -0.1132534 0.12956817
0.0022404627 -0.083113864 -0.038961098 0.016533963 0.01897116 0.06888858 0.09237174 0.013068986
-0.045254327 0.05463809 0.09973403 -0.11353662 -0.010246637 0.06523294 0.10584403 -0.06597263
-0.10452308 0.0029243946 -0.0088035995 0.046670724 -0.012801077 -0.10586288 -0.15401861 0.08980459
-0.035283156 -0.116132915 0.096081264 0.13907102 -0.0071432996 0.10560299 -0.12566459 0.008806465
-0.021992 -0.002279223 0.017943732 -0.085924454 0.08558754 0.07881656 0.006854823 -0.008987348
-0.017682396 -0.014821237 -0.09283469 -0.014310301 -0.069085844 0.09802348 0.11555684 0.09655848
-0.03354459 -0.07584671 -0.045349814 -0.0149236405 0.12857296 -0.0771239 -0.1328547 0.011258177
00000000: 7d7f 88bd 8d3d 083e 9098 cc3d 0201 b8bd
00000010: 53a8 ad3c 72f7 f4bd f42e cbbd 9e7b 843d
00000020: ee24 333d 92b8 013e 9777 65bd 5c75 043e
00000030: 0197 87bc 29bf 97bc 5b45 57bd e5d4 bfbd
00000040: a029 babd 0b9e c9bd 5eb8 8c3c 86ab 74bc
00000050: 6ee2 9ebd 2fce fc3d 2d0e 083e 9067 e53d
00000060: a5bf 9dbd 6c61 ea3b 3a3a 5a3d 3722 cabd
00000070: 836d 19bd 144c ab3d 6720 fb3c 6e2c 4d3d
00000080: 1a50 c2bd fa3b 66bb ad79 ee3d 69d5 a83d
00000090: d91b f2bc ba57 913c ff57 d5bd c83e bc3d
000000a0: 9f9d 1bbe a462 78bd cd16 80bd e92b 06bb
000000b0: c813 f1bb 4960 1bbd 8b82 e1bd bd26 523d
000000c0: bf10 bfbd e456 5abc 3543 3fbd 9242 c3ba
000000d0: 2b3d 583d f99e 04be 79b3 173e 1eda 2a3d
000000e0: f4e4 52bd d8cf 3fbd 6e90 a3bd a255 c63c
000000f0: d0db a03d 20f1 19bc 06f1 cd3d f0e2 15be
00000100: 0d21 10be 3767 f2bc 1e7d 67bd 0baf 04be
00000110: 6afb afbc 9f83 133d f6e6 c53d d196 91bd
00000120: 4382 673b 7fd7 f23d 0eb6 a03d 2bce 64bd
00000130: da16 4bbc 08a3 7cbd 58ab 303d fe3f 1c3c
00000140: 2bec f13d 39f5 0dbd 4e23 9dbd b8a9 cdbc
00000150: cd86 c9bd 25ae 3abd cd1b 12be 4df3 973d
00000160: 2ba2 c63d 3a28 f93d d87e e03d 6955 04be
00000170: cc7c 873c ea35 c93d ddbb e43d 0019 2dbd
00000180: 49ce 123e 9302 8a3c 1ac0 18be c29b e8bd
00000190: 42b7 8b3d b972 e2bd 5f71 073c 3870 4d3c
000001a0: 25c5 863d 06f4 77bd ca88 96bd fc05 f93c
000001b0: bea4 6fbd 2bb9 c9bd 13d6 c03c 815a a1bd
000001c0: f9b3 0f3e 502d 443d 62fc 1cbb 3b40 143e
000001d0: ee03 c03d 690b b8bb 41aa bd3b 9081 afbd
000001e0: 7a04 b23c 35f8 113c 35fd c7bd 8f97 133d
000001f0: fcde 0ebd 8834 ce3d b1ee 8c3d 1421 053e
00000200: 4a62 1c3d 9eb6 5dba 2654 83ba c0ba 713b
00000210: 1c76 04be cad1 1b3d 225b 9c3d 5d02 19be
00000220: a5a8 e0bd 7eb0 95bd 34cb cf3d 3016 bdbd
00000230: 7776 b43c cf29 b43d 9ae2 a03c 8294 373d
00000240: 4b83 da3d 7053 d43d bc33 1cbc f346 0bbd
00000250: 44ef b0bb b5f1 17bd 4ad0 a3bc 140d 1bbe
00000260: 3fcf 5e3d 52dc eb3b c981 febc 43da 043e
00000270: 602d 54bc b6da 153c 4ee4 d03b a255 bcbd
00000280: 913a 023e dc64 1bbc c49e dbbb 1b90 c5bd
00000290: 1bab 1a3d 892e ad3d c294 073e c310 d9bd
000002a0: e1cb bb3d 1605 de3d 2ff6 8c3d aff3 083e
000002b0: d6ad eb3d 1a39 f7bb 400c 783d 5b29 d1bd
000002c0: c4a1 013d 068f e5ba b066 193e 8c68 8a3d
000002d0: f4e2 4bbd d2f1 da3d 377a 8cba 9fa2 0fbe
000002e0: 3e9f 1d3e 8c3c 8b3d 4c97 603c 3621 d1bd
000002f0: f8cb 8bbd 23fb e8bd e704 8e3c 42a1 293d
00000300: 073e 393c 486f 48bd db7e 243e 84cf 883d
00000310: 2256 c93d c470 7d3c 66f1 e7bd 85ad 043e
00000320: bad4 123b 9a37 aabd ac95 1fbd 3c72 873c
00000330: 6869 9b3c 7515 8d3d 652d bd3d 4d1f 563c
00000340: 9a5c 39bd 31cc 5f3d 5b41 cc3d e385 e8bd
00000350: 83e1 27bc d998 853d c1c4 d83d a91c 87bd
00000360: 3210 d6bd 33a7 3f3b f93c 10bc cd29 3f3d
00000370: 9cbb 51bc a3ce d8bd 0eb7 1dbe 78eb b73d
00000380: 1285 10bd 18d7 edbd 41c6 c43d a268 0e3e
00000390: 5712 eabb 6146 d83d 38ae 00be fe48 103c
000003a0: 9128 b4bc 045f 15bb bcfe 923c 29f9 afbd
000003b0: 8548 af3d 946a a13d 6c9e e03b ab3f 13bc
000003c0: acda 90bc c6d4 72bc 1d20 bebd c175 6abc
000003d0: e17c 8dbd 89c0 c83d 11a9 ec3d 74c0 c53d
000003e0: 0d66 09bd 8555 9bbd bac0 39bd 4982 74bc
000003f0: a1a8 033e 23f3 9dbd 100b 08be 3874 383c

fc2.bias f4 [128]
0.015791036 -0.012128774 0.04810687 -0.06096447 -0.0098734265 0.044477105 -0.016677517 -0.06550495
0.13725464 0.096215874 -0.00033122295 0.009651751 -0.103257 -0.044775587 -0.13817823 0.12527947
-0.07282848 0.064113416 -0.021390578 0.061566792 0.0030828053 0.0038454086 0.014025049 0.1350318
0.11397821 0.006054168 0.024426578 0.08293416 0.04064999 -0.06323572 -0.14440213 0.103334054
-0.12430852 -0.0028925203 0.004269527 0.07165772 -0.006968002 -0.1581487 -0.0349825 -0.087774254
-0.1335494 -0.019390726 -0.038245756 0.12953289 0.041276515 0.10189168 0.105661035 -0.013785636
-0.019035643 0.09790809 -0.1022706 -0.06600158 0.13997172 0.004514328 -0.098816484 -0.027692119
0.124386996 -0.05467775 0.010838686 -0.06852993 0.094446145 -0.0886353 -0.10734763 -0.13096952
-0.12692198 0.0972896 -0.055675317 -0.06764516 0.016709957 0.011894142 0.092195205 -0.116578504
0.13978308 -0.0005760103 0.010601966 0.14257617 0.049169924 0.05706946 -0.12304099 0.019602466
-0.07369716 0.006033211 -0.14871483 -0.0033551902 0.1345265 -0.0148471575 -0.0129353665 -0.08423284
-0.062212612 0.056533877 -0.017730998 -0.09410777 -0.14426327 -0.03700144 0.06724647 -0.059043426
0.019018268 0.037852768 0.08585272 -0.13991298 0.14014325 0.07804632 0.0104890745 0.13092323
0.053180654 -0.004788391 -0.08354268 0.0276904 -0.037385985 0.054247573 0.15811037 -0.0744143
-0.0797685 0.04651921 -0.03743136 0.020662488 -0.015560223 0.009910168 0.092950046 0.06820357
0.09512192 0.04793398 0.017829467 0.018315252 0.11793744 0.12094476 0.06900759 -0.10361238
00000000: 345c 813c c4b7 46bc b60b 453d e1b5 79bd
00000010: 27c4 21bc a02d 363d 4a9f 88bc 7627 86bd
00000020: 7b8c 0c3e d40c c53d fea7 adb9 6122 1e3c
00000030: 6878 d3bd 9b66 37bd 987e 0dbe 4349 003e
00000040: 1927 95bd e54d 833d 4b3b afbc 762d 7c3d
00000050: e408 4a3b 4003 7c3b 52c9 653c c745 0a3e
00000060: 686d e93d 0b62 c63b 3f1a c83c 63d9 a93d
00000070: 9b80 263d bb81 81bd 27de 13be cea0 d33d
00000080: 7795 febd 7090 3dbb 63e7 8b3b 48c1 923d
00000090: d653 e4bb bcf1 21be cf49 0fbd fdc2 b3bd
000000a0: 2dc1 08be 4dd9 9ebc 95a7 1cbd 45a4 043e
000000b0: 9011 293d 96ac d03d d064 d83d 26dd 61bc
000000c0: a3f0 9bbc 0984 c83d 4073 d1bd d62b 87bd
000000d0: bf54 0f3e eeec 933b 4c60 cabd 95da e2bc
000000e0: 9cbe fe3d c7f5 5fbd be94 313c 6c59 8cbd
000000f0: fb6c c13d 6d86 b5bd 13d9 dbbd e01c 06be
00000100: d6f7 01be c53f c73d cd0b 64bd 8c89 8abd
00000110: 52e3 883c a6df 423c d7d0 bc3d b6c0 eebd
00000120: 4c23 0f3e 66ff 16ba deb3 2d3c 7dff 113e
00000130: 6766 493d abc1 693d eafc fbbd 5a95 a03c
00000140: 89ee 96bd 3eb2 c53b b348 18be c0e2 5bbb
00000150: 51c1 093e 7e41 73bc dcee 53bc 4482 acbd
00000160: a7d2 7ebd 1190 673d 9940 91bc 93bb c0bd
00000170: c0b9 13be d28e 17bd 84b8 893d 85d7 71bd
00000180: 33cc 9b3c 810b 1b3d 8dd3 af3d 5945 0fbe
00000190: b681 0f3e c0d6 9f3d 5eda 2b3c bd10 063e
000001a0: f5d3 593d efe7 9cbb 6d18 abbd fad6 e23c
000001b0: 0c22 19bd b432 5e3d afe7 213e 8666 98bd
000001c0: ab5d a3bd ed8a 3e3d a051 19bd 6144 a93c
000001d0: 4ef0 7ebc 425e 223c 985c be3d 50ae 8b3d
000001e0: 48cf c23d 6c56 443d 1a0f 923c de09 963c
000001f0: 2f89 f13d e3b1 f73d da53 8d3d ba32 d4bd

fc3.weight f4 [1, 128]
-0.22743134 0.26658115 0.27340457 -0.20194314 -0.25086793 0.2684266 -0.28241378 -0.1927672
0.24586895 0.2316705 -0.25971308 -0.2958887 -0.27288488 -0.23960151 -0.21178167 0.23812911
-0.26526138 0.25209314 0.22934142 0.25229183 0.27479857 -0.22017555 -0.2588537 0.27766773
0.229696 0.29255363 -0.27927983 0.231442 0.2764993 -0.2869192 -0.22598328 0.27323404
-0.28658196 0.2711553 -0.2446901 0.2709953 0.2504768 -0.20258327 -0.2555214 -0.23370928
-0.19613057 -0.26438963 -0.20948797 0.2780163 0.21695523 0.21174811 0.24857321 0.22527237
-0.22387606 0.24559551 -0.24688129 -0.2385382 0.1926451 -0.29502204 -0.28470138 -0.28199244
0.24093911 -0.2992638 -0.25382793 -0.28882524 0.24791932 -0.2020441 -0.20552509 -0.2034086
-0.29731694 0.26586622 -0.29241443 -0.26164788 -0.25083667 0.28848496 0.2001383 -0.2247348
0.20604762 -0.2360187 0.2883413 0.27444872 0.20874217 0.24826863 -0.19502991 0.25039768
-0.26989934 0.2897545 -0.23686437 -0.22218126 0.1902087 -0.24821028 -0.29347068 -0.22747037
-0.20488626 0.25023437 0.2651562 -0.2525627 -0.24528866 -0.22494231 0.27175128 -0.2981002
-0.2930621 0.23064004 0.24544378 -0.22821265 0.2212676 0.24688758 0.28618178 0.24049327
0.25632042 -0.2262013 -0.28961942 0.22166274 -0.28075632 0.27358943 0.25454727 -0.25134352
-0.26642454 0.24047649 -0.2567158 0.24091361 -0.25633654 0.21979609 0.25180566 0.21317509
0.26587072 0.24652708 -0.29334635 0.25091752 0.26954263 0.28871349 0.2748058 -0.2911024
00000000: c3e3 68be 537d 883e affb 8b3e 2fca 4ebe
00000010: c371 80be 366f 893e 8a98 90be c464 45be
00000020: 12c5 7b3e 083b 6d3e 1df9 84be b97e 97be
00000030: 91b7 8bbe 195a 75be 4bdd 58be 1ed8 733e
00000040: 57d0 87be 5a12 813e 7ad8 6a3e 652c 813e
00000050: 66b2 8c3e b375 61be 7988 84be 772a 8e3e
00000060: 6e35 6b3e 97c9 953e c4fd 8ebe 22ff 6c3e
00000070: 5191 8d3e 13e7 92be 2968 67be 55e5 8b3e
00000080: dfba 92be ded4 8a3e 0b90 7abe e5bf 8a3e
00000090: 7f3e 803e fd71 4fbe b3d3 82be 7c51 6fbe
000000a0: 74d6 48be 145e 87be 0484 56be 2758 8e3e
000000b0: 8329 5e3e 7fd4 583e fa89 7e3e cdad 663e
000000c0: c43f 65be 647d 7b3e 73ce 7cbe 5c43 74be
000000d0: c244 453e 210d 97be 61c4 91be 5061 90be
000000e0: beb8 763e 1b39 99be bcf5 81be e7e0 93be
000000f0: 90de 7d3e a6e4 4ebe 2b75 52be 584a 50be
00000100: ed39 98be 9e1f 883e 58b7 95be b6f6 85be
00000110: aa6d 80be 4db4 933e 0ef1 4c3e e120 66be
00000120: 26fe 523e e3ae 71be 79a1 933e 8b84 8c3e
00000130: 82c0 553e 223a 7e3e ecb5 47be 2034 803e
00000140: 3f30 8abe b45a 943e 938c 72be 7c83 63be
00000150: 12c6 423e d62a 7ebe ca41 96be feed 68be
00000160: b4cd 51be b81e 803e 8ec2 873e e64f 81be
00000170: f32c 7bbe 4757 66be fc22 8b3e 97a0 98be
00000180: 3c0c 96be e72c 6c3e 9d55 7b3e 94b0 69be
00000190: f993 623e 19d0 7c3e 6b86 923e de43 763e
000001a0: 6e3c 833e 50a1 67be ff48 94be 8ffb 623e
000001b0: 4bbf 8fbe ea13 8c3e 0554 823e 19b0 80be
000001c0: cc68 88be 783f 763e 4170 83be 0fb2 763e
000001d0: 8b3e 83be 3a12 613e acec 803e 924a 5a3e
000001e0: 3520 883e 9871 7c3e 7e31 96be 4378 803e
000001f0: 7e01 8a3e 41d2 933e 59b3 8c3e 600b 95be
